dqn_school1.pth (torch, 25721 bytes, 6 tensors)

net.0.weight f4 [64, 20]
00000000: d67f ad3d 8b7e 6ebd 4eb7 94be 2a98 24be
00000010: d3cf b6be 14d1 19bd 7dcf 72bd e32f 233e
00000020: 09c5 a63d 1159 95be 0f42 5dbc de8f 8cbd
00000030: 1a37 6abd d942 b7be ffcb b0be a819 96be
00000040: 176e 173e 0880 acbd 4197 7abb 32f3 b33d
00000050: ac87 0a3e 9c7b a9bd 600c debe 1cbf a53e
00000060: 5ba6 853e 3b77 3bbe 597e 8e3e b9bd f8bd
00000070: 3c71 4abe fbd4 3ebd 3d01 acbe ab4c b33e
00000080: 2e34 18be 54c0 28be 8261 c23e 81cb a73e
00000090: cacd 02be f1da d43e 8941 3fbe 09da 1e3e
000000a0: 1e6a 0d3e 5d77 8dbf 5296 853d cde7 36bd
000000b0: 5b6b 62bd c5f7 a43d 6c11 1ebe aa46 a33d
000000c0: 28da 3fbe 493a 983d 97f6 4e3d fd31 61bd
000000d0: a1df 67bf 9214 403d ef01 893e 34de dabd
000000e0: 7be3 0f3d 8e48 93be e519 7a3e d250 36bd
000000f0: 85c9 263d 2d74 5fbd 996f be3e 2221 17bd
00000100: f8b6 02be 5722 3fbd 92fe 053f 7a6a 8bbf
00000110: d28f ca3e 64d3 46bf a16d 39be 76bf 9abe
00000120: 95b8 863c a6a0 c73e 2c69 cbbd 2696 58be
00000130: 2590 b5be d49c 093f 3161 4dbf 36ed 943e
00000140: 493c dbbc e46a 0f3e b13e 6abd 8d2a 2f3d
00000150: c11b b53d 251a 943e 3c19 633e 4cad 7d3e
00000160: 27e8 2e3e 2e08 6dbe 17f4 85bd 49da afbd
00000170: 430f c1bd 66a9 5d3e 8f6f 4f3c a7be 1d3e
00000180: 8dc0 b23e d6f7 8f3e 284a b93e 6c20 7bbd
00000190: 7ced 9ebe 0b85 8fbe 6fd9 8abd 63f3 abbe
000001a0: 1edf 853e 31eb 01bf f890 05be 3d4b dc3e
000001b0: cfa8 7cbe 698d b73e ee4f 183c 7ffa 70be
000001c0: bcf6 66be e7b7 6ebe 80bd b8be 8539 f93e
000001d0: c8e7 b1be 7d69 cbbe 6911 223e 1a6d f9be
000001e0: 076c 073e 3524 05be 5635 1ebe 2839 0abc
000001f0: 0f25 d93d 9632 e0bd 98ec 82be 1e78 2abf
00000200: 84d2 2b3d b9d9 f43d bb68 e03d 41af 393e
00000210: 85ae 0a3d dbc6 aabe 932a d83d a11c ba3d
00000220: c2d3 a3bd 2fc4 25be 0a82 e9be f716 a43e
00000230: b046 c13d 3ecf b0bd 26cb 443e a576 2bbe
00000240: 74bd f4bc 8bc1 57be b649 c6bc 0742 b2bd
00000250: 18f6 09bf cdc4 293d 4b5c 41bc 7e72 cfbd
00000260: 2a2b 103b 961f 21be 8f8f 1f3e 89ad 6f3d
00000270: 3413 acbe adc6 b73d 2043 aebd 52c0 8cbe
00000280: 5659 943e 9ba0 2b3e 3a81 48be b0d0 dcbd
00000290: 7965 58bf 061b c33e 99c6 a83e b0b9 96bd
000002a0: dd84 d2bd 5680 b83e ee44 993c 71cb 0abd
000002b0: adfe 093d a5e3 9dbe 31e0 84be 1144 67bf
000002c0: e52e c53e 211f c33e fbf1 b1bd a847 b2bd
000002d0: 8535 3abd dc19 a93d 588d 0e3d ba49 70be
000002e0: c16b 87bd 75f4 1c3e a87f 093e 54b8 bbbe
000002f0: 7a18 2abf ca28 1f3f e924 c0be e98e 2d3e
00000300: 1e71 f1bb e606 fcbc 712f c0bd fb8e b6bd
00000310: c6aa 273e a649 963e 32ce 8cbe 3173 e5be
00000320: 1d70 ea3e d277 1f3d 7389 093f cf3f b4be
00000330: 567d 9bbe 552c 613c a1a4 9dbe 4a2a b33e
00000340: 3d4f 293e 9c04 78bd 4f2c 37be 550b 5d3e
00000350: 5948 ffbd 30bc f83e c3db a8bb 7a87 b0be
00000360: e91b 2c3d b408 c3bd da22 133e 0111 81be
00000370: 2a1b 6dbd d829 623d d180 d33c df93 813e
00000380: 843f 87bf b8cc 4d3e 6ea6 833b a0fb 463e
00000390: 8e8c c2bc 2403 563d 0afc 513d df57 ddbd
000003a0: 6b0f 373e f945 ce3b ca9b 4abd db0e 6abf
000003b0: ce3e 5ebe 22ab 6a3e 2b8d 563e d8b4 efbc
000003c0: e2ae c5bd fed0 10be d154 6b3e c53f e63d
000003d0: 7632 49be b0d1 3b3e 34d9 ae3e 6466 2dbf
000003e0: 0c53 153d 96f9 eabd 6d86 0e3e c9c8 903e
000003f0: 0d27 29be e63d 003f 3c52 913e 284a f43d
0.084716484 -0.05822615 -0.290461 -0.16073671 -0.35705432 -0.037552908 -0.059279907 0.15936236
0.0814305 -0.29169515 -0.013504519 -0.06863378 -0.057181455 -0.35793188 -0.34530637 -0.2931645
0.1478809 -0.084228575 -0.0038237127 0.0878662 0.13528317 -0.0827553 -0.43368816 0.32372367
0.26103482 -0.18307202 0.2783077 -0.12145562 -0.19769758 -0.046589833 -0.33594695 0.3501943
-0.14863655 -0.16479617 0.37965018 0.3277245 -0.12773815 0.4157329 -0.18677343 0.15512861
0.13810012 -1.1052052 0.06522812 -0.044654656 -0.055278163 0.08055071 -0.15436333 0.079724625
-0.18735564 0.07432992 0.050528135 -0.054979313 -0.90575606 0.046894617 0.26759288 -0.10686913
0.03512905 -0.28766292 0.2442394 -0.04451067 0.040719528 -0.054554153 0.37194517 -0.036896832
-0.1276511 -0.04666361 0.5234157 -1.0891869 0.3956285 -0.77666306 -0.18108226 -0.30224198
0.016445437 0.38989753 -0.09932169 -0.21151027 -0.35461536 0.53754926 -0.8022643 0.29087228
-0.026762145 0.1400562 -0.057188693 0.04276519 0.08843184 0.28926197 0.22177595 0.24773139
0.17080747 -0.23147652 -0.06540697 -0.085865565 -0.09426739 0.21646652 0.012660875 0.1540476
0.3491253 0.2811877 0.3618939 -0.061310217 -0.3104056 -0.2803119 -0.067797534 -0.33584127
0.26146787 -0.507495 -0.13043582 0.43026152 -0.2467377 0.35850075 0.0092964005 -0.23533057
-0.22555059 -0.2331234 -0.36082077 0.48676696 -0.34747148 -0.3972892 0.15826954 -0.4871605
0.13224803 -0.13002093 -0.15450034 -0.008436479 0.106027715 -0.109471485 -0.25571132 -0.66589534
0.04194881 0.1195559 0.10957476 0.1813326 0.03385784 -0.3335484 0.105549954 0.09087492
-0.07999374 -0.1618812 -0.45607024 0.3204877 0.09437311 -0.08633278 0.1921812 -0.16744478
-0.029875495 -0.21069925 -0.02420507 -0.08704 -0.53891134 0.04144745 -0.0118017895 -0.101292595
0.0021998384 -0.15734705 0.15582107 0.058515105 -0.336084 0.08973441 -0.08508897 -0.2749048
0.28974408 0.16760485 -0.19580546 -0.107819915 -0.84529835 0.38106555 0.32964018 -0.07359636
-0.10279248 0.36035413 0.018709626 -0.033885423 0.033690143 -0.30837741 -0.25952294 -0.90338236
0.3851234 0.38109687 -0.08688732 -0.087050736 -0.045461196 0.082568854 0.034802765 -0.23465624
-0.06612349 0.15327628 0.13427603 -0.3666407 -0.664436 0.62171614 -0.3752816 0.16949047
-0.007368221 -0.030765008 -0.09384049 -0.0891399 0.16373739 0.29353064 -0.27501065 -0.44814447
0.4578866 0.03893263 0.53725356 -0.35204932 -0.3036906 0.01374348 -0.30789664 0.34993201
0.16534133 -0.06055127 -0.17887996 0.21586354 -0.12464971 0.48581076 -0.0051531508 -0.3447836
0.042018805 -0.09523144 0.14368764 -0.25208285 -0.057887234 0.055215687 0.02581826 0.2530813
-1.0566258 0.20097625 0.0040176427 0.19431925 -0.023748662 0.05224909 0.051265754 -0.10807776
0.17876975 0.0062949625 -0.04946498 -0.9142892 -0.21703646 0.22916844 0.20952289 -0.029261038
-0.09652497 -0.14142224 0.22981574 0.11242632 -0.19648156 0.18341708 0.34150088 -0.6773436
0.036456153 -0.11473386 0.13918467 0.28278187 -0.16518803 0.5009445 0.28383052 0.11928207

net.0.bias f4 [64]
00000000: 7c70 7d3f 20c4 5abe 3b33 7d3f 1755 dbbe
00000010: e001 b53f 3ac1 f9bd 08d2 623f 849f a53f
00000020: 9292 a13e 3069 ce3e 54be 8c3d eb8e 813f
00000030: 54eb 093e 74e3 453f 26f3 9b3f 4f0d ed3e
00000040: 879c 133f c5bf be3f 408a 923f 602c 833f
00000050: 6b6d 973f 5165 943f d171 723f 7114 013f
00000060: 6f4e 9a3f 6a3d 623f fff2 a93f e358 8e3f
00000070: 9a3b 893f 3496 b33f ce19 463f e29d f13e
00000080: 7f33 8a3f d841 4a3d 4332 a53f c1c4 ad3f
00000090: c503 843f 5b80 8b3f 2363 583f 91bd 95be
000000a0: 4d3d 5d3d 5675 d23f f262 9a3f d5bd ba3e
000000b0: 1880 fd3e 349d 613f 6406 993f c9f1 843f
000000c0: 0dfb 9b3f b896 883f 0652 6b3f 15fe ab3f
000000d0: d70e 243f b36f 323f 30e6 983f e42b 793d
000000e0: 4383 c93e 59e3 723f 31da ae3f 7881 92bd
000000f0: f5ad 903f e585 b2be 422c a23f cfa9 483e
0.9899976 -0.21363878 0.98906296 -0.42838356 1.4141197 -0.12195058 0.8860173 1.2939305
0.31557137 0.40314627 0.0687224 1.012174 0.13468677 0.7730019 1.2183578 0.46299216
0.57660717 1.4902273 1.144844 1.0247917 1.1830267 1.1593419 0.9470492 0.50421816
1.2055186 0.8837496 1.3277282 1.1120876 1.0721314 1.4030213 0.77383125 0.47190768
1.0796965 0.0493792 1.2905964 1.357567 1.031365 1.0898546 0.8452627 -0.2924619
0.05401354 1.6442058 1.2061446 0.36472955 0.4951179 0.881305 1.1955075 1.0386287
1.218599 1.0670996 0.9192203 1.3436915 0.64085144 0.6970169 1.1945248 0.060832873
0.39357957 0.94878155 1.3660337 -0.071536005 1.1303087 -0.34867778 1.2669756 0.19596027

net.2.weight f4 [64, 64]
00000000: fadc da3e 26e9 903d a982 683e 2df3 9dbe
00000010: 4e12 bc3e d7f5 3ebd 27da 923e 3464 5e3f
00000020: 08f4 8cbe 7d60 06bd c0da cf3d be4d 5d3e
00000030: 072c 74bd c0d2 6c3e 6512 8c3e d0cd ef3d
00000040: dfec a53d 3b27 0c3f 3aaa ab3e e031 f53e
00000050: 3672 a03e a978 0a3f 5e97 c53e 9107 e73d
00000060: 5138 373f 4569 f0bd 0a2e 763e 3646 a73e
00000070: 4098 2b3f 4387 493f 2f4f 423e 48a9 453d
00000080: 94b0 3c3e 0563 ff3d d343 843e a83d 6c3f
00000090: 4c44 a2bd be6c 8d3d bef8 05be 2153 acbe
000000a0: 143a 48be 4db3 8d3f f2e4 a43e 96ad 14be
000000b0: 6ffe 8d3e fa2a 003f e8c2 4b3e d3bc d13e
000000c0: 0360 e13e e2eb b73e 13cf 793b 1941 cd3e
000000d0: 2727 b4bd 1793 cabd 1ce3 e53e 55b4 3c3e
000000e0: 297c edbe 8ee9 da3e df2f d63e 09e0 1fbf
000000f0: 9cda 253e ea7f 42be a51b 1c3f 4dbc c83b
00000100: 4810 763e af26 363e f56d 5b3e a633 2c3d
00000110: 14f1 043f 5ae3 5b3d 7a4e 1d3e 1738 313f
00000120: ffb5 b03d 45f0 a83d c122 cb3d febb 043f
00000130: df4c d13d e037 b03e 5e63 f43e 5e57 a03e
00000140: a24b 313e aed3 383f 7962 be3e 126f d63e
00000150: e265 013f 3d53 063f 1013 063f 1e8d 823d
00000160: a858 f33e eba0 863e 1c39 cd3e f4e0 e03e
00000170: ae3e 123f 9780 333f 072c a83e c42e 87ba
00000180: 6b78 9d3e 2b15 903e 5c31 f23e 0263 4a3f
00000190: 5d1d 943e 299c 803e 3c4f 4a3e 1469 673e
000001a0: a7a0 e93c 5e48 793f 7f92 e43e ea68 c83e
000001b0: a48f 3b3e 3d8c 243e a04d 123f 0e97 933e
000001c0: 65a7 003f ca4e 023f 6d54 943e 4581 0e3f
000001d0: 1b47 543e 83bf d73d d968 103f c463 503e
000001e0: 74e5 503e 08b8 023f 0420 1f3f 7416 7a3d
000001f0: bbbf 943e ce91 38be 6119 373f 77be 823e
00000200: cff5 bcbe c722 18bf 25c7 9dbf d1f9 bbbe
00000210: 8ab8 553c 558e 59be ba23 99bf eafb d6be
00000220: 9f16 f03d 2636 b4be 7973 d1be 7a04 8dbe
00000230: 3134 983c f818 a8be 5a13 09bd efa7 aabd
00000240: f89a fcbe 8a50 c9bd 5a56 01be 0a8a a13e
00000250: 8d1c 133d 5ab8 20be 7a9f e9bd 88f3 98bf
00000260: b8ea 32bd 4560 603e 3569 68bd ce2f 56be
00000270: 475a 7d3e c555 58bd bdcc 073e e0b1 95be
00000280: d43c 3abe dc05 9abf 6329 063e 1654 5dbe
00000290: b0f0 d13d 7e05 b03d 826e b7be 1da6 e03d
000002a0: 2673 28be c3a6 a4be 56bc 1bbd 9833 66be
000002b0: b3c2 193e 62e3 b73e 86ed eb3d de90 90be
000002c0: 7152 59bd d20a 9e3e ccc7 56be 7e3b f0be
000002d0: 2095 f33d c93a 7d3d 43b4 e6bc 2f95 88be
000002e0: 5ba2 3b3e 146a 0cbf 77b9 783d f47a 36bd
000002f0: 4e96 1ebe abc9 16bf 4100 e5bd ebd9 cfbf
00000300: 2936 5e3c a618 2fbd 0e23 99bd 4f34 4c3d
00000310: 7621 0dbe bb6e d8bd 8605 d0bd ba25 b83d
00000320: 6301 073b 70f9 b1bd c40b 8a3d 6af3 a13d
00000330: 11fd 053c c350 88bd 580b 07be 6196 e73d
00000340: 0bd7 093c 9312 99bd 03f5 f9bd 0782 ae3d
00000350: 4104 8e3d c980 dabd 0d5a 013d e98b c3bc
00000360: d66f b9bb 99ca 043d ab08 0abe 4a9a 6abd
00000370: da2f 09be 7cef 00be 9b19 b63d 78f6 513d
00000380: aee9 3c3b aa7b f0bd 233a fbbd 7be5 c4bc
00000390: bed3 153d fd53 5f3d 8474 9cbd d9d2 58bd
000003a0: 1244 83bb 0841 d0bd 7f68 d53d cf02 28bd
000003b0: d720 4ebc 84e0 e0bc ad62 b1bd f615 92bc
000003c0: ed34 35bd e936 003d c16c 643b d196 19bd
000003d0: a3c6 ad3d d884 f93c c62e 833c c81e 42bd
000003e0: d53b ebbd 5c04 04be 57ed 2d3d 7ea6 7e3d
000003f0: e079 e4bb 8c20 303d 0802 333c 9bd2 84bd
0.42746717 0.070757195 0.22706093 -0.3084959 0.36732715 -0.04662117 0.28682062 0.8687165
-0.2752993 -0.032806862 0.10149145 0.21611688 -0.0596123 0.2312727 0.27357784 0.117091775
0.0810182 0.5474736 0.3352831 0.47889614 0.31337136 0.5409036 0.38592046 0.1128074
0.71570307 -0.117388286 0.24041 0.32670754 0.6702919 0.7872202 0.18975519 0.048257142
0.18426734 0.12470058 0.25832996 0.9228158 -0.07923183 0.069055066 -0.13083169 -0.33657172
-0.19553405 1.1070343 0.3220592 -0.14519343 0.2773318 0.5006558 0.1989857 0.40964374
0.44018564 0.35922152 0.003811781 0.40088728 -0.0879653 -0.098913364 0.44899833 0.18428166
-0.4638379 0.42756313 0.41833398 -0.62451226 0.16196674 -0.18994108 0.6097968 0.006125963
0.24029648 0.17788194 0.21428664 0.042041443 0.51930356 0.053683616 0.15361968 0.6922621
0.08628463 0.08248953 0.09918738 0.51849353 0.1021974 0.3441763 0.4773206 0.31316656
0.17314008 0.72198 0.37184504 0.41881615 0.50546086 0.5247076 0.5237284 0.06374572
0.47528577 0.26294646 0.40082633 0.43921626 0.5712689 0.7011809 0.3284609 -0.001031362
0.30755934 0.2814115 0.47303283 0.79057324 0.28928652 0.2511914 0.19756788 0.22598678
0.028518988 0.9737605 0.44643018 0.39142543 0.18316513 0.16069122 0.57149696 0.28826183
0.50255424 0.5090147 0.28970662 0.55666 0.2073025 0.10534575 0.56409985 0.20350558
0.2040003 0.5106206 0.62158227 0.06105657 0.2905253 -0.1802437 0.715231 0.25535938
-0.36906287 -0.59428066 -1.2326399 -0.36714032 0.013044486 -0.21245702 -1.1964028 -0.4198907
0.11723065 -0.35197562 -0.4090841 -0.27542478 0.018579574 -0.3283155 -0.03346572 -0.08332812
-0.49336982 -0.09829815 -0.12630597 0.31550628 0.0359159 -0.15695325 -0.11407371 -1.194932
-0.043680876 0.21911724 -0.05674096 -0.20916674 0.2474147 -0.05281617 0.13261695 -0.2923727
-0.18187267 -1.2033038 0.13101725 -0.21614107 0.102509856 0.085947976 -0.35826498 0.109691836
-0.16450176 -0.3215848 -0.038021408 -0.22480619 0.15015678 0.35915667 0.115199134 -0.28235525
-0.053057138 0.3086763 -0.20974654 -0.4692039 0.11893678 0.06182364 -0.028162127 -0.26676318
0.18323652 -0.5484936 0.060723748 -0.04455085 -0.15487024 -0.5890147 -0.11181689 -1.6238378
0.0135627175 -0.042748116 -0.07477389 0.049854573 -0.13782296 -0.10567995 -0.101573035 0.08991571
0.0020600192 -0.086901546 0.06740525 0.07907756 0.0081780115 -0.06656029 -0.13187921 0.113079794
0.008413087 -0.07474246 -0.122049354 0.085208945 0.06934405 -0.10669095 0.03158002 -0.023870425
-0.005659084 0.032419775 -0.13479869 -0.057276048 -0.1339716 -0.12591356 0.088916026 0.05126044
0.0028825807 -0.11742337 -0.12266948 -0.024035206 0.036578886 0.054523457 -0.07639411 -0.052935455
-0.0040059173 -0.10168654 0.10420322 -0.041018303 -0.012581072 -0.027450807 -0.08661399 -0.017832737
-0.044239927 0.031302366 0.0034854861 -0.037497345 0.084851526 0.030458853 0.016013514 -0.047392637
-0.114860214 -0.12892288 0.042462673 0.062170498 -0.0069725364 0.04299979 0.010925777 -0.06485482

net.2.bias f4 [64]
00000000: 4f16 993f 0879 ac3f c9bf 39bc c1e4 a33c
00000010: 82e7 a93f 1e9f 9e3f 51aa b03d d0ba 9a3f
00000020: 2f7a 8b3f 06fd 02be 1a76 a33f 0282 7fbd
00000030: 67b5 943f 6576 73bd 7d9b af3e c326 e8bd
00000040: e4ae 9c3f c1b2 9c3f 253c af3f f124 b93f
00000050: f609 ad3f c885 c1bd f3ca 423f 6a8a a63f
00000060: 1295 a53f 31f2 00be beaf af3f 531e a83f
00000070: abf3 32be a28a 823f ccc6 9e3f b7ea 993f
00000080: d4dd fd3d f5d3 a23f 9047 6cbd 1bea 023f
00000090: 52cb 9fbd 9e5b a53f c6d1 a53e d309 9d3f
000000a0: fd75 a73f 03e1 9d3f 1fc1 fbbb e0ce 883f
000000b0: d57f a93f 984d a63f a202 42be 0698 ba3f
000000c0: 00c7 f7bd 16a2 503e 8e56 ab3f 3caf e03d
000000d0: 05e4 a73f ad9a a13f dbb8 a03f e517 683d
000000e0: 3693 913a f1f3 973f c4bf debd 17cb a83f
000000f0: 78f8 6ebe ce20 b73f 89ec 943f 47eb b63d
1.1959933 1.3474436 -0.011337229 0.02000654 1.3273776 1.2392309 0.08626235 1.2088261
1.0896662 -0.12791833 1.2770417 -0.062379844 1.161786 -0.05943908 0.34298316 -0.11335518
1.2240872 1.2242051 1.369023 1.4464399 1.3518665 -0.09449345 0.76090926 1.3010991
1.2936118 -0.12592389 1.3725507 1.3134254 -0.17475764 1.0198557 1.2404418 1.2024754
0.12395826 1.2720934 -0.057685435 0.51138467 -0.07802452 1.2918584 0.32386607 1.2268623
1.3082882 1.2334293 -0.007682934 1.0688133 1.3242136 1.299243 -0.18946317 1.4577644
-0.12098503 0.20374331 1.3385789 0.10970923 1.3116461 1.2625328 1.2556413 0.056663413
0.0011106494 1.187132 -0.1087642 1.3186978 -0.23336971 1.4306886 1.1634685 0.08931594

net.4.weight f4 [2, 64]
00000000: edb2 1d3f 90c1 0c3f 039c 20bf 3bcf cebd
00000010: 0851 e03e 744d f13e cf61 84bd 1d83 be3e
00000020: c675 a93e 2e05 12bd 8a71 083f 768e 18bf
00000030: 6e34 a83e 9edd ddbd c179 153f 1a0c 96bd
00000040: f0b2 093f e023 093f 4d3b 083f d4c9 ea3e
00000050: 8408 f83e 6bf0 65bf bed7 d53e b12a 093f
00000060: c459 193f f167 9c3d 9eb1 1c3f 3f0a f53e
00000070: 2db0 28bf 6985 183f 0459 023f f02d 963e
00000080: 6030 a1bf e27e fd3e 3cac 043d 602f 143e
00000090: e0ca 4e3d 1892 d43e a9af 453f b951 b63e
000000a0: 4994 fb3e 381b 0a3f 08d5 73bd 4bf9 9b3e
000000b0: b9b3 b13e e96f 093f 2f88 97bf 3af8 0d3f
000000c0: 9025 fe3c b357 083f 2a51 c33e 1e6e f0bc
000000d0: 1bf5 c33e 061c 023f e26c c53e a11e 3bbf
000000e0: ab1b 1a3f b176 e33e 2c73 a4bf 2d9a c63e
000000f0: 5bcb 4cbf 4d74 003f d8c9 0d3f b407 aebd
00000100: fe13 2b3f 5a94 e83e ebfd 343a c185 b2bc
00000110: ce99 e73e 5e9c f83e 8300 b03b 4350 183f
00000120: 32e2 2b3f 6490 b8bd 3c5a d33e 8e93 883e
00000130: 1548 053f 5da2 e83c 2bec d23d 8a3d d7bc
00000140: 5e95 a53e 44b2 bc3e 5fe1 c73e a0f5 f53e
00000150: 3097 f73e 4233 8b3e 319a c43e a3a7 f93e
00000160: f5f9 c63e 78ae c3bc 97f4 e23e e3b6 013f
00000170: fe17 6f3f 05bf 313e 7094 113f e372 e63e
00000180: b2cb 703f 76e4 043f eec8 d6bd 7c82 413f
00000190: cda3 e13a d27a f43e a64f 9e3f c637 ff3e
000001a0: 43d5 f43e 72b9 ce3e fe41 7abd cefb 1a3f
000001b0: 4f0d fe3e 7384 0e3f ae75 473e 2428 f53e
000001c0: d2d6 81bd 6d23 a43f 0302 013f 5911 f63b
000001d0: 53c7 e43e b94a e23e 3f1a fe3e 175c 7ebe
000001e0: f587 0cbf 5ef7 033f 8a9a aa3e 5f3a 063f
000001f0: 88f9 28bf d0e1 fe3e 37ac 9c3e 97c0 acbb
0.61601144 0.5498285 -0.62738055 -0.1009812 0.43811822 0.47129405 -0.06463968 0.37209406
0.33097667 -0.03564947 0.53298247 -0.5959238 0.328525 -0.10833286 0.58388907 -0.07326527
0.5378866 0.53570366 0.53215486 0.45857108 0.48443997 -0.89819974 0.4176616 0.53580767
0.59902596 0.07637013 0.6120852 0.4785938 -0.6589382 0.5957857 0.5091708 0.29331923
-1.2592888 0.49510866 0.032390818 0.14471197 0.050486445 0.4151771 0.7722116 0.35609224
0.4913657 0.5394778 -0.059529334 0.30463633 0.3470743 0.53686386 -1.1838435 0.5545689
0.03102377 0.5325882 0.3814786 -0.029349383 0.38272938 0.5082401 0.38559633 -0.7309361
0.6019847 0.44426492 -1.2847648 0.38789502 -0.79997796 0.5017746 0.55386114 -0.08497563
0.6682738 0.45425683 0.0006904292 -0.021792294 0.4523453 0.485568 0.0053711548 0.5949747
0.6714202 -0.09011915 0.4127978 0.26675075 0.52063113 0.028397733 0.10298952 -0.026274461
0.3234052 0.36854756 0.39039132 0.4803896 0.48357534 0.27187544 0.3839889 0.4876071
0.38862577 -0.023886904 0.44327232 0.5066969 0.93395984 0.17358024 0.5686712 0.45009527
0.94060814 0.51911104 -0.10487543 0.7558973 0.0017214954 0.47749954 1.2368057 0.4984724
0.47818956 0.4037586 -0.06109809 0.60540473 0.4961953 0.5567085 0.19478485 0.47882187
-0.06339802 1.2823311 0.50393695 0.007509392 0.44683322 0.44197634 0.496294 -0.24839817
-0.54894954 0.5154933 0.3332103 0.5243282 -0.66005754 0.49781656 0.3060014 -0.005271982

net.4.bias f4 [2]
00000000: 69fb 943f 019e 933f
1.1639224 1.1532594
