dqn_agent2.pth (torch, 25645 bytes, 6 tensors)

net.0.weight f4 [64, 20]
000000 df 1f 20 bf ff d8 8a bd 7e 7a 02 3e 80 73 c3 3e
       -0.6254863 -0.0677967 0.1274204 0.38174057
000010 e0 76 6c 3f 7c ae 60 3f e7 b7 8e 3f 9f 70 bd 3f
       0.9236889 0.8776624 1.1149873 1.4799994
000020 c3 e3 a7 3f 12 94 cb 3f ea 2e 32 be 73 ff ab 3e
       1.3116382 1.5904562 -0.17400709 0.3359333
000030 5b 37 3b 3f 94 e8 11 3f 98 c5 87 3f f5 d2 82 3f
       0.7313134 0.5699551 1.0607176 1.0220629
000040 40 a6 81 3f 45 96 74 3f 1a b3 a3 3f df e1 8c 3f
       1.012886 0.95541793 1.2789032 1.100643
000050 76 60 c2 be 7d f3 46 be 23 99 0b bc 26 10 f8 3e
       -0.3796422 -0.19428821 -0.008520397 0.4844982
000060 a2 f8 78 3f d0 6f 85 3f 70 f0 9b 3f ee 87 aa 3f
       0.97254384 1.0424747 1.2182751 1.3322732
000070 62 45 c4 3f e1 57 fe 3f bb 4e 69 be d2 22 c5 3e
       1.5333674 1.9870569 -0.2278394 0.38503128
000080 4a f1 50 3f 83 8f 38 3f 57 ed 47 3f 35 6a 80 3f
       0.8161818 0.7209398 0.78096527 1.0032412
000090 c2 2c 80 3f 61 5d 87 3f c6 ad b4 3f c2 8c 8c 3f
       1.0013659 1.0575372 1.4115531 1.0980456
0000a0 75 73 a5 be 03 c5 bd be 70 4f 79 3e 5e 29 af 3e
       -0.3231465 -0.3706437 0.24346709 0.34211248
0000b0 fa 23 3a 3f 91 17 87 3f 3d 70 af 3f b6 62 a8 3f
       0.72711146 1.0554067 1.3706127 1.3155124
0000c0 31 8c af 3f 4b 37 f4 3f a1 b9 18 3e c1 ff a6 3e
       1.3714658 1.9079374 0.14914562 0.32617
0000d0 5f fb 31 3f b7 c3 2c 3f c5 00 81 3f 60 6b 82 3f
       0.69524187 0.6748614 1.007836 1.0189018
0000e0 c8 7d 76 3f 81 8a 83 3f 16 08 c4 3f 0e 60 a5 3f
       0.96285677 1.0276643 1.5314968 1.2919939
0000f0 c1 9b c7 be a2 62 78 bd 7c 29 12 3c 00 41 02 3f
       -0.38986018 -0.06064094 0.008921023 0.5088043
000100 fd b4 63 3f 58 8d 8a 3f 09 24 96 3f d5 77 ae 3f
       0.8894804 1.0824385 1.1729747 1.363032
000110 5e 34 af 3f c3 0a d0 3f ed 96 2a be 56 2f 8c 3e
       1.3687856 1.6253284 -0.16659136 0.27379864
000120 f2 76 4e 3f 72 f7 27 3f ea b0 46 3f 27 0f 56 3f
       0.80650246 0.65611947 0.776137 0.8361687
000130 32 08 97 3f be fd a6 3f 64 2d ab 3f dd 9b aa 3f
       1.1799376 1.3046186 1.3373227 1.3328816
000140 e9 5a 2e bf 01 7c 72 be 39 dc 94 bd 7a b4 19 3f
       -0.6810747 -0.23680116 -0.07268567 0.6004101
000150 86 42 61 3f 08 d9 5d 3f 96 cc a8 3f 7b a6 99 3f
       0.8799213 0.8665929 1.3187435 1.2003931
000160 2d cd 9a 3f 36 75 ef 3f 89 58 f5 bc b9 b7 8b 3e
       1.2093865 1.8707645 -0.029949443 0.27288607
000170 fb b4 e5 3e 15 50 1e 3f 62 8b 5d 3f 26 a4 76 3f
       0.4486464 0.61840945 0.86540806 0.9634422
000180 d6 26 91 3f 4c e1 76 3f a5 80 95 3f d7 94 9e 3f
       1.1339977 0.96437526 1.1679884 1.2389172
000190 fc 6d ac be 2a 05 02 bd ff f0 b6 3e 2b 43 e0 3e
       -0.3367766 -0.031743206 0.3573074 0.43801245
0001a0 90 5d 2b 3f 78 97 80 3f c0 df a0 3f 9d a7 90 3f
       0.6693964 1.0046225 1.2568283 1.1301152
0001b0 60 66 d2 3f 3a 24 d6 3f 50 30 f9 bd 89 9f 82 3e
       1.6437492 1.6729805 -0.12167418 0.2551234
0001c0 07 1d 37 3f 95 e4 5b 3f 01 19 8e 3f 00 be 90 3f
       0.7152867 0.85895663 1.110138 1.1307983
0001d0 3c da 73 3f 9e e1 86 3f da 3e 90 3f 1c 1b c0 3f
       0.95254874 1.0537603 1.1269181 1.5008273
0001e0 bc 11 10 bf 08 a0 1a be 26 22 7c 3e b7 62 01 3f
       -0.5627706 -0.1510011 0.24622402 0.5054125
0001f0 78 ee 48 3f 46 f9 91 3f 87 6d 89 3f a6 ad 95 3f
       0.78488874 1.1404197 1.073655 1.1693618
000200 10 72 c6 3f 3d f3 f1 3f 83 d6 14 bd 60 07 c3 3d
       1.5503559 1.8902355 -0.036337387 0.09522891
000210 ca f4 e1 3e b2 28 39 3f 8e 09 85 3f 8c 0d 40 3f
       0.44132072 0.7232772 1.0393541 0.7502067
000220 fd 2d a2 3f 97 f9 9c 3f be bb 90 3f b0 d5 c0 3f
       1.2670285 1.2263669 1.1307294 1.5065212
000230 30 19 45 bf fe 00 a7 be 46 ac 7c 3e 3c 86 e2 3e
       -0.7699156 -0.32617944 0.24675092 0.44243038
000240 fd 3a 7f 3f 42 d7 6f 3f be 89 9b 3f c5 1d b1 3f
       0.99699384 0.9368783 1.215141 1.383721
000250 7d 62 a7 3f 78 c6 eb 3f d3 fb 64 be e8 7c 1d 3e
       1.3076931 1.8419943 -0.22361688 0.15379679
000260 85 22 d7 3e f6 41 5b 3f 21 58 93 3f 25 3f 93 3f
       0.42018524 0.85647523 1.151127 1.1503645
000270 2c e6 92 3f 56 8f ac 3f 3c d4 c3 3f cc e0 ac 3f
       1.1476493 1.3481243 1.5299144 1.3506103
000280 7d 53 da be 89 b7 7c be 2e 80 52 3e 8d ca f6 3e
       -0.42641822 -0.24679388 0.20556709 0.4820141
000290 c2 a2 2f 3f 94 1d 8f 3f 89 01 90 3f f4 83 be 3f
       0.68607724 1.1180902 1.1250468 1.4884019
0002a0 ce 7b c9 3f 72 f1 cc 3f 3d e5 24 3e 85 b9 0c 3e
       1.5740907 1.6011183 0.16103072 0.13742645
0002b0 ec 92 24 3f 23 bd 58 3f aa ca 4e 3f 62 17 3e 3f
       0.64286685 0.846636 0.8077799 0.7425443
0002c0 af bd 80 3f d7 de 84 3f 30 ca b5 3f 85 39 a1 3f
       1.0057887 1.0380505 1.4202328 1.2595679
0002d0 96 15 fc be 68 2c 99 be 34 37 1b bd d9 03 eb 3e
       -0.4923522 -0.29916692 -0.037894443 0.45901373
0002e0 28 ce 6b 3f a8 58 5e 3f 9f 64 ab 3f a7 7c af 3f
       0.92111444 0.8685403 1.3390082 1.3709916
0002f0 64 0f b8 3f 77 c6 d4 3f 20 ad 92 3d ba d1 f1 3e
       1.4379697 1.6623067 0.07161927 0.4723032
000300 04 bc 14 3f c3 d7 4b 3f ed 28 4f 3f c1 20 71 3f
       0.5809939 0.796261 0.8092182 0.94190603
000310 50 52 a8 3f cb c2 a8 3f 63 ad bb 3f 1b 3f a6 3f
       1.315012 1.3184446 1.4662288 1.2988008
000320 a4 df d6 be 8c 63 0d be 80 cb ad 3e a2 b9 26 3f
       -0.419675 -0.13807505 0.3394432 0.65127003
000330 8c 16 66 3f 91 a1 83 3f d0 2a 91 3f 12 5d a5 3f
       0.89878154 1.0283681 1.134119 1.2919028
000340 74 0b ca 3f 59 44 c6 3f 4b 16 9b bd a0 20 ed 3e
       1.5784745 1.5489608 -0.075726114 0.46313953
000350 12 3e 48 3f 2d 32 29 3f 06 e9 70 3f 9a 37 68 3f
       0.7821971 0.6609219 0.94105566 0.9070984
000360 8b 70 6d 3f b7 fe 8e 3f 26 97 af 3f 6a da 91 3f
       0.9274985 1.1171483 1.3718002 1.139478
000370 e8 d8 0e bf 8f 3a 7e be 0c 8f 97 3d 37 d1 f9 3e
       -0.5579972 -0.24827026 0.07400331 0.4879243
000380 78 94 19 3f da c4 9e 3f 58 34 a7 3f 53 ed 9a 3f
       0.5999217 1.2403824 1.3062849 1.2103676
000390 9b 5a ca 3f 36 2c e6 3f 0d 8c d6 bd 53 ad 90 3e
       1.58089 1.7982242 -0.10475931 0.28257236
0003a0 86 a3 1e 3f 07 e8 d9 3e 0d 68 8d 3f 05 92 88 3f
       0.61968267 0.42559835 1.1047379 1.0669562
0003b0 da c0 9c 3f 47 db 77 3f 86 23 9e 3f 2f c7 b2 3f
       1.2246354 0.96818966 1.2354591 1.3967036
0003c0 bc 39 32 bf e3 fc 71 be 44 21 dc bc d3 79 2e 3f
       -0.69619346 -0.23631625 -0.026871331 0.6815464
0003d0 b0 3b 46 3f 21 d6 91 3f 97 7d 95 3f 8d 5f 9e 3f
       0.77434826 1.1393472 1.1678952 1.237291
0003e0 61 44 c8 3f 81 fe ca 3f d0 90 c4 3a 6a 85 96 3e
       1.5645868 1.5858918 0.0014996771 0.29398662
0003f0 1f b1 41 3f 7e 07 41 3f 45 1a 75 3f a3 05 57 3f
       0.7566089 0.7540206 0.9574321 0.83992976

net.0.bias f4 [64]
000000 23 b5 d2 3f 80 93 e0 3f 4f 05 e9 3f e5 32 f1 3f
       1.6461529 1.7545013 1.8204745 1.8843657
000010 6e 89 c5 3f ab f2 d6 3f 51 0c db 3f 41 3a da 3f
       1.5432565 1.6792806 1.7113134 1.7049028
000020 aa dc da 3f 64 00 f0 3f 76 53 dc 3f a1 8b c6 3f
       1.7098591 1.8750119 1.721297 1.5511361
000030 ce 4f f3 3f 1e c9 d6 3f b9 c8 f2 3f 70 66 c1 3f
       1.900873 1.6780126 1.8967506 1.5109386
000040 ed 81 d9 3f 7d 4e dd 3f 6e 95 d3 3f f4 a3 eb 3f
       1.6992775 1.7289578 1.6529977 1.840941
000050 2d 66 d8 3f 95 ee ea 3f 8c 1e de 3f 8e e3 f0 3f
       1.6906182 1.835406 1.7353072 1.8819444
000060 50 a0 c8 3f 0d ee e6 3f 08 db f5 3f df b7 de 3f
       1.5673923 1.8041397 1.9207468 1.7399863
000070 ac 4e da 3f 16 32 d7 3f 1f cc db 3f 12 1f f7 3f
       1.7055259 1.681216 1.7171668 1.9306357
000080 7e 16 e0 3f 84 1d d1 3f 5f fa f8 3f c5 00 d8 3f
       1.7506864 1.6337132 1.9451407 1.6875235
000090 f2 14 de 3f 9d 78 d3 3f f3 07 e9 3f 5a 13 dc 3f
       1.7350142 1.6521183 1.8205551 1.7193406
0000a0 37 4c c8 3f fc 5f cc 3f 85 59 f8 3f 59 21 f8 3f
       1.5648259 1.5966792 1.9402319 1.9385177
0000b0 53 90 e1 3f 14 42 cf 3f a8 54 ce 3f 19 22 ef 3f
       1.7622169 1.619204 1.6119585 1.8682281
0000c0 dc 7d d3 3f 4e 09 e4 3f e2 b8 f3 3f f0 6b d3 3f
       1.6522784 1.781534 1.9040797 1.6517315
0000d0 04 9c de 3f fc 11 e8 3f ce ec ff 3f 96 92 cd 3f
       1.7391362 1.8130488 1.9994142 1.606036
0000e0 3d 54 dd 3f d3 94 de 3f f5 6c fc 3f d0 ee ff 3f
       1.7291332 1.7389168 1.9720751 1.9994755
0000f0 23 57 e5 3f bd 4f e6 3f 58 26 f7 3f a5 43 ea 3f
       1.7917217 1.7993084 1.9308577 1.8301893

net.2.weight f4 [64, 64]
000000 4e 8a 99 3f 13 0d 96 3f 31 8f 87 3f 3a b3 99 3f
       1.1995332 1.172274 1.0590574 1.2007821
000010 29 e0 8f 3f 99 a0 93 3f ab ca 85 3f 71 47 96 3f
       1.1240283 1.1533386 1.0452474 1.1740552
000020 96 2a 8f 3f c0 7b 9a 3f e3 6e 81 3f 1c 67 8b 3f
       1.1184871 1.2069016 1.0111965 1.0890841
000030 45 4d 8d 3f 42 62 98 3f 3b a4 96 3f 2c ca 95 3f
       1.1039206 1.1904986 1.1768869 1.1702323
000040 6c 39 8d 3f a2 a5 9e 3f 98 8e 96 3f 49 71 9f 3f
       1.1033149 1.2394297 1.1762266 1.2456447
000050 3b c0 8f 3f a5 02 9c 3f 58 16 99 3f 46 29 98 3f
       1.1230539 1.2188307 1.1959944 1.1887596
000060 6c 36 85 3f f3 12 8b 3f aa 90 93 3f 85 ac 8a 3f
       1.0407233 1.0865158 1.1528523 1.0833899
000070 d0 11 8b 3f 21 da 85 3f 8b 82 8c 3f ba a3 99 3f
       1.0864811 1.0457193 1.0977339 1.200309
000080 bd 9c 99 3f 16 ad 94 3f ef 57 91 3f 64 72 87 3f
       1.2000958 1.1615322 1.135496 1.0581784
000090 2b 3e 92 3f 55 f1 9c 3f 24 78 9d 3f da ad 9a 3f
       1.1425222 1.2261149 1.2302289 1.2084305
0000a0 40 5f a1 3f 18 7e 99 3f bc ba 8a 3f 0f c9 85 3f
       1.2607193 1.1991606 1.0838237 1.0451983
0000b0 2e 4d 8e 3f f9 dc 9c 3f 03 7f 91 3f 48 ca 8b 3f
       1.1117303 1.2254936 1.1366886 1.0921106
0000c0 ab 44 8a 3f ec 4f 9a 3f 9e 2f 86 3f 7a 83 84 3f
       1.0802206 1.205564 1.0483282 1.0352623
0000d0 78 53 9c 3f b5 dc 88 3f 3c 11 96 3f 97 8a 9e 3f
       1.2212973 1.0692354 1.172401 1.2386044
0000e0 43 24 8c 3f 0c d4 97 3f 4f a4 8f 3f f5 53 90 3f
       1.0948566 1.1861587 1.1222018 1.1275622
0000f0 c8 f2 82 3f 38 ce 80 3f b3 72 84 3f cc 7b 9a 3f
       1.0230341 1.0062933 1.0347503 1.206903
000100 ca 85 ef ba 1e da 4d bc b3 14 ac 3c 8d 9d 61 3d
       -0.0018274125 -0.01256421 0.021005964 0.055081893
000110 ff 18 b1 3d 16 74 c6 bd b7 bb a4 3d fc 0d e3 bd
       0.08647346 -0.096901104 0.08043616 -0.11086652
000120 52 0d 24 3c 6b 53 8f bb ca 00 a2 bd 57 f2 91 bc
       0.010012941 -0.004373958 -0.07910307 -0.017815752
000130 a5 e8 61 bd d8 74 f4 3b a5 f7 29 3c 33 15 d1 3d
       -0.055153508 0.007460218 0.010373984 0.102091216
000140 2d 52 e7 3c e3 3d ec bd 7d 3d ba 3d 81 79 0e bd
       0.028237427 -0.115352415 0.09093759 -0.034783844
000150 45 bf 8e bd 99 fe 08 be c5 41 ce bd 80 b2 3c 3d
       -0.069700755 -0.13378371 -0.10071138 0.04606867
000160 4f 1c a4 3d 83 1a 97 bd 1d 8c 51 3d ff d1 34 bd
       0.08013212 -0.073781036 0.051159013 -0.04414558
000170 5d 22 e6 bc 64 a7 0b bd 90 be 9d 3d b1 c5 b7 3b
       -0.028092558 -0.034095183 0.077023625 0.0056082834
000180 71 76 9d bd 46 12 63 3d a6 97 e1 bd e6 f1 3f bd
       -0.076886065 0.05543735 -0.11015253 -0.04686155
000190 25 17 d2 bc 59 de cd bc 3e 23 bd bc 1d 0c fe 3a
       -0.025645802 -0.025130438 -0.023088094 0.0019382272
0001a0 f4 80 29 bd 21 bf 73 bd 8d 97 a6 3c 7a 6b 8e bd
       -0.041382745 -0.059508447 0.020335937 -0.06954093
0001b0 94 4a a5 3d c8 d0 38 bd 1b e0 1a 3b ef 93 3f 3d
       0.08070865 -0.045120984 0.0023632112 0.04677194
0001c0 ed b2 ee bb b0 be b0 bb 84 0c 10 3b 1d 74 b6 bd
       -0.007284513 -0.0053938255 0.0021980116 -0.089088656
0001d0 06 b5 87 bd 15 9e f7 bc f4 4a ec bd 9b 37 97 bc
       -0.06626324 -0.030226747 -0.11537734 -0.018459132
0001e0 63 b7 f2 bd b5 e8 97 bd a1 89 2e 3d 67 3e f7 bc
       -0.118513845 -0.07417432 0.042611722 -0.030181123
0001f0 a2 c9 f7 bd 6f c5 f1 bd bd ec b4 3c c7 25 8e 3d
       -0.12099005 -0.118052356 0.022085542 0.06940799
000200 76 ba 96 3d 5a ca 9f bd c4 de c7 3b a0 53 7d bd
       0.07359783 -0.078022674 0.006099554 -0.06184733
000210 c8 86 bf 3d 5f bc 27 3d 01 08 4b 3d b9 4f c2 3c
       0.09351879 0.04095113 0.04956818 0.023719655
000220 ea 39 07 bd 32 8c 8e bc d0 ba 95 bc 44 2f ce 3d
       -0.033014216 -0.017400835 -0.018277556 0.10067609
000230 7a 48 cc bd 40 67 01 bd 81 65 df 3c b6 09 d7 bd
       -0.09974761 -0.031592607 0.02727008 -0.10499899
000240 51 ca 10 3d d5 65 61 3d 75 71 69 3c 09 fb ec 3d
       0.035349194 0.055028755 0.014248242 0.11571319
000250 24 f5 07 3c 51 c5 12 bd c3 d9 d3 bb da a3 b4 bd
       0.008298192 -0.035832707 -0.006465168 -0.08820315
000260 d8 d1 41 3d a8 73 93 bd d0 5b 9c 3d 2f 1c aa bd
       0.047319263 -0.07199794 0.07634699 -0.08306157
000270 8b 40 cc 3c 4e b0 68 bd 27 d9 34 bd ea f1 d4 bd
       0.02493312 -0.056808762 -0.044152405 -0.10397704
000280 46 5c c6 bd 52 9a 86 bd 66 8c fc bd 5a 5b bc bd
       -0.096855685 -0.06572403 -0.123314664 -0.091971114
000290 80 e7 55 3c e4 3d 1c 3d b1 1c bf bc f8 cd f3 bc
       0.013055682 0.03814496 -0.02332911 -0.0297613
0002a0 c3 3b f6 bd 32 50 da bd 8c bb de 3c aa 8b a3 bd
       -0.120231174 -0.10659827 0.027189039 -0.07985623
0002b0 bc f9 e3 bd f9 9e b2 3d cb 37 b8 3d 61 7d b5 3d
       -0.111316174 0.08721728 0.08995017 0.08861805
0002c0 be 71 c0 3d bf 4b 83 bd 9e 35 a7 3d b0 ef cc bd
       0.093966946 -0.06410932 0.081645235 -0.10006654
0002d0 7a 3b a7 bd 45 55 a0 3d 40 4e c4 bd 68 5c eb bd
       -0.08165641 0.07828764 -0.095852375 -0.114922345
0002e0 05 e2 ec 3d 58 0c 9f 3d 21 62 75 3d 17 18 96 bc
       0.11566547 0.07766026 0.059908036 -0.018322034
0002f0 47 d3 96 bd 2d c1 ff 3b 5b e1 b5 3d 44 5a 59 bb
       -0.07364517 0.007805011 0.08880874 -0.0033165375
000300 f0 3c d2 3c 1c 8a 9f 3d d9 3a 95 bd 69 70 6b bd
       0.025663823 0.07790014 -0.07286615 -0.05748025
000310 42 90 b4 3d 63 52 63 3d 40 30 62 bb 3d e7 e9 3c
       0.088165775 0.055498492 -0.0034513623 0.028552646
000320 5a 55 81 bd 65 7f fe bd 7b 9e d0 bd 0a d9 cd bd
       -0.06315108 -0.12426642 -0.10186478 -0.100511625
000330 9c 06 dd 3c 4f 19 df 3d d4 29 6e 3c a0 be f7 bd
       0.02698069 0.10893499 0.01453634 -0.12096906
000340 aa a8 84 bd 3e e7 97 bd 70 c6 7e bd aa 91 d4 3d
       -0.064774826 -0.07417153 -0.062200963 0.10379346
000350 29 96 63 3c 56 f7 3e bd c6 4f 70 bd ea bb 2b bd
       0.013890781 -0.046622597 -0.058669828 -0.041927256
000360 d4 f3 cc 3d 64 59 55 bd e8 fb a3 bd 3c b3 03 3d
       0.10007444 -0.052087203 -0.08007032 0.032153353
000370 60 68 46 bc 30 15 52 3d 00 24 dc 39 c4 c9 84 bd
       -0.012109846 0.051289737 0.00041988492 -0.06483796
000380 0a 8f c9 bd b2 40 20 bd 92 35 be 3d 63 7d 11 3d
       -0.09841736 -0.0391242 0.092875615 0.03551997
000390 56 2e 50 3d 44 b4 65 bd 2c 96 99 bd 20 3b 1f bc
       0.05082544 -0.056080118 -0.07499346 -0.009718686
0003a0 69 29 e7 3c f8 04 f3 3c 4c b0 3d 3d 92 0a af 3d
       0.028217988 0.029665455 0.046310708 0.08546938
0003b0 93 90 73 bd 00 18 cc 38 1c ec ea bd d8 e6 93 bc
       -0.05946405 9.7319484e-05 -0.114708155 -0.01805441
0003c0 84 37 e1 3d 3f b8 58 3d f7 19 ea bd 80 77 5b bd
       0.10996917 0.052910086 -0.11430734 -0.05358076
0003d0 a4 db 8f bd da 75 9e bc 53 94 b4 3d 80 01 47 bb
       -0.07024315 -0.019343305 0.08817353 -0.0030365884
0003e0 a6 01 a1 3d 05 89 a9 3d 92 0f cf bd 38 71 eb 3d
       0.078616425 0.082780875 -0.10110392 0.11496204
0003f0 95 70 fd bc 7f 4e b9 bd 0f 8b f7 bd 5c ef d1 3d
       -0.030937472 -0.09048175 -0.1208707 0.10250732

net.2.bias f4 [64]
000000 d4 be c8 3f 75 b0 8c 3d 9c ea e5 bd 9d d9 ed bd
       1.5683236 0.06869594 -0.11226389 -0.11613772
000010 fc 7f c4 3f 58 63 46 bb 16 f9 fe bd be 6f f9 bb
       1.5351558 -0.0030271616 -0.12449853 -0.0076121977
000020 1b e3 c1 3f c6 b8 d6 3f 32 10 c8 3f 66 69 b4 3f
       1.5147432 1.6775138 1.5629942 1.4094665
000030 1d 7f c7 3f 4a 82 fc bd f9 bf f5 bd 70 3e 03 be
       1.5585667 -0.12329538 -0.119995065 -0.12816787
000040 ff 70 bf bd 67 69 af 3d 0e aa 48 3d 57 d3 d2 3f
       -0.09347724 0.08565026 0.0489903 1.6470746
000050 5b 1a cc 3f 9e 0b cb 3f 4e 39 cb 3f 26 c1 cf 3f
       1.5945543 1.586292 1.5876863 1.6230819
000060 53 f8 bf 3f cc cc 41 bd d9 eb 2b 3d 79 6e bc 3f
       1.4997658 -0.04731445 0.04197297 1.4721214
000070 cb 3c cb 3f 0f 00 b0 3f d0 52 bd 3f e6 74 d0 3f
       1.5877928 1.3750018 1.4790897 1.6285675
000080 46 2e c0 3f 61 4d 9b bd 04 d6 d5 3f c5 d5 c4 3f
       1.5014122 -0.07583118 1.6705937 1.5377737
000090 7d cd fe 3c 4d 70 c7 3f 52 90 2b bd 68 a3 ca 3d
       0.031103844 1.5581146 -0.04188568 0.098944485
0000a0 13 bb b2 3f ea e1 bb 3f 82 8b a7 3c 91 70 cd 3f
       1.396334 1.4678319 0.020452265 1.6049978
0000b0 12 52 b3 3f ef 86 bd bc 1d 23 12 bd 59 15 c7 bd
       1.4009421 -0.02313563 -0.035678018 -0.097208686
0000c0 ad 41 d3 3f e3 72 26 3c 75 1a cd 3f bf 2b d8 3f
       1.6504418 0.010159227 1.6023699 1.688835
0000d0 09 19 c7 3f 78 3a c9 3f b2 c7 bb 3f 0e 2a d0 3f
       1.5554515 1.5720968 1.4670317 1.6262834
0000e0 ef ed d1 3f cb 44 cd bd f8 f7 4b 3d 07 8a c1 3f
       1.6400737 -0.10022887 0.04979703 1.5120248
0000f0 a1 8e c8 3f 80 7e c7 bc 1d a4 d9 3f 23 b8 82 bd
       1.5668527 -0.024352312 1.7003208 -0.063827775

net.4.weight f4 [2, 64]
000000 3b 79 90 3f 5d 7f 2f bd ff d4 49 bd 00 4f 1c 3d
       1.1286997 -0.042846072 -0.049275395 0.038161278
000010 83 fa 74 3f aa fd ac bd c6 24 ef bd 01 a1 51 bc
       0.9569475 -0.0844682 -0.11676936 -0.012794734
000020 bc 3d 8a 3f 4d b5 72 3f 8f e6 8a 3f be d8 8f 3f
       1.080009 0.94807893 1.0851611 1.123802
000030 21 bb 94 3f 36 d7 ad 3c 30 62 9c bd 11 19 af bd
       1.1619607 0.021220785 -0.07635915 -0.08549703
000040 b3 f7 15 3c 06 56 b7 bd 51 14 18 bd fe f9 75 3f
       0.009153294 -0.089519545 -0.03712875 0.9608458
000050 89 66 87 3f d7 8a 71 3f 79 d3 87 3f e2 9f 73 3f
       1.0578166 0.9435248 1.0611411 0.95165837
000060 4e 90 8d 3f 6a 4b 8b bc fd d1 de bd 0e 43 97 3f
       1.1059663 -0.017003734 -0.10879896 1.1817338
000070 8c 95 88 3f 92 eb 90 3f f3 1c 92 3f f6 52 8c 3f
       1.0670638 1.132189 1.1415085 1.0962818
000080 56 75 93 3f 4c eb cc bd e7 13 7f 3f 09 53 7f 3f
       1.1520183 -0.10005817 0.99639744 0.99736077
000090 06 79 5a 3d 48 5f 87 3f 9f 37 94 3c f1 6f 50 3d
       0.053338073 1.0575953 0.018092928 0.050888006
0000a0 a2 c6 90 3f ea ab 89 3f 02 4a 8f 3b 10 dd 75 3f
       1.1310618 1.0755589 0.004372836 0.9604044
0000b0 b3 9a 95 3f 75 9b d3 bd 5a 6e e1 bd 68 39 b1 3d
       1.1687835 -0.103323855 -0.11007376 0.086535275
0000c0 9c e4 8c 3f 3f db 49 3b f7 a6 86 3f fe f7 7f 3f
       1.1007266 0.0030800847 1.0519704 0.9998778
0000d0 38 83 93 3f 65 03 87 3f b5 fc 96 3f 9d 3a 93 3f
       1.152442 1.0547911 1.179587 1.1502262
0000e0 03 cb 88 3f 62 3f 9a 3d 91 af 21 bc ca 52 94 3f
       1.0686954 0.075316206 -0.009868518 1.1587765
0000f0 c5 57 92 3f c6 4e b3 3d 0e 81 70 3f 73 c8 2e bd
       1.1433035 0.08755259 0.9394692 -0.042671632
000100 61 dd 92 3f 01 36 a4 bc ac 5e ad bd 22 20 e7 bd
       1.147381 -0.020045282 -0.08465323 -0.11285426
000110 63 56 8c 3f f6 04 ec b9 d0 49 f1 bc 9e 52 c8 bd
       1.0963863 -0.00045017124 -0.029454142 -0.09781383
000120 75 41 9a 3f 6f 65 9a 3f 93 d0 95 3f 97 a1 9d 3f
       1.2051226 1.2062205 1.1704277 1.2314938
000130 7d 82 8c 3f 4c b9 62 3a 43 3f 86 3d ac 2d 52 3c
       1.0977322 0.0008648827 0.06555035 0.012828272
000140 5f b9 de bd 0c ec 14 3d b1 d8 01 3c ff 02 98 3f
       -0.108752005 0.036357924 0.007925198 1.1875914
000150 a8 8e 94 3f c3 a9 9a 3f d8 02 9a 3f 71 ac 98 3f
       1.1606035 1.2083057 1.2032118 1.1927625
000160 6b 7e 8c 3f 03 f5 9e bc 42 58 51 3c 60 63 9a 3f
       1.097608 -0.01940394 0.01277739 1.2061577
000170 b9 ef 93 3f cf 4b 80 3f a2 40 9c 3f 5e 83 94 3f
       1.1557533 1.0023135 1.2207224 1.160259
000180 ac 7e 9a 3f 36 9c d9 bd 47 83 91 3f fe 58 99 3f
       1.2069907 -0.10625498 1.1368188 1.1980283
000190 a6 ba c3 bd b2 50 99 3f 00 49 ad bd db 09 ac bd
       -0.09557085 1.1977751 -0.08461189 -0.08400317
0001a0 9b 15 78 3f 80 54 86 3f e0 24 a0 bd 9a 6d 9e 3f
       0.9690797 1.0494537 -0.07819533 1.2377198
0001b0 b4 be 81 3f 8c a2 93 bd 02 c1 cc 3d df c4 9e bd
       1.0136323 -0.07208738 0.09997751 -0.07752394
0001c0 61 94 9c 3f 2b 6f 62 bd d0 85 9d 3f fd c6 97 3f
       1.2232782 -0.0552818 1.2306461 1.1857601
0001d0 a6 92 8e 3f 0b f2 99 3f 94 42 9c 3f 95 9a 8f 3f
       1.1138504 1.2026991 1.2207818 1.121905
0001e0 6f fd 96 3f ff d0 cb bd 62 b7 9e bd 1a d8 85 3f
       1.1796092 -0.09951972 -0.07749821 1.0456574
0001f0 de 98 99 3f 26 8a fe 3d 50 17 98 3f 90 5f 28 bd
       1.1999776 0.124286935 1.1882114 -0.04110676

net.4.bias f4 [2]
000000 5f b6 43 3e 3d 0f cb 3f
       0.19112538 1.5864025
