dqn_agent_cc1.pth (torch, 25645 bytes, 6 tensors)

net.0.weight f4 [64, 20]
0.012547798 -0.07599825 0.051296458 0.048332453 0.014491535 -0.2463595 0.1173224 0.23209591
0.93434274 -0.22245759 -0.15872982 -0.25794497 -0.51986057 -0.5926229 -0.45185766 -0.3774857
0.040904887 -0.00084803416 0.20868744 0.5452545 0.024869844 0.070368394 0.019242885 -0.14980084
-0.1965997 -0.5667365 -0.04238246 0.09638278 0.25630918 -0.2715806 0.096069776 0.1512494
-0.055219255 0.2010825 0.5273508 0.42520708 -1.9467547 0.044722985 -0.29853547 0.91027945
0.013378502 -1.5164195 0.007926841 0.15669107 0.03287093 0.12868516 0.023086747 0.2727357
-0.17148755 0.20506126 0.40147087 0.31595796 -1.0418255 0.34159788 0.2964851 0.078176744
0.015161636 -0.5689503 0.4398031 -0.66919565 0.02262526 0.009294765 0.031931218 0.012221691
0.06536784 0.28128487 0.3434423 -2.1794736 1.4205058 -0.6219365 -0.06780789 -0.21739478
-0.12763251 -0.24067387 -0.18943208 -0.034932587 0.3860309 1.0560696 -3.840579 0.7645097
-0.021055607 0.09654981 -0.22801074 0.037350774 -0.18222797 -0.15792824 0.23453768 0.17929007
0.3179238 -0.6402798 -0.3542739 -0.1794154 -0.27168387 0.074214734 -0.21443808 -0.4672199
-0.07544131 0.08026997 0.84092677 -0.40746632 -0.041148003 0.13709688 0.24813339 0.5604045
0.50431657 0.37961683 0.61861 0.96140414 -0.6693813 0.058530297 0.0326719 0.27761352
0.5163322 2.5253468e-05 -0.27730978 -0.8277804 -1.8071485 -2.2376132 -1.9906062 -2.7008061
-0.13558598 -0.1490942 -0.25427157 -0.21478847 -0.111508496 -0.48407808 -0.46397814 -0.65235186
-0.17433745 1.1796438 -0.113576695 -0.13656078 -0.22680554 -0.4667395 -0.36998793 -0.34771296
-0.28876713 -0.0379276 -1.7917347 0.70176405 0.112598225 0.09837803 0.09932406 0.0309302
0.10610445 -0.3949971 0.0638652 0.18361294 -0.54112977 0.013122134 -0.06672907 -0.09148612
0.060269095 -0.049644317 -0.04339287 0.68571395 -1.044219 0.28802264 0.15673883 -1.0040609
0.12775426 0.005515067 0.11194485 -0.184241 -0.773267 -0.034571838 0.26757106 0.047128707
0.32126713 0.31621233 -0.09028584 -0.04466764 0.14187475 0.11384317 -0.1332704 -0.9997025
0.6070315 0.23072943 -0.31830966 -0.25394684 -0.083899006 -0.16357748 -0.07992439 -0.11226981
0.02151793 -0.2024744 -0.1813295 -0.40551344 -0.6435591 0.79655874 -0.041659717 0.061011516
-0.10133772 0.10665798 0.32628164 0.43161198 0.4154858 0.86347336 0.011694357 -0.9559842
-0.07073233 0.10166725 0.007561062 -0.00011617335 -0.1050366 -0.012550336 0.11484086 1.0513912
0.4290417 -0.1140862 0.07174406 0.4058524 0.29285026 0.78347546 0.18528655 0.04053258
-0.051868062 -0.42471725 1.2632773 -1.2992586 0.09827973 0.2186287 0.03001325 0.023627922
-0.61548585 0.0987688 0.13354123 0.14111762 -0.12442999 0.14798667 0.093682915 0.15262334
0.34269235 0.16926168 0.41765088 -1.4054569 -0.17230023 0.22380665 0.03470363 -0.7061352
0.028581908 0.08576793 0.04558079 0.20048223 0.27407783 0.25156564 0.4116478 -1.4102358
0.7862637 0.24041516 0.008526613 0.10861377 -0.28810316 0.39358214 0.5757795 -0.012602531
00000000: 4895 4d3c f8a4 9bbd 3c1c 523d 40f8 453d
00000010: e76d 6d3c aa45 7cbe ba46 f03d 8daa 6d3e
00000020: 1631 6f3f eccb 63be 128a 22be 5d11 84be
00000030: 9515 05bf 22b6 17bf e359 e7be ce45 c1be
00000040: e28b 273d 9c4e 5eba 29b2 553e cd95 0b3f
00000050: d8bb cb3c 4e1d 903d 41a3 9d3c 6465 19be
00000060: 6f51 49be a515 11bf 3b99 2dbd 5664 c53d
00000070: f53a 833e 9d0c 8bbe 3bc0 c43d 1fe1 1a3e
00000080: 962d 62bd 92e8 4d3e 7600 073f beb4 d93e
00000090: 422f f9bf 732f 373d a4d9 98be 1308 693f
000000a0: 8131 5b3c 091a c2bf 95df 013c a073 203e
000000b0: aba3 063d 0bc6 033e 6b20 bd3c 03a4 8b3e
000000c0: 6f9a 2fbe 94fb 513e 978d cd3e 3ec5 a13e
000000d0: 8a5a 85bf ebe5 ae3e e5cc 973e 211b a03d
000000e0: 8368 783c baa6 11bf df2d e13e 6850 2bbf
000000f0: 9c58 b93c 1249 183c 4fca 023d 7d3d 483c
00000100: 93df 853d 9204 903e abd7 af3e 7f7c 0bc0
00000110: 22d3 b53f 3b37 1fbf ddde 8abd bd9c 5ebe
00000120: 19b2 02be 3673 76be 7cfa 41be 7915 0fbd
00000130: d8a5 c53e 4a2d 873f 0ccc 75c0 e8b6 433f
00000140: cf7c acbc e8bb c53d a67b 69be 20fd 183d
00000150: f899 3abe f1b7 21be a52a 703e d197 373e
00000160: e9c6 a23e 61e9 23bf 6363 b5be acb8 37be
00000170: 261a 8bbe e5fd 973d a895 5bbe 7237 efbe
00000180: f980 9abd 9564 a43d fa46 573f 6d9f d0be
00000190: cf8a 28bd 2063 0c3e ae16 7e3e ab76 0f3f
000001a0: e41a 013f 235d c23e 3a5d 1e3f 951e 763f
000001b0: 935c 2bbf 77bd 6f3d f8d2 053d 5c23 8e3e
000001c0: 592e 043f 69d7 d337 8cfb 8dbe 6be9 53bf
000001d0: a450 e7bf 0e35 0fc0 2fcc febf 02da 2cc0
000001e0: 0dd7 0abe 26ac 18be e22f 82be 82f1 5bbe
000001f0: 915e e4bd 15d9 f7be 8b8e edbe 8800 27bf
00000200: 8485 32be 91fe 963f e69a e8bd 97d6 0bbe
00000210: b63f 68be 7bf8 eebe 0f6f bdbe 6f07 b2be
00000220: 49d9 93be f959 1bbd 9057 e5bf cfa6 333f
00000230: e699 e63d 6c7a c93d 6a6a cb3d 5561 fd3c
00000240: 4a4d d93d 0f3d cabe c2cb 823d 0805 3c3e
00000250: 7b87 0abf 38fe 563c 40a9 88bd 135d bbbd
00000260: badc 763d d757 4bbd b9bc 31bd f38a 2f3f
00000270: f8a8 85bf b477 933e 2580 203e 1185 80bf
00000280: 03d2 023e bcb7 b43b 5743 e53d aca9 3cbe
00000290: d3f4 45bf 339b 0dbd 13ff 883e 080a 413d
000002a0: 207d a43e 95e6 a13e c8e7 b8bd 6af5 36bd
000002b0: 9d47 113e 9c26 e93d 0978 08be 81ec 7fbf
000002c0: 6b66 1b3f 5644 6c3e 7cf9 a2be 5205 82be
000002d0: 3ed3 abbd db80 27be 66af a3bd b7ed e5bd
000002e0: 5f46 b03c 7355 4fbe 71ae 39be 759f cfbe
000002f0: 4ac0 24bf 46eb 4b3f 61a3 2abd 36e7 793d
00000300: 278a cfbd 806f da3d 630e a73e 3ffc dc3e
00000310: 8eba d43e 970c 5d3f b099 3f3c 61bb 74bf
00000320: 1ddc 90bd eb36 d03d c9c2 f73b 18a2 f3b8
00000330: 6e1d d7bd ed9f 4dbc af31 eb3d fd93 863f
00000340: 5bab db3e 07a6 e9bd 8dee 923d e3cb cf3e
00000350: 78f0 953e d991 483f c2bb 3d3e 7e05 263d
00000360: 9b73 54bd 8a74 d9be 12b3 a13f 1b4e a6bf
00000370: e246 c93d 34e0 5f3e 59de f53c 588f c13c
00000380: 7b90 1dbf 4c47 ca3d 08bf 083e 2381 103e
00000390: 27d5 febd d189 173e d4dc bf3d 4b49 1c3e
000003a0: 5f75 af3e ef52 2d3e 56d6 d53e 03e6 b3bf
000003b0: 796f 30be 922d 653e 6525 0e3d 47c5 34bf
000003c0: 9b24 ea3c 19a7 af3d ecb2 3a3d 374b 4d3e
000003d0: ee53 8c3e 36cd 803e 80c3 d23e 9b82 b4bf
000003e0: 9448 493f 642f 763e 35b3 0b3c e570 de3d
000003f0: 4282 93be 9983 c93e 4966 133f d97a 4ebc

net.0.bias f4 [64]
0.93987256 -0.7650491 0.4714733 -0.36557418 0.8081954 0.22904694 0.8239041 1.1345004
0.25024605 0.3754682 0.03742734 0.92082936 0.026533829 0.52868843 1.1380136 0.13614362
0.203 0.91797674 1.0099633 1.2343608 0.8549351 0.93917066 0.60231614 0.035769597
1.0881677 0.50859445 1.1416007 0.7500788 1.2770184 1.1310678 0.85047597 1.0879964
0.8863119 0.17893232 0.9131607 1.041933 1.091164 0.869122 0.68199617 0.92087525
-0.77320534 1.4487202 0.83847106 -0.049896915 -0.15743068 0.79823774 0.96331847 0.94151413
0.88337743 0.5181416 0.34083125 1.0057595 0.080151744 0.58288854 1.0748683 0.9937611
-0.08974736 0.61151403 0.95458925 0.9598309 1.2925624 -0.34867778 1.1172442 0.5196548
00000000: 7d9b 703f 42da 43bf f364 f13e 8a2c bbbe
00000010: e5e5 4e3f 488b 6a3e 61eb 523f 4f37 913f
00000020: 4020 803e 5e3d c03e 694d 193d 79bb 6b3f
00000030: 795d d93c 2058 073f 6eaa 913f 3c69 0b3e
00000040: 3bdf 4f3e 8600 6b3f 7a46 813f 89ff 9d3f
00000050: 07dd 5a3f 7d6d 703f 6431 1a3f 2483 123d
00000060: 1449 8b3f 3f33 023f f91f 923f 2a05 403f
00000070: 5775 a33f d4c6 903f cbb8 593f 7743 8b3f
00000080: 56e5 623f 093a 373e e6c4 693f 0f5e 853f
00000090: 43ab 8b3f c87e 5e3f 4d97 2e3f 7bbe 6b3f
000000a0: c9f0 45bf aa6f b93f 0aa6 563f b560 4cbd
000000b0: 8235 21be 4f59 4c3f 0a9c 763f 1207 713f
000000c0: 0625 623f eea4 043f 6f81 ae3e babc 803f
000000d0: 9926 a43d 2f38 153f 4995 893f 2167 7e3f
000000e0: 77cd b7bd 2f8c 1c3f f65f 743f 7ab7 753f
000000f0: af72 a53f e585 b2be dc01 8f3f 1908 053f

net.2.weight f4 [64, 64]
0.5661996 2.2626457 0.30611318 1.1876202 0.13673349 0.95490843 0.83270746 1.1578779
0.04410096 0.4585112 0.7574982 0.35767812 0.6010613 -0.2504751 -0.3576033 0.74119407
0.2454048 0.17688634 0.2785849 -0.34635085 0.04674211 0.47698766 0.24487695 0.44975638
0.89528424 -0.09117782 -0.31083724 0.16082166 1.1813332 0.6604731 0.6555312 1.095391
0.33020586 0.371727 0.02273718 1.0042002 -0.7625253 0.34891608 0.67743057 -2.0967672
-0.07539821 1.1173817 0.36527732 0.59961677 1.1833247 1.0226836 -0.37460992 0.16712147
0.32030952 0.6001627 0.066233926 0.011713138 1.0787263 0.14925362 0.558921 1.6949657
-0.12580663 0.58495444 0.26401883 -2.2692995 -0.4328853 -0.18994108 0.80121076 0.12846357
0.375245 2.2465236 0.4482382 1.3757291 0.28468847 1.1145253 0.8389035 0.89294666
0.4720295 0.65507805 1.0031829 0.693744 0.7536455 0.15086895 -0.18198824 0.83978665
0.568295 0.35659477 0.3227243 -0.59570426 0.1664782 0.42146158 0.5513939 0.33028466
0.5752201 0.5041097 -0.04683681 0.32931653 1.0938234 0.57671595 0.6399766 1.0913218
0.53071624 0.74891347 0.2236672 0.8351569 -0.30694893 0.5138759 1.082941 -1.1800803
0.23116376 1.03538 0.3526267 1.2332283 1.1006013 0.4349555 -0.037462078 0.046387386
0.36706594 0.67831457 0.4087864 0.123009495 1.6019995 0.45367157 0.47777078 1.6254178
0.639235 0.635132 0.5362736 -1.2964917 -0.23277391 -0.1802437 0.8258332 0.3832577
-0.36906287 -0.59428066 -1.2326399 -0.36714032 0.013044486 -0.21245702 -1.1964028 -0.4198907
0.11723065 -0.35197562 -0.4090841 -0.27542478 0.018579574 -0.3283155 -0.03346572 -0.08332812
-0.49336982 -0.09829815 -0.12630597 0.31550628 0.0359159 -0.15695325 -0.11407371 -1.194932
-0.043680876 0.21911724 -0.05674096 -0.20916674 0.2474147 -0.05281617 0.13261695 -0.2923727
-0.18187267 -1.2033038 0.13101725 -0.21614107 0.102509856 0.085947976 -0.35826498 0.109691836
-0.16450176 -0.3215848 -0.038021408 -0.22480619 0.15015678 0.35915667 0.115199134 -0.28235525
-0.053057138 0.3086763 -0.20974654 -0.4692039 0.11893678 0.06182364 -0.028162127 -0.26676318
0.18323652 -0.5484936 0.060723748 -0.04455085 -0.15487024 -0.5890147 -0.11181689 -1.6238378
0.0135627175 -0.042748116 -0.07477389 0.049854573 -0.13782296 -0.10567995 -0.101573035 0.08991571
0.0020600192 -0.086901546 0.06740525 0.07907756 0.0081780115 -0.06656029 -0.13187921 0.113079794
0.008413087 -0.07474246 -0.122049354 0.085208945 0.06934405 -0.10669095 0.03158002 -0.023870425
-0.005659084 0.032419775 -0.13479869 -0.057276048 -0.1339716 -0.12591356 0.088916026 0.05126044
0.0028825807 -0.11742337 -0.12266948 -0.024035206 0.036578886 0.054523457 -0.07639411 -0.052935455
-0.0040059173 -0.10168654 0.10420322 -0.041018303 -0.012581072 -0.027450807 -0.08661399 -0.017832737
-0.044239927 0.031302366 0.0034854861 -0.037497345 0.084851526 0.030458853 0.016013514 -0.047392637
-0.114860214 -0.12892288 0.042462673 0.062170498 -0.0069725364 0.04299979 0.010925777 -0.06485482
00000000: 75f2 103f 30cf 1040 deba 9c3e f003 983f
00000010: dd03 0c3e e174 743f 512c 553f 5835 943f
00000020: 35a3 343d fbc1 ea3e 67eb 413f 9621 b73e
00000030: 27df 193f 463e 80be c817 b7be e5be 3d3f
00000040: 654b 7b3e b121 353e aea2 8e3e e654 b1be
00000050: a874 3f3d ba37 f43e 06c1 7a3e 7846 e63e
00000060: 5931 653f 70bb babd 0f26 9fbe 6fae 243e
00000070: ed35 973f c414 293f e5d0 273f c635 8c3f
00000080: be10 a93e 0053 be3e 5343 ba3c a289 803f
00000090: dc34 43bf 21a5 b23e 176c 2d3f 6f31 06c0
000000a0: 606a 9abd 5d06 8f3f a105 bb3e 7c80 193f
000000b0: 2f77 973f 4ce7 823f dfcc bfbe e421 2b3e
000000c0: 9cff a33e 43a4 193f a7a5 873d 76e8 3f3c
000000d0: b413 8a3f f1d5 183e 7215 0f3f a3f4 d83f
000000e0: 74d3 00be 93bf 153f 7a2d 873e 343c 11c0
000000f0: 24a3 ddbe ea7f 42be 261c 4d3f f48b 033e
00000100: 1d20 c03e 0bc7 0f40 7a7f e53e e417 b03f
00000110: b0c2 913e c4a8 8e3f 61c2 563f 2798 643f
00000120: daad f13e 32b3 273f 4c68 803f 3599 313f
00000130: e9ee 403f 647d 1a3e 205b 3abe 42fc 563f
00000140: c87b 113f 9793 b63e 1f3c a53e 1380 18bf
00000150: 4379 2a3e d0c9 d73e 2728 0d3f 121b a93e
00000160: a041 133f 550d 013f f4d7 3fbd 2d9c a83e
00000170: 6802 8c3f a8a3 133f 82d5 233f 6fb0 8b3f
00000180: 05dd 073f cbb8 3f3f 0409 653e d8cc 553f
00000190: 6928 9dbe 5f8d 033f d09d 8a3f df0c 97bf
000001a0: 31b6 6c3e 5587 843f 7d8b b43e 6dda 9d3f
000001b0: 81e0 8c3f 7db2 de3e d671 19bd b300 3e3d
000001c0: 11f0 bb3e 06a6 2d3f 734c d13e 67ec fb3d
000001d0: 520e cd3f a447 e83e 5f9e f43e b10d d03f
000001e0: e8a4 233f 0398 223f 3a49 093f 71f3 a5bf
000001f0: 495c 6ebe ce91 38be ce69 533f 5a3a c43e
00000200: cff5 bcbe c722 18bf 25c7 9dbf d1f9 bbbe
00000210: 8ab8 553c 558e 59be ba23 99bf eafb d6be
00000220: 9f16 f03d 2636 b4be 7973 d1be 7a04 8dbe
00000230: 3134 983c f818 a8be 5a13 09bd efa7 aabd
00000240: f89a fcbe 8a50 c9bd 5a56 01be 0a8a a13e
00000250: 8d1c 133d 5ab8 20be 7a9f e9bd 88f3 98bf
00000260: b8ea 32bd 4560 603e 3569 68bd ce2f 56be
00000270: 475a 7d3e c555 58bd bdcc 073e e0b1 95be
00000280: d43c 3abe dc05 9abf 6329 063e 1654 5dbe
00000290: b0f0 d13d 7e05 b03d 826e b7be 1da6 e03d
000002a0: 2673 28be c3a6 a4be 56bc 1bbd 9833 66be
000002b0: b3c2 193e 62e3 b73e 86ed eb3d de90 90be
000002c0: 7152 59bd d20a 9e3e ccc7 56be 7e3b f0be
000002d0: 2095 f33d c93a 7d3d 43b4 e6bc 2f95 88be
000002e0: 5ba2 3b3e 146a 0cbf 77b9 783d f47a 36bd
000002f0: 4e96 1ebe abc9 16bf 4100 e5bd ebd9 cfbf
00000300: 2936 5e3c a618 2fbd 0e23 99bd 4f34 4c3d
00000310: 7621 0dbe bb6e d8bd 8605 d0bd ba25 b83d
00000320: 6301 073b 70f9 b1bd c40b 8a3d 6af3 a13d
00000330: 11fd 053c c350 88bd 580b 07be 6196 e73d
00000340: 0bd7 093c 9312 99bd 03f5 f9bd 0782 ae3d
00000350: 4104 8e3d c980 dabd 0d5a 013d e98b c3bc
00000360: d66f b9bb 99ca 043d ab08 0abe 4a9a 6abd
00000370: da2f 09be 7cef 00be 9b19 b63d 78f6 513d
00000380: aee9 3c3b aa7b f0bd 233a fbbd 7be5 c4bc
00000390: bed3 153d fd53 5f3d 8474 9cbd d9d2 58bd
000003a0: 1244 83bb 0841 d0bd 7f68 d53d cf02 28bd
000003b0: d720 4ebc 84e0 e0bc ad62 b1bd f615 92bc
000003c0: ed34 35bd e936 003d c16c 643b d196 19bd
000003d0: a3c6 ad3d d884 f93c c62e 833c c81e 42bd
000003e0: d53b ebbd 5c04 04be 57ed 2d3d 7ea6 7e3d
000003f0: e079 e4bb 8c20 303d 0802 333c 9bd2 84bd

net.2.bias f4 [64]
0.5366241 0.71241724 -0.011337229 0.02000654 0.73514384 0.65911907 0.97060585 0.65077496
0.6279971 -0.47184128 0.6269648 -0.062379844 0.5798658 0.4450766 -0.18182935 -0.074677594
0.5367401 0.5538953 0.71488434 0.8706458 0.75920385 -0.15997136 0.054170426 0.6877624
0.6227453 -0.3729614 0.71728086 0.731192 -0.17475764 0.27812287 0.67915773 0.615303
0.12395826 0.68929684 -0.12344309 0.12775993 -0.07802452 0.7290808 0.031204863 0.5817143
0.7096308 0.57886624 -0.007682934 0.5914336 0.7220398 0.71067303 -0.18946317 0.83330804
-0.34233916 0.1376494 0.8090353 0.10655886 0.7571612 0.6365202 0.7312026 0.24813914
0.13897759 0.6389195 0.080754 0.7945392 -0.23336971 0.8402567 0.46735108 0.08308604
00000000: 3260 093f fa60 363f c9bf 39bc c1e4 a33c
00000010: 6332 3c3f 07bc 283f a079 783f 3099 263f
00000020: 6bc4 203f 2e95 f1be c480 203f 0282 7fbd
00000030: 1672 143f 15e1 e33e 7931 3abe 91f0 98bd
00000040: cd67 093f 15cc 0d3f a902 373f a5e2 5e3f
00000050: 2f5b 423f 88cf 23be cfe1 5d3d 3211 303f
00000060: 3c6c 1f3f ccf4 bebe b89f 373f 662f 3b3f
00000070: abf3 32be 1f66 8e3e 48dd 2d3f 7f84 1d3f
00000080: d4dd fd3d c275 303f bbcf fcbd 80d3 023e
00000090: 52cb 9fbd 0aa5 3a3f 57a1 ff3c 3aeb 143f
000000a0: 5daa 353f 9430 143f 1fc1 fbbb 3168 173f
000000b0: 9ad7 383f abee 353f a202 42be ad53 553f
000000c0: 1447 afbe f7f3 0c3e f01c 4f3f 883b da3d
000000d0: 51d5 413f fdf2 223f 1830 3b3f 3018 7e3e
000000e0: 2450 0e3e 3a90 233f 5a62 a53d ec66 4b3f
000000f0: 78f8 6ebe 101b 573f a448 ef3e 0429 aa3d

net.4.weight f4 [2, 64]
0.8646258 0.7868508 -0.62738055 -0.1009812 0.6973444 0.70623416 -4.3666105 0.6044114
0.577482 3.2926626 0.8260215 -0.5959238 0.5587404 -1.892362 2.318626 -0.117849275
0.88412356 0.8654892 0.82295513 0.7052579 0.72690207 -1.7846768 1.3863605 0.79341674
0.873076 3.9685228 0.89707047 0.73493147 -0.6589382 1.1376041 0.719495 0.61648536
-1.2592888 0.7476787 1.0107665 0.8183481 0.050486445 0.6664036 2.3885808 0.64045537
0.7263823 0.8468053 -0.059529334 0.52247095 0.619899 0.7699152 -1.1838435 0.78868186
1.8469138 3.9644501 0.62944895 -0.026280235 0.6459333 0.78263533 0.6157123 -2.7734847
3.2237694 0.6813315 -2.5898569 0.6237231 -0.79997796 0.75336146 0.9117799 -0.08392232
1.1332818 0.678775 0.0006904292 -0.021792294 0.71992385 0.75993794 -1.159134 0.9431159
1.3613428 -1.152999 0.6567002 0.26675075 0.90324455 -0.53026164 0.76783365 -0.33517805
0.5735697 0.5951509 0.6179856 0.7680928 0.7541333 1.3088944 0.9851712 0.73832273
0.6175946 -1.3368219 0.67642444 0.77925074 0.93395984 0.35221738 0.84904194 0.8975858
0.94060814 0.77559614 -3.0610356 1.9965223 0.0017214954 0.7709225 3.3940706 0.8765229
0.71707505 0.63368267 -0.06109809 1.2093108 0.87693083 0.8028321 0.19478485 0.7166387
-1.7702675 4.3644767 0.8087344 0.007509392 0.7643127 0.6737925 0.81843746 -0.77311903
-1.2636584 0.8232193 0.32892692 0.8205751 -0.66005754 0.7804204 0.54659706 -0.0052445973
00000000: 1e58 5d3f 0e6f 493f 039c 20bf 3bcf cebd
00000010: 2a85 323f c3cb 343f 46bb 8bc0 b5ba 1a3f
00000020: dcd5 133f fcba 5240 2576 533f 768e 18bf
00000030: 9c09 0f3f eb38 f2bf 5e64 1440 f65a f1bd
00000040: ec55 623f b390 5d3f 30ad 523f c88b 343f
00000050: 4116 3a3f 4a70 e4bf 4374 b13f 5c1d 4b3f
00000060: e981 5f3f 47fc 7d40 69a6 653f 7824 3c3f
00000070: 2db0 28bf 039d 913f d330 383f fcd1 1d3f
00000080: 6030 a1bf df67 3f3f cc60 813f 437f 513f
00000090: e0ca 4e3d 6d99 2a3f 82de 1840 e2f4 233f
000000a0: 31f4 393f 3bc8 583f 08d5 73bd a8c0 053f
000000b0: b3b1 1e3f 2a19 453f 2f88 97bf 0ee7 493f
000000c0: ac67 ec3f 8db9 7d40 9123 213f a649 d7bc
000000d0: e25b 253f ca5a 483f 529f 1d3f c680 31c0
000000e0: 3d52 4e40 be6b 2e3f 37c0 25c0 51ac 1f3f
000000f0: 5bcb 4cbf 4cdc 403f 686a 693f 77df abbd
00000100: 610f 913f 33c4 2d3f ebfd 343a c185 b2bc
00000110: ee4c 383f 4b8b 423f 815e 94bf 0b70 713f
00000120: 7b40 ae3f 7995 93bf 811d 283f 8e93 883e
00000130: 093b 673f 3abf 07bf bf90 443f 759c abbe
00000140: 77d5 123f cf5b 183f 4e34 1e3f bba1 443f
00000150: e10e 413f da89 a73f 2e34 7c3f b802 3d3f
00000160: ae1a 1e3f fb1c abbf 272a 2d3f fa7c 473f
00000170: fe17 6f3f d655 b43e d05a 593f 2fc8 653f
00000180: b2cb 703f 788d 463f 02e8 43c0 0b8e ff3f
00000190: cda3 e13a 2d5b 453f 7438 5940 ce63 603f
000001a0: 3b92 373f 0739 223f fe41 7abd b2ca 9a3f
000001b0: 8a7e 603f 6886 4d3f ae75 473e a275 373f
000001c0: 2098 e2bf cba9 8b40 3809 4f3f 5911 f63b
000001d0: ffa9 433f aa7d 2c3f 1e85 513f 21eb 45bf
000001e0: 8fbf a1bf 80be 523f 1c69 a83e 3611 523f
000001f0: 88f9 28bf a2c9 473f c9ed 0b3f dfda abbb

net.4.bias f4 [2]
0.4345355 1.0582992
00000000: 707b de3e 5976 873f
