dqn_agent.pth (torch, 148771 bytes, 11 tensors)

feature_layer.0.weight f4 [128, 20]
0	0x3e98958e	0.298016
1	0xc01f4e9f	-2.4891737
2	0xbd9c13e5	-0.07620982
3	0xbf0d3739	-0.5516239
4	0xbe21a49c	-0.1578545
5	0xbf780ae1	-0.968916
6	0x3e998e14	0.2999121
7	0xbcda8b71	-0.026677819
8	0x3e85ea3a	0.26155263
9	0x3eb3b276	0.35097092
10	0x3d0bfdc6	0.034177564
11	0x3f0e8748	0.5567517
12	0xbfe03651	-1.7516576
13	0xbf1b1726	-0.60582197
14	0xbf91ea30	-1.1399593
15	0xbeac3576	-0.33634537
16	0xbf17667f	-0.5914077
17	0x3ea75ba8	0.32687116
18	0x3eb169b1	0.3465095
19	0x3f4a65bd	0.7906149
20	0x3e222869	0.15835728
21	0x3e576032	0.2103279
22	0x3ad7a80d	0.0016453281
23	0xbd708db3	-0.058728885
24	0xbd54c1ec	-0.05194275
25	0xbea482f5	-0.32131162
26	0xbd2952e1	-0.041338805
27	0x3d5b0c75	0.053478677
28	0x3e2e39d0	0.17014241
29	0xbf0f49fb	-0.5597226
30	0x3e680269	0.2265717
31	0x3e868750	0.2627511
32	0x3e7e7b34	0.24851686
33	0xbe828643	-0.2549306
34	0xbe0e7c63	-0.13914637
35	0xbe5093d4	-0.20368892
36	0xbe089ad4	-0.13340312
37	0x3e0b7f32	0.1362274
38	0x3e6036a6	0.21895847
39	0xbee919df	-0.4552755
40	0xbd8de6e1	-0.06928802
41	0xbdcd4c5c	-0.1002433
42	0xbe1f7eb4	-0.15575677
43	0xbe63c841	-0.2224436
44	0x3ee72cdd	0.45151415
45	0x3d9416c8	0.07230908
46	0x3ec13b9b	0.37740788
47	0xbb4c79dc	-0.0031200564
48	0xbc7f1fb3	-0.0155715225
49	0xc00610da	-2.0947785
50	0xbef78ae1	-0.48348144
51	0xbe50a9f5	-0.20377333
52	0xbd074ba9	-0.03303114
53	0xbf44e17a	-0.7690655
54	0xbfb49ece	-1.4110963
55	0xbdd7f940	-0.105455875
56	0x3ea019d7	0.31269714
57	0x3f16d4cb	0.58918446
58	0x3e19b2d1	0.1500962
59	0x3f57447c	0.84088874
60	0xbe71fcc4	-0.23631579
61	0xbed44a65	-0.4146301
62	0x3f3ab9b7	0.7293963
63	0xbe32186a	-0.17392126
64	0x3e3f6c69	0.18693699
65	0xbfb7882b	-1.433843
66	0x3bf41cd7	0.007449727
67	0x3e5d2fa2	0.21600202
68	0x3e80b44f	0.25137565
69	0xc00e4d49	-2.223467
70	0x3ed7cc91	0.4214826
71	0xbe06a2fc	-0.13148111
72	0xbe24b913	-0.16086225
73	0xbe7e0e44	-0.2481013
74	0xbe338884	-0.17532545
75	0x3efa3226	0.48866385
76	0xbfee04a6	-1.8595169
77	0xbd991f4b	-0.07476672
78	0x3ecdd80c	0.40203893
79	0x3e866dfd	0.2625579
80	0xbd09b00d	-0.03361516
81	0xbd9c0cb8	-0.076196134
82	0xbe0561cd	-0.1302559
83	0xbd865e0b	-0.06560906
84	0xbe3db3e6	-0.18525657
85	0x3e29ff0d	0.166012
86	0xbd2c4c68	-0.042065054
87	0xbc559db6	-0.0130380895
88	0xbd372877	-0.044716325
89	0x3f60f557	0.8787436
90	0x3e38f796	0.18063197
91	0x3cb3a442	0.02192891
92	0x3e95728d	0.29188958
93	0xbf37aa74	-0.71744466
94	0xbe245ce7	-0.16051064
95	0xc000a695	-2.0101674
96	0x3e6a2730	0.22866511
97	0x3f1568c7	0.58363
98	0x3f009cab	0.50239056
99	0x3f7f8962	0.99819005
100	0x3ee7b48a	0.45254928
101	0x3d656ede	0.056013934
102	0xbcaeb7a2	-0.021327797
103	0xbcf6474e	-0.030063298
104	0xbe43658d	-0.19081707
105	0x3f0d4b97	0.55193466
106	0x3ed08341	0.4072514
107	0xbf81f72d	-1.0153557
108	0xbf1f32fc	-0.6218717
109	0xbeceb1eb	-0.40370116
110	0xbe6fea53	-0.23429231
111	0x3e53a7c7	0.2066947
112	0x3eb4a81d	0.3528451
113	0xbe89d597	-0.2692077
114	0xbf6eb069	-0.9323793
115	0xbebda894	-0.37042677
116	0xbe5213cb	-0.20515363
117	0x3f4aae4a	0.79172194
118	0xbf1c2729	-0.60997254
119	0xbf019bf2	-0.5062858
120	0x3eba4342	0.3637944
121	0x3e54835c	0.20753235
122	0x3d420ba7	0.047374394
123	0xbedbb883	-0.4291421
124	0xbdbe1c24	-0.09282711
125	0xbbf6da2a	-0.0075333314
126	0x3de1255c	0.10993454
127	0xbd8d0275	-0.06885234
128	0xbe1f39f6	-0.15549454
129	0x3e60fbf1	0.21971108
130	0x3d3a60a2	0.045502312
131	0x3efcaa14	0.4934851
132	0x3f3eb7c0	0.7449913
133	0xbc94a6ac	-0.018145882
134	0xbf0b0ee9	-0.54319626
135	0xbe01fc89	-0.12693991
136	0x3dd9d23b	0.106358014
137	0x3f65cfc8	0.89770174
138	0xbd6db04d	-0.05802946
139	0x3e0bb877	0.13644587
140	0x3dbf90b6	0.09353773
141	0xbe02d4ae	-0.12776443
142	0xbd08344c	-0.033253
143	0xbe0eed97	-0.13957821
144	0x3e495a1d	0.19663282
145	0xbdbab7bb	-0.09117075
146	0x3f296bec	0.661803
147	0x3ec8a66b	0.39189467
148	0x3ecf8590	0.40531588
149	0x3defd654	0.11710802
150	0xbe6ae150	-0.22937512
151	0x3e8109da	0.2520283
152	0xbe95af80	-0.29235458
153	0x3d07d2f2	0.033160158
154	0xbf0eeee0	-0.55833244
155	0xbeb985cb	-0.36234888
156	0xbf9245f9	-1.1427604
157	0x3e687f8d	0.22704907
158	0x3f8e3a1a	1.1111481
159	0x3e0c1d83	0.13683133
160	0xbedb8c0b	-0.42880282
161	0xbd9420c7	-0.07232814
162	0x3d7bc636	0.061468326
163	0xbf0f452c	-0.5596492
164	0x3ebe20e1	0.3713446
165	0x3bf39ba6	0.007434326
166	0x3e947ada	0.28999978
167	0xbef3393d	-0.47504607
168	0xbf0aa3c2	-0.54156125
169	0x3eb1fe0e	0.3476414
170	0xbd91e7ad	-0.07124267
171	0x3df5c162	0.119997755
172	0x3df8bf35	0.12145845
173	0xbdb90b52	-0.09035362
174	0xbf04b675	-0.5184091
175	0x3f07a99f	0.52993196
176	0xbd61e06f	-0.055145677
177	0x3fb5bf9c	1.41991
178	0xbfae0e8e	-1.3598192
179	0xbf8bacf2	-1.0912154
180	0x3de48a1b	0.11159154
181	0xbd0da822	-0.034584172
182	0xbd33955d	-0.043843616
183	0xbdc7b4f8	-0.09751314
184	0xbf9872f2	-1.1910079
185	0xbea67ad9	-0.325156
186	0x3c18cda5	0.009326373
187	0x3e0d7471	0.1381395
188	0x3ec793b0	0.38979864
189	0x3f03f780	0.5154953
190	0x3f39841a	0.72467196
191	0x3eed944d	0.46402207
192	0xbe81fea4	-0.25389588
193	0x3de52b1e	0.111898646
194	0xbe18da36	-0.14926991
195	0xc00a5fcb	-2.1620967
196	0x3c752acc	0.014963817
197	0xbe6746a8	-0.22585547
198	0x3f1abe0e	0.6044625
199	0x3f1d8832	0.6153594
200	0x3e3cc772	0.18435457
201	0x3e2385cc	0.15969008
202	0xbea5159e	-0.32243055
203	0x3ead0cbb	0.33798775
204	0x3dc64e9b	0.096829616
205	0xbff6cece	-1.9281862
206	0x3f1e7572	0.6189796
207	0xbe5b5529	-0.21419205
208	0xbfc2b7eb	-1.5212377
209	0x3f251f11	0.6450053
210	0xbec8cf77	-0.39220783
211	0xbf0ce04e	-0.5502976
212	0x3e9b0992	0.3028074
213	0xbefbf13b	-0.49207482
214	0x3f2003bf	0.62505716
215	0x3f30e694	0.69101834
216	0xc0126567	-2.287439
217	0x3f77a5fa	0.96737635
218	0xbe19be72	-0.15014055
219	0xc010c79f	-2.262184
220	0xbdcf0acd	-0.10109482
221	0xbdcd6fcb	-0.100310884
222	0x3ea9e64e	0.3318352
223	0x3d9019c7	0.07036167
224	0xbe5b121e	-0.2139363
225	0xbe77dbe6	-0.24204978
226	0x3e15e411	0.14637782
227	0x3d946119	0.072450824
228	0x3e3494ae	0.17634842
229	0xbe2de5a1	-0.16982128
230	0x3d944e7b	0.072415315
231	0xbeca5370	-0.39516783
232	0xbf058afc	-0.521652
233	0x3dce191d	0.10063384
234	0x3e9ee82f	0.31036517
235	0x3c9733ac	0.018457256
236	0xbf02d941	-0.51112753
237	0x3e8409ea	0.25788814
238	0xbeb14921	-0.34626105
239	0xbee85708	-0.453789
240	0x3e6c316d	0.2306573
241	0x3eb4e288	0.3532908
242	0xbd34839b	-0.04407082
243	0xbd853f53	-0.06506219
244	0xbd5101a4	-0.051026955
245	0xbe238b64	-0.15971142
246	0x3eb3a836	0.35089272
247	0x3daf4532	0.0855812
248	0xbe0eadfd	-0.13933559
249	0x3f20a19a	0.62746584
250	0x3dafff89	0.08593661
251	0x3f16c10c	0.58888316
252	0x3f00b716	0.50279367
253	0x3dbcb716	0.09214608
254	0x3d43fbce	0.04784756
255	0xbe9798c4	-0.29608738

feature_layer.0.bias f4 [128]
0	0xbace03ec	-0.0015717722
1	0x3f5782c0	0.84183884
2	0x3e41f58c	0.18941325
3	0xbec5faaa	-0.38667804
4	0xbf4b730a	-0.7947241
5	0x3eb25ea4	0.3483783
6	0xbd95b7e9	-0.07310469
7	0xbf1ee6af	-0.62070745
8	0xbc97bbb5	-0.018522123
9	0xbefcca9c	-0.4937333
10	0xbf2afb08	-0.66789293
11	0x3f444f4a	0.76683486
12	0xbf1208cf	-0.5704469
13	0xbf064a36	-0.52456987
14	0xbf35ad2e	-0.70967376
15	0xbf0bc3d8	-0.5459571
16	0xbf125561	-0.5716153
17	0xbeb7e2eb	-0.35915312
18	0xbe21e077	-0.15808283
19	0xbef0503c	-0.46936214
20	0x3ead7a6f	0.33882472
21	0x3f10ce50	0.5656481
22	0x3eb5186b	0.35370192
23	0x3e027c1a	0.12742653
24	0x3dcbe7b8	0.09956306
25	0xbea2b7e4	-0.31780922
26	0x3ee525b0	0.44755316
27	0xbeb8f04f	-0.3612084
28	0x3ea7d83e	0.32782167
29	0xbf386f06	-0.7204441
30	0x3edc88b1	0.43073037
31	0xbf71b74e	-0.94420326
32	0x3e1881b7	0.14893232
33	0xbe9993cb	-0.2999557
34	0xbe88151c	-0.26578605
35	0xbec9a7be	-0.3938579
36	0xbe087cff	-0.13328932
37	0x3efea629	0.49736145
38	0x3f32de1b	0.69870156
39	0xbe521c66	-0.20518646
40	0xbe67fb2d	-0.2265441
41	0xbe0eb869	-0.13937534
42	0x3e4cc664	0.19997555
43	0x3d2fae74	0.04289098
44	0xbeaf61eb	-0.34254393
45	0xbec93b64	-0.39303124
46	0x3ee2fee6	0.44335097
47	0xbf9a2235	-1.2041689
48	0xbf73b7cb	-0.9520232
49	0x3dbd70e1	0.092500456
50	0x3f0f0cb9	0.5587879
51	0x3e32f1c3	0.17475037
52	0xbc4b0953	-0.01239236
53	0xbf285b8a	-0.6576468
54	0xbebefa18	-0.3730018
55	0x3e2b561b	0.16732065
56	0x3f2fe946	0.6871532
57	0xbf51fc68	-0.82025766
58	0xbec039a4	-0.37543976
59	0x3ee7a0fb	0.45240006
60	0x3e4948d6	0.19656691
61	0x3c0d7d9b	0.008635904
62	0x3f71d7da	0.9446999
63	0xbe8e67b8	-0.27813506
64	0x3b367fad	0.0027847097
65	0x3f663602	0.8992616
66	0xbefb1ac7	-0.49043867
67	0x3cba435e	0.022737201
68	0x3eb5447a	0.35403806
69	0xbf1aaa5c	-0.604162
70	0x3d2362d9	0.03988919
71	0xbd3f19b0	-0.046655357
72	0xbf3b718b	-0.7322013
73	0x3f08c964	0.534323
74	0x3d90f8b1	0.07078684
75	0x3e5f0cd3	0.21782236
76	0xbf238b64	-0.6388457
77	0xbe699b21	-0.22813083
78	0x3f352340	0.7075691
79	0x3d954741	0.07288981
80	0xbf2b585c	-0.669317
81	0xbeeea2f9	-0.46608713
82	0x3e57ad85	0.21062286
83	0xbebf3a5d	-0.37349215
84	0xbf32c8ca	-0.6983763
85	0xbe8d3ccd	-0.2758545
86	0x3e7b128d	0.24518795
87	0xbf6aac95	-0.9166959
88	0xbdb544d7	-0.08851021
89	0xbf4adb54	-0.7924092
90	0x3f3c8255	0.7363637
91	0xbee1e3a3	-0.44118986
92	0xbf417f6d	-0.7558506
93	0x3ed9a5b5	0.42509237
94	0x3eef30d4	0.4671694
95	0x3f1a10c4	0.6018183
96	0xbf63984e	-0.88904274
97	0x3f384bfd	0.7199095
98	0xbf2debbc	-0.6793783
99	0xbe8ad4b8	-0.27115417
100	0x3e9833f3	0.29727134
101	0x3ea7f0cc	0.328009
102	0x3efc3ee5	0.49266735
103	0x3e2b7e56	0.16747412
104	0x3d7e62e6	0.062106036
105	0xbe7be59b	-0.24599306
106	0xbdf69bc2	-0.12041427
107	0xbe2cbd1a	-0.16869012
108	0xbc58e96f	-0.013239249
109	0x3e24ec97	0.16105877
110	0x3e214f58	0.15752923
111	0xbe4d44c5	-0.20045765
112	0x3ecdb422	0.40176493
113	0xbf1d115c	-0.61354613
114	0xbed8726f	-0.42274806
115	0x3d3bac7a	0.045818783
116	0xbf0dc9fe	-0.5538634
117	0x3e0a5019	0.13507117
118	0x3de25861	0.11052013
119	0xbe13f489	-0.14448752
120	0xbf1856e4	-0.59507585
121	0xbf452b29	-0.7701898
122	0x3f817b5d	1.0115772
123	0xbecea82b	-0.40362677
124	0x3e25709c	0.16156238
125	0xbdfcf39b	-0.123511516
126	0xbf35c07f	-0.7099685
127	0xbf352250	-0.7075548

feature_layer.2.weight f4 [128, 128]
0	0xbe1dcb8d	-0.1540968
1	0x3ea569a1	0.3230715
2	0x3ec5c2a7	0.3862507
3	0xbe8a3554	-0.2699381
4	0x3edde127	0.4333584
5	0x3eaba88c	0.3352703
6	0x3eb2d915	0.34931245
7	0xbedf20a6	-0.43579596
8	0x3da8b6e3	0.08238008
9	0x3d62f6da	0.055411197
10	0x3abe287a	0.0014507913
11	0xbf8712a4	-1.0552564
12	0x3ed2cc8b	0.4117168
13	0x3e69f881	0.22848703
14	0xbf02635e	-0.5093287
15	0xbefa1a55	-0.48848215
16	0xbd9fd1f4	-0.07803717
17	0xbddc7c90	-0.10765946
18	0x3e444870	0.19168258
19	0xbf28f1b6	-0.6599382
20	0xbed221aa	-0.4104131
21	0xbdec6f94	-0.11544719
22	0x3ecde3b6	0.40212792
23	0x3ebee4f7	0.3728406
24	0x3ed4d21b	0.41566548
25	0xbecec385	-0.40383545
26	0xbf8d97db	-1.1061968
27	0xbfe0ab73	-1.7552322
28	0xbf35fa87	-0.710854
29	0xbdb78362	-0.08960606
30	0x3df347b6	0.11878912
31	0x3efe2b78	0.4964254
32	0xbcfe3bb0	-0.03103432
33	0xbf76e995	-0.9645017
34	0xbe35113a	-0.17682353
35	0xbef53b0a	-0.47896606
36	0xbed0e387	-0.4079859
37	0x3f6962de	0.91166484
38	0x3e0ed641	0.13948919
39	0xbf0f271a	-0.5591904
40	0x3e3d8e86	0.185114
41	0xbd316acf	-0.04331475
42	0x3e3935e2	0.18086961
43	0xbec0565c	-0.37565887
44	0xbed2204f	-0.41040275
45	0x3eeac162	0.45850664
46	0x3e23001a	0.15918007
47	0xbf909740	-1.1296158
48	0x3f6250f9	0.88404804
49	0xbf3ae164	-0.7300017
50	0xbe248697	-0.16066967
51	0x3ee26955	0.44220987
52	0xbf165dfd	-0.58737165
53	0x3ea97a25	0.33101
54	0xbf11eba8	-0.5700021
55	0xbe20e698	-0.15712965
56	0xbf0771b4	-0.5290787
57	0x3ca8160d	0.020518327
58	0x3dfdd3e4	0.123939306
59	0xbb26656a	-0.0025390037
60	0xbf579144	-0.8420603
61	0x3e028de5	0.12749441
62	0xbeacdfdb	-0.33764538
63	0xbf91c779	-1.1388999
64	0xbf82ba05	-1.0213019
65	0x3d1dfd13	0.03857143
66	0xbda80f53	-0.08206048
67	0x3d62d449	0.055378232
68	0x3dc8892c	0.097917885
69	0xbfe415cc	-1.7819152
70	0xbf0b3730	-0.54381084
71	0xbec5d411	-0.38638356
72	0x3ed6b0b5	0.41931692
73	0xbe287d83	-0.16454129
74	0xbe78a5cb	-0.24281995
75	0xbe886563	-0.26639852
76	0xbf0fc036	-0.56152666
77	0xbf2b8be0	-0.6701031
78	0xbd4c273b	-0.0498421
79	0xc00b152a	-2.1731668
80	0x3e869c2c	0.26291025
81	0xc0161823	-2.3452232
82	0xbf035f0d	-0.5131691
83	0x3d63fb72	0.05565972
84	0xbf0b8e73	-0.54514235
85	0xbf03f985	-0.5155261
86	0xbee08507	-0.43851492
87	0xbb6f95a3	-0.0036557696
88	0x3f15d168	0.58522654
89	0xc070b5e7	-3.7611024
90	0xbd7f3c4d	-0.062313367
91	0xbe8479f6	-0.258743
92	0xbfde5174	-1.7368608
93	0x3de9c32e	0.11414181
94	0x3e0122e9	0.12610973
95	0xbeb2ddaa	-0.3493474
96	0xbdb9324a	-0.09042795
97	0x3e20c826	0.1570135
98	0xbef48a34	-0.4776169
99	0x3eb9d5f7	0.36296055
100	0xbf5d722d	-0.86502343
101	0x3ef42776	0.47686356
102	0x3c8a5ed5	0.016890923
103	0xbebe3343	-0.37148485
104	0x3f0710cd	0.5276001
105	0xbe06bc65	-0.13157804
106	0x3dab58c7	0.08366542
107	0x3c2b5b65	0.010458802
108	0x3e72abf9	0.23698415
109	0xbe14e4c4	-0.14540392
110	0x3ecb7596	0.39738148
111	0x3e90b451	0.2826257
112	0xbf1dfada	-0.61710894
113	0x3f50eb07	0.81608623
114	0xbda10a71	-0.0786332
115	0xbd325c91	-0.04354531
116	0x3d297647	0.041372564
117	0x3d9e349a	0.07724877
118	0xbf80b01d	-1.0053746
119	0xbe4f0243	-0.20215707
120	0xbf149b39	-0.5804935
121	0x3dd835c8	0.10557133
122	0xbeb2a7f5	-0.34893766
123	0xbec7a068	-0.38989568
124	0xbe866b78	-0.26253867
125	0xbf47d8a8	-0.78064966
126	0x3e69f748	0.22848237
127	0x3dfa1086	0.12210183
128	0x3f3352af	0.7004804
129	0xbd906127	-0.0704978
130	0x3ef08b76	0.469814
131	0x3d9c5540	0.07633448
132	0xbf5a5d8b	-0.85298985
133	0xbf81c5c8	-1.0138483
134	0xbe83322b	-0.25624213
135	0x3ebeaf3d	0.3724307
136	0x3eb8dcf8	0.36106086
137	0xbe1473f5	-0.14497359
138	0x3ddc17c0	0.107467175
139	0x3e856612	0.26054436
140	0x3e0fd65b	0.14046614
141	0x3f1df005	0.61694366
142	0xbe7c87ac	-0.2466113
143	0x3f8e7400	1.112915
144	0xbf55f820	-0.83581734
145	0xbebb5314	-0.3658682
146	0x3c4a8061	0.0123597095
147	0x3f130080	0.5742264
148	0x3d2c660f	0.04208952
149	0x3f1e5ef2	0.61863625
150	0xbcb9cfe7	-0.022682143
151	0xbe33479a	-0.17507783
152	0xbda2dd60	-0.0795238
153	0xbead5af3	-0.3385845
154	0x3e94a203	0.29029855
155	0x3f11592a	0.5677668
156	0x3edb7d7b	0.42869172
157	0x3dbc2a07	0.091877036
158	0x3f334178	0.7002177
159	0x3f6dd044	0.92895913
160	0xbe2ca055	-0.16858037
161	0x3f271d20	0.65278816
162	0x3e3e4d58	0.18584192
163	0x3ee30869	0.44342354
164	0xbf3e2ff8	-0.74291945
165	0x3f169ee6	0.5883621
166	0x3f31fb57	0.6952414
167	0x3d5625aa	0.052282013
168	0x3dc11676	0.09428112
169	0xbef764ee	-0.4831919
170	0xbebd241e	-0.36941618
171	0xbde4eb7f	-0.1117773
172	0x3e3e832b	0.18604724
173	0x3f569d74	0.83834004
174	0x3e0e227f	0.13880347
175	0x3ea4efe4	0.32214272
176	0x3d23baef	0.039973196
177	0xbf1eef40	-0.62083817
178	0xbf73d897	-0.95252365
179	0xbfb80243	-1.437569
180	0xbec8e9d6	-0.39240903
181	0x3dc5a9fb	0.09651562
182	0xbf46cff1	-0.77661043
183	0xbd149eb9	-0.036284182
184	0x3e9c1725	0.30486408
185	0x3f81737e	1.011337
186	0xbe38a0b7	-0.18030058
187	0x3f938830	1.1525936
188	0x3ec22f97	0.37926933
189	0x3e52cd91	0.2058623
190	0xbeb73ffa	-0.35790998
191	0x3f0bdb44	0.5463145
192	0xbe815074	-0.25256693
193	0xbe47f3a5	-0.19526537
194	0x3f2a60eb	0.66554135
195	0xbec269f5	-0.37971464
196	0x3d8f5967	0.06999474
197	0x3f5db44b	0.8660323
198	0x3e4d0c08	0.20024121
199	0x3f973966	1.1814392
200	0xbef7b5c0	-0.48380852
201	0xbe6255a4	-0.22102982
202	0xbdf9d20e	-0.12198268
203	0x3f005d65	0.5014251
204	0xbeec1d50	-0.46116114
205	0x3eadebb7	0.339689
206	0x3f513b2f	0.8173093
207	0xbd3530dc	-0.04423605
208	0xbf2e5f1e	-0.6811389
209	0xbdf7445e	-0.12073587
210	0x3e8de0ac	0.27710474
211	0x3f225be0	0.6342144
212	0x3f082b0a	0.5319067
213	0xbd5717ea	-0.05251304
214	0x3ef63397	0.48086235
215	0xbe2f854d	-0.17140694
216	0x3f46055c	0.7735193
217	0xbda9d102	-0.08291818
218	0xbb0bf037	-0.0021352896
219	0xbe7166b7	-0.23574339
220	0xbf92ed6a	-1.1478703
221	0xbd86a065	-0.065735616
222	0x3c7a6a3e	0.015284119
223	0x3dc3ce84	0.09560874
224	0xbf56f91c	-0.8397386
225	0x3e30cd97	0.17265926
226	0x3f3e54d4	0.7434819
227	0x3f82d140	1.0220108
228	0xbe991854	-0.29901373
229	0xbe43033b	-0.19044201
230	0xbe8f3e23	-0.27977094
231	0xbf30530c	-0.6887672
232	0xbdbe1541	-0.092813976
233	0xbcda1e9d	-0.026625926
234	0x3ef087e5	0.4697868
235	0x3ed7425d	0.4204282
236	0x3ec488b4	0.38385546
237	0xbdb3f321	-0.087866075
238	0x3d4070cf	0.046982583
239	0x3fc25737	1.5182866
240	0xbd37968d	-0.04482131
241	0x3f6dff01	0.9296723
242	0x3ef1a717	0.47197792
243	0x3ef7ebb2	0.4842201
244	0xbea3f2ca	-0.3202117
245	0x3dbeaadc	0.093099326
246	0xbce50849	-0.027958052
247	0xbe488e90	-0.19585633
248	0xbf013c02	-0.5048219
249	0x3f08f273	0.5349495
250	0x3d3401b8	0.04394695
251	0x3f154543	0.5830881
252	0xbf09b749	-0.53795296
253	0xbf6ece17	-0.9328322
254	0x3f28d301	0.65946966
255	0x3e69ace3	0.22819857

feature_layer.2.bias f4 [128]
0	0x3e706f87	0.23480044
1	0x3e613338	0.21992195
2	0xbdb0089e	-0.085953936
3	0x3fb132c3	1.3843616
4	0x3f467b0d	0.7753151
5	0x3fa7a88a	1.3098309
6	0x3f048d40	0.5177803
7	0xbc3fc24f	-0.011704042
8	0x3e4d84a7	0.20070134
9	0x3f86e6d6	1.0539196
10	0x3ebe4df7	0.37168857
11	0x3f7a24f2	0.97712624
12	0x3faf7e35	1.371039
13	0x3fa1d681	1.2643586
14	0xbd9e6f2c	-0.07736048
15	0x3cef0ea2	0.029181782
16	0x3f20c984	0.6280749
17	0x3d65f088	0.05613759
18	0xbce4f62d	-0.027949417
19	0x3f981f99	1.1884643
20	0xbd563eb1	-0.05230588
21	0x3edfb6dc	0.43694198
22	0x3f29fbe1	0.6639996
23	0x3f844195	1.0332514
24	0x3f827864	1.019299
25	0x3e90e0a5	0.2829639
26	0xbe07bbab	-0.13255183
27	0x3f3e2673	0.7427742
28	0x3ee18476	0.44046372
29	0x3f11b58a	0.5691763
30	0xbe026c94	-0.12736732
31	0x3f1b397a	0.6063458
32	0x3e12e0c2	0.14343551
33	0xbda2e880	-0.07954502
34	0xbe0edb7c	-0.13950914
35	0x3e4a96c9	0.19784082
36	0x3b4919c1	0.0030685517
37	0x3f36e3a5	0.7144111
38	0x3f756809	0.9586187
39	0x3f12c913	0.57338065
40	0x3f52c3d0	0.82330036
41	0x3e71d2ea	0.23615614
42	0x3f7f254d	0.9966629
43	0x3f04027f	0.5156631
44	0xbda53b4c	-0.080679506
45	0x3eb9b11c	0.36267936
46	0x3e97b570	0.29630613
47	0x3f755b80	0.9584274
48	0x3e830c9f	0.25595567
49	0x3e4b0972	0.19827822
50	0x3f36efdc	0.71459746
51	0x3f3265a3	0.69686335
52	0x3e8b9b15	0.27266756
53	0xbba9e890	-0.0051851943
54	0xbd9eef6a	-0.07760508
55	0x3f83e10f	1.0303057
56	0x3f7a32ce	0.9773377
57	0x3f662f91	0.8991633
58	0x3e90430c	0.28176153
59	0x3ec3bb95	0.3822905
60	0x3f381e6c	0.7192142
61	0x3e4def9a	0.20110932
62	0x3f8a37a4	1.079823
63	0x3e0554d9	0.13020648
64	0x3da9091e	0.08253692
65	0x3f9b5e70	1.2138195
66	0xbe1287b1	-0.14309575
67	0x3e8282a5	0.254903
68	0x3f601a7d	0.8754042
69	0x3f195840	0.59900284
70	0x3ecec0bb	0.40381417
71	0x3f39d0d8	0.72584295
72	0x3f8b7318	1.0894499
73	0x3eb4f575	0.3534352
74	0x3f81d96d	1.0144478
75	0xbe188ff3	-0.14898662
76	0x3fa0f6cb	1.2575315
77	0x3f4d66eb	0.80235165
78	0xbeefaf73	-0.46813545
79	0x3e3b327c	0.18280977
80	0xbe08a517	-0.13344227
81	0x3e54414b	0.20728032
82	0xbd96f340	-0.07370615
83	0x3f86e2a2	1.0537913
84	0xbdd83f19	-0.1055891
85	0x3f76ed8a	0.96456206
86	0x3e9ff9cf	0.31245276
87	0x3f88e900	1.0696106
88	0x3d1b9358	0.037982315
89	0x3f850dda	1.0394852
90	0x3e0e47f0	0.1389463
91	0x3f588942	0.8458444
92	0x3e3b2b35	0.18278201
93	0x3f60b21f	0.8777179
94	0x3f780b90	0.9689264
95	0x3f8c7923	1.0974468
96	0x3fa0f5ae	1.2574975
97	0x3f45c3f4	0.77252126
98	0x3f62f859	0.886602
99	0x3e4bfd53	0.19920854
100	0x3cc9cc64	0.024633594
101	0x3f309c82	0.6898881
102	0x3f093e2e	0.53610504
103	0x3f22ff87	0.63671154
104	0x3f234275	0.6377328
105	0x3f25a9f9	0.6471248
106	0x3bae58bf	0.005320638
107	0x3e8c642c	0.27420175
108	0x3f30d2ac	0.6907146
109	0x3fa56e03	1.2924198
110	0x3bb83ee2	0.0056227306
111	0xbe30be9a	-0.17260209
112	0xbd815740	-0.0631547
113	0x3f677d54	0.9042561
114	0x3f77ef01	0.96849066
115	0x3eaecb86	0.3413965
116	0x3f7cbe12	0.98727524
117	0x3f475738	0.7786746
118	0x3f6cfab8	0.92570066
119	0x3f4397d6	0.7640356
120	0xbd368825	-0.04456343
121	0xbd96eca9	-0.07369358
122	0x3fab1da0	1.3368416
123	0x3f05d7ab	0.5228221
124	0x3f9dbea2	1.2323802
125	0x3eacce5f	0.337512
126	0x3fb88469	1.4415408
127	0x3f2080fe	0.62696826

value_stream.0.weight f4 [64, 128]
0	0x3d3b8015	0.045776445
1	0xbd9aa175	-0.07550327
2	0x3d8367ad	0.06416259
3	0xbd01148f	-0.031513747
4	0xbcaea2bb	-0.02131783
5	0xbc5ccf4c	-0.013477158
6	0x3cd6ad53	0.026205694
7	0x3da8358b	0.082133375
8	0x3ccdb3ed	0.02511021
9	0xbdac4198	-0.084109485
10	0xbc1f37fa	-0.009717936
11	0x3b462271	0.003023293
12	0xbd817543	-0.06321194
13	0x3cbf20e3	0.023331111
14	0x3c6399b0	0.013891622
15	0x3d29a325	0.041415352
16	0xbbaf4213	-0.005348453
17	0xbd8e308b	-0.069428526
18	0xbd8cfce6	-0.06884174
19	0xbdc3d172	-0.09561433
20	0xbd4cd5a1	-0.05000842
21	0x3c672970	0.014109001
22	0xbcb25564	-0.021769233
23	0xbcbb4c0f	-0.022863416
24	0xbde81293	-0.11331668
25	0xbca975b2	-0.020686004
26	0xbd543854	-0.05181153
27	0xbda0ef4f	-0.078581445
28	0xbdd5d6d3	-0.10441365
29	0xbcda888d	-0.02667644
30	0xbd175314	-0.036944464
31	0xbd388197	-0.04504546
32	0xbcaaed70	-0.020865172
33	0xbd93daa8	-0.0721944
34	0xbd1bced5	-0.038039047
35	0xbd974a23	-0.07387187
36	0x3c6ae582	0.0143369455
37	0xbcb1e0f3	-0.02171371
38	0xbdca3c08	-0.09874731
39	0x3ce18d90	0.027533323
40	0xbd1f1697	-0.038839903
41	0x3c23cef4	0.009998072
42	0x3d09fb50	0.033686936
43	0x3d2908c6	0.041268133
44	0xbd25b4b7	-0.040455546
45	0x3b18a227	0.002329001
46	0x3d530209	0.051515613
47	0xbd7998ea	-0.060936846
48	0x3d43d021	0.04780591
49	0xbda99e27	-0.08282118
50	0xbdb983bd	-0.0905833
51	0x3d172ac1	0.036906008
52	0x3da50ad6	0.080587074
53	0x3d97005e	0.07373117
54	0x3d85ee8f	0.06539642
55	0xbd09c259	-0.03363261
56	0x3d020f83	0.031753074
57	0x3d4bf410	0.049793303
58	0x3d1d9b54	0.03847821
59	0x3d555e97	0.05209216
60	0xbd91ceea	-0.07119544
61	0xbb4fd902	-0.003171504
62	0xbd3b994e	-0.0458005
63	0x3d2c52f4	0.042071298
64	0x3d0f798e	0.035028033
65	0xbdd1d566	-0.10245781
66	0xbd7999f7	-0.060937848
67	0xbc98312a	-0.01857813
68	0x3d2cdc0a	0.042202033
69	0xbd6dba76	-0.05803915
70	0xbd71d51e	-0.059041135
71	0x3d5f4c87	0.05451634
72	0xbdbf9731	-0.09355009
73	0x3bf1dc75	0.007381017
74	0x3bbda0bf	0.0057869847
75	0x3d4d4e23	0.050123345
76	0xbdfa39b3	-0.122180365
77	0xbc8dfcc3	-0.01733244
78	0xbd35bddf	-0.04437053
79	0xbdbfaaaf	-0.09358727
80	0xbd51ccbd	-0.051220644
81	0x3c9caedd	0.01912635
82	0x3cf3477d	0.029697174
83	0x3cf60ffd	0.03003692
84	0xbc3abb9f	-0.011397271
85	0x3ca3ccdc	0.019995145
86	0x3d4e661b	0.050390344
87	0x3d5f38cb	0.05449752
88	0xbca9c855	-0.020725409
89	0xbd6a11c3	-0.057145845
90	0xb9ac2838	-0.00032836362
91	0xbd6a5c14	-0.05721672
92	0xbd251d67	-0.040311243
93	0xbdb8c79e	-0.09022449
94	0xbd98d135	-0.07461778
95	0x3ca2b4b6	0.01986156
96	0xbb7d33a7	-0.0038635524
97	0xbd36c2c3	-0.044619333
98	0x3d286e2a	0.041120686
99	0xbd11fe3b	-0.035642844
100	0x3d27ebe2	0.04099644
101	0xbc7cbb59	-0.015425527
102	0x3cbd1572	0.023081515
103	0xbc13e655	-0.009027083
104	0x3d31639d	0.04330789
105	0xbdc3ae2d	-0.09554706
106	0x3dab5459	0.083656974
107	0xbda6dd1f	-0.08147644
108	0x3d0de00a	0.03463749
109	0xbd96c246	-0.073612735
110	0xbda8321c	-0.082126826
111	0x3d6465ff	0.055761334
112	0x3d09d2ba	0.03364823
113	0xbcf70c15	-0.030157128
114	0x3b22222f	0.0024739613
115	0xbda3215b	-0.079653464
116	0xbd8396e2	-0.06425263
117	0x3cc7822a	0.02435406
118	0xbde3cfbb	-0.11123606
119	0xbd6aab5c	-0.057292327
120	0xbcb848af	-0.022495596
121	0xbd425245	-0.04744174
122	0xbdf3321d	-0.11874793
123	0xbdbbc6bf	-0.09168767
124	0xbd0c0bbc	-0.03419088
125	0xbdb386d7	-0.08765953
126	0x3d215bf5	0.039394338
127	0x3c85d824	0.016338415
128	0xbf120595	-0.5703977
129	0x3bc547b4	0.0060205106
130	0x3d88eb32	0.06685485
131	0x3ddee4b9	0.10883469
132	0x3edf33ed	0.43594304
133	0x3d98d335	0.074621595
134	0x3e7fbfab	0.2497546
135	0xbf9dd6f7	-1.2331227
136	0x3d0788fc	0.033089623
137	0x3f0c39b4	0.5477555
138	0xbed64d61	-0.4185591
139	0x3ed549ec	0.4165796
140	0xbc64e1ac	-0.01396982
141	0x3e468036	0.19384846
142	0xbfe69190	-1.8013172
143	0xbc8f8a2b	-0.017521938
144	0xbf51bec4	-0.8193171
145	0x3ed08dc0	0.40733147
146	0xbe34d6e5	-0.17660101
147	0x3e8486ae	0.25884002
148	0xbf3f4b0d	-0.74723893
149	0xbdcecb08	-0.10097319
150	0x3edfeaa0	0.43733692
151	0x3ecb7155	0.39734903
152	0x3e820f3a	0.25402242
153	0x3f5c6972	0.86098397
154	0xbee5d080	-0.44885635
155	0x3f49483f	0.78625864
156	0x3ef5c2fb	0.4800032
157	0x3ed18b5b	0.40926632
158	0xbe0fc6d7	-0.14040695
159	0xbf623289	-0.8835836
160	0xbecaf34d	-0.3963875
161	0xbf3aee2f	-0.7301969
162	0xbef43d1b	-0.4770287
163	0xbc56e207	-0.013115413
164	0x3e00f59b	0.12593691
165	0x3f1e4ff9	0.6184078
166	0x3ed3ee16	0.41392583
167	0x3e9e740f	0.3094792
168	0x3f05e9ae	0.5230969
169	0x3c4db73b	0.012555893
170	0x3e850e94	0.25987685
171	0x3e89add4	0.26890433
172	0xbcdf10e6	-0.027229737
173	0x3debd796	0.11515729
174	0x3ed0a228	0.40748715
175	0x3f33238e	0.6997613
176	0x3e948bb0	0.29012823
177	0x3eda9e5c	0.42698944
178	0xbe589af6	-0.21152863
179	0x3ecc63db	0.39919934
180	0x3eba60b9	0.3640192
181	0xbef5126c	-0.47865617
182	0xbf5a4624	-0.85263276
183	0x3ec1bed1	0.37840894
184	0x3eb45ede	0.35228628
185	0x3f5bb97a	0.8582989
186	0xc044a8d0	-3.0728035
187	0xbd15db48	-0.036586076
188	0xbf6596f1	-0.89683443
189	0x3ee5c2d2	0.448752
190	0x3f034ac3	0.5128595
191	0xbe8371e4	-0.2567283
192	0xbfcdaf0e	-1.6069047
193	0x3d0ac2e9	0.033877287
194	0x3af68e29	0.0018810678
195	0xbea73d93	-0.32664165
196	0x3f00f1f8	0.50369215
197	0x3eb2ec7c	0.34946048
198	0x3edfe559	0.43729666
199	0x3ec63e09	0.38719204
200	0x3f47a8ef	0.7799215
201	0xbe99ab5d	-0.30013552
202	0x3f2b59a0	0.6693363
203	0x3e113a12	0.14182308
204	0x3e1eeb57	0.15519463
205	0x3f079c4e	0.5297288
206	0x3edf5b4f	0.4362435
207	0x3e99710a	0.29969054
208	0xbeae8ca8	-0.34091687
209	0xbda6bd2a	-0.08141549
210	0x3dad59d1	0.08464397
211	0x3edb795b	0.42866024
212	0x3d98a554	0.07453409
213	0x3ea7f349	0.328028
214	0xbe5dd105	-0.21661766
215	0x3f05f1db	0.5232217
216	0xbfad897f	-1.3557585
217	0x3eee0a05	0.4649202
218	0x3e80c05d	0.25146762
219	0x3e33fcb4	0.17576867
220	0xbeca5f5e	-0.39525884
221	0x3e21e7fd	0.15811153
222	0x3f1b0d26	0.6056694
223	0x3f3b3a5f	0.7313594
224	0x3e50ecda	0.20402852
225	0x3ddeab59	0.10872526
226	0x3e815a2a	0.25264102
227	0xbda9c25d	-0.08289025
228	0x3f3d970f	0.7405862
229	0x3ed9cbf1	0.42538407
230	0xbd2b684e	-0.04184752
231	0xbdbe0a42	-0.092793
232	0x3e47a45a	0.19496289
233	0x3e9abc1d	0.30221644
234	0x3f62a6af	0.8853559
235	0x3e929d32	0.28635556
236	0x3ed38524	0.41312516
237	0x3f11573b	0.5677373
238	0x3e25372c	0.16134328
239	0xbf078238	-0.52933073
240	0x3f8be4a0	1.0929146
241	0x3ea0bc01	0.31393436
242	0x3f80a6e8	1.0050936
243	0xbea53f8a	-0.3227504
244	0x3f7f44a9	0.9971414
245	0x3f2e028a	0.67972624
246	0x3dfd897d	0.123797394
247	0x3f1dedf9	0.6169124
248	0xbebd211f	-0.36939332
249	0xbf0285e7	-0.5098557
250	0x3d25b560	0.040456176
251	0x3f4b3f5b	0.7939355
252	0x3ea941b1	0.3305793
253	0xbf2ada2b	-0.6673915
254	0x3e2f428e	0.17115232
255	0xbfdf8488	-1.746232

value_stream.0.bias f4 [64]
0	0xbd9fae0e	-0.0779687
1	0x3fd374f2	1.6520064
2	0x3db5ee9c	0.08883402
3	0xbde5c532	-0.11219253
4	0x3f16c41a	0.5889298
5	0xbc32f279	-0.010922068
6	0x3f432727	0.76231617
7	0x3fc7f04d	1.5620209
8	0xbd00a2f9	-0.031405423
9	0xbd85fe5d	-0.065426566
10	0x3fe0a9a7	1.7551774
11	0x3fe25820	1.7683144
12	0x3fd71444	1.680306
13	0x3fd24ac3	1.6429065
14	0x3fbd79e4	1.4802823
15	0x3fdd4a11	1.7288228
16	0x3fe6a7a8	1.8019915
17	0xbd31919a	-0.043351747
18	0x3d223017	0.039596643
19	0x3d7a34d0	0.061085522
20	0x3fd17382	1.6363375
21	0xbd73d5d5	-0.059530098
22	0x3fe2de7d	1.7724148
23	0x3fd2e7e1	1.6477014
24	0x3fd0a391	1.6299917
25	0xbd7dbd0f	-0.06194788
26	0x3fd60329	1.6719714
27	0xbd8c9a18	-0.068653286
28	0x3fcf0e14	1.6176171
29	0x3fe29fb0	1.7704983
30	0x3d9e23a0	0.07721639
31	0x3fdd3c6a	1.7284062
32	0x3f2076ff	0.62681574
33	0x3d9e1096	0.07718007
34	0x3fd0bd41	1.6307756
35	0x3fd47cf3	1.6600631
36	0x3fe6c287	1.8028115
37	0xbd32e3d3	-0.0436743
38	0x3fd8e58a	1.694505
39	0xbd93f5e6	-0.07224636
40	0x3df12f48	0.11776596
41	0xbd8ba2ae	-0.06818138
42	0x3fe1a44f	1.7628268
43	0xbd848866	-0.064713284
44	0x3fd4a0bd	1.6611553
45	0x3fe21624	1.7663007
46	0x3fdd9359	1.7310592
47	0xbcee64a9	-0.029100733
48	0x3fd8b438	1.6929998
49	0xbd0014ba	-0.031269766
50	0x3fd111a1	1.6333505
51	0x3fe42e13	1.7826561
52	0x3fd7c8a9	1.6858112
53	0xba63cb40	-0.00086896494
54	0x3fdd294a	1.7278225
55	0x3fd5c6ce	1.6701295
56	0xbb7a2282	-0.003816754
57	0xbd1a88c4	-0.037728086
58	0x3c513c96	0.0127707925
59	0xbda090cd	-0.078401186
60	0x3fd3e5d4	1.6554513
61	0x3fe1ff96	1.7656124
62	0xbcad0bb2	-0.02112374
63	0x3fe3424e	1.775461

value_stream.2.weight f4 [1, 64]
0	0xbd05c707	-0.03266051
1	0x3e9dce10	0.30821276
2	0xbef1bc2d	-0.4721388
3	0xbdba31ae	-0.09091507
4	0x40165fd9	2.3496
5	0xbf74e60d	-0.9566353
6	0x401330fc	2.2998648
7	0x3e9c0775	0.3047444
8	0xbc0ec7ae	-0.0087146
9	0x3fe5f93f	1.7966689
10	0x3ebfa3e4	0.37429726
11	0x3eb59656	0.3546626
12	0x3ea07d55	0.3134562
13	0x3ea392cc	0.31947935
14	0x3e9eb773	0.30999336
15	0x3ec56169	0.3855088
16	0x3ece417e	0.40284342
17	0x3c7bc910	0.015367761
18	0xbd9d81f9	-0.07690806
19	0xbcd1ede0	-0.025626123
20	0x3ec53a8a	0.38521224
21	0x3c48a3ba	0.012246067
22	0x3ec4159e	0.38297743
23	0x3ec42a03	0.38313302
24	0x3eaa7008	0.33288598
25	0xbc81cf86	-0.015846025
26	0x3ebf0e03	0.37315378
27	0xbddf3967	-0.108996205
28	0x3ea36c76	0.31918687
29	0x3ec5dd56	0.38645428
30	0xbf65143c	-0.89484
31	0x3ebe85f6	0.3721158
32	0x3fd0751b	1.6285738
33	0xbf439703	-0.764023
34	0x3eae17be	0.3400249
35	0x3ea35c3e	0.31906313
36	0x3ec95d31	0.39328912
37	0xbf3076b6	-0.6893114
38	0x3ea42be6	0.32064742
39	0x3f03c7f7	0.51477
40	0xc01360f2	-2.302792
41	0xbdaf65ba	-0.08564325
42	0x3ebb0159	0.36524466
43	0xbd87e8d0	-0.06636202
44	0x3e9c3d42	0.30515486
45	0x3eb15bd8	0.34640384
46	0x3ea7dd18	0.3278587
47	0x3f0fae77	0.5612559
48	0x3ec33edd	0.38133898
49	0xbf76c677	-0.96396583
50	0x3e9d7cf8	0.30759406
51	0x3ecb5a36	0.39717263
52	0x3eaf8c06	0.34286517
53	0xbf5e8a0c	-0.8692939
54	0x3eb1ba87	0.34712622
55	0x3eb09fec	0.3449701
56	0xbcc4006c	-0.023925982
57	0xbecc6921	-0.39923957
58	0xbc75f02b	-0.015010874
59	0xbd555866	-0.052086256
60	0x3eac6552	0.3367105
61	0x3ec3fa11	0.38276723
62	0xbd8f29fb	-0.06990429
63	0x3ecae2dd	0.39626208

advantage_stream.0.weight f4 [64, 128]
0	0xbed7acae	-0.42123932
1	0xbedfc66f	-0.4370608
2	0xbd7038fd	-0.0586481
3	0x3e6c35e9	0.2306744
4	0xbf0fc1b5	-0.5615495
5	0x3e69bb8e	0.22825453
6	0x3f1f1e83	0.6215593
7	0x3fe2abd5	1.7708689
8	0x3f2cabfc	0.6744993
9	0x3e48cfb1	0.19610478
10	0x3fb0d087	1.3813637
11	0x3ce9069d	0.028445536
12	0x3e3a06a1	0.18166591
13	0x3e6f2ef3	0.23357753
14	0x3f2db76f	0.6785802
15	0x3f825cb6	1.0184543
16	0x3f326a97	0.69693893
17	0xbf536f04	-0.8259127
18	0xbe8c3816	-0.2738654
19	0x3dd68eb6	0.10476439
20	0x3eee68ee	0.4656443
21	0xbf286fc9	-0.6579557
22	0xbf145fb6	-0.57958543
23	0x3f0c4417	0.54791397
24	0x3ef3a879	0.47589472
25	0xbf0b413e	-0.54396427
26	0x3d7e75a3	0.062123906
27	0xbd53cec3	-0.051710855
28	0x3ef143e5	0.47122112
29	0xbcf2999e	-0.029614266
30	0xbfe6f920	-1.8044777
31	0x3e8a0a61	0.26961043
32	0x3fa63f49	1.2988063
33	0x3dd9cc4b	0.10634669
34	0xbe265898	-0.16244733
35	0xbf7b3101	-0.9812165
36	0xbf559405	-0.83428985
37	0xba964906	-0.0011465854
38	0x3e018208	0.12647259
39	0x3d9eb7ce	0.07749902
40	0xbc87a3f2	-0.016557667
41	0x3f35d19c	0.71022964
42	0xbe48f29d	-0.196238
43	0x3f3ff905	0.7498935
44	0xbda427e4	-0.08015421
45	0x3f5352e6	0.8254837
46	0x3d4e2427	0.050327446
47	0xbd78c0cc	-0.06073074
48	0xbf847557	-1.0348309
49	0x3f90b0ca	1.1303952
50	0xbf61feba	-0.88279307
51	0x3e5fe5a0	0.21864939
52	0x3f8423f7	1.0323476
53	0xbe8a5fbd	-0.27026168
54	0x3e86f219	0.2635658
55	0xbebe6dcb	-0.3719314
56	0x3df8d95f	0.12150835
57	0x3de5ce31	0.112209685
58	0x3f9e8f59	1.2387496
59	0xbf419397	-0.7561583
60	0x3eb39533	0.35074767
61	0x3e7ab523	0.2448316
62	0x3e1e6d92	0.15471485
63	0x3fac3679	1.3454124
64	0xbe852b9c	-0.26009834
65	0x3e95d6cb	0.29265437
66	0x3f9897a5	1.1921278
67	0x3f7f11b2	0.99636376
68	0x3e8e43ec	0.27786195
69	0x3e3f7bb2	0.1869953
70	0xbf15795f	-0.5838832
71	0x3eeb26de	0.4592809
72	0x3ede4a7e	0.43416208
73	0x3fa6da49	1.3035365
74	0xbe9ebc99	-0.31003264
75	0xbf7c34b3	-0.9851791
76	0x3e169a9a	0.14707413
77	0x3f072622	0.5279256
78	0xbecb22d9	-0.39675024
79	0x3f5f51fd	0.8723448
80	0x403a2b74	2.9089022
81	0x3f45b0dd	0.77222997
82	0x3ca3f593	0.02001456
83	0xbe6d5e52	-0.23180512
84	0xbd60d0bc	-0.054886565
85	0x3e0f0fd8	0.13970888
86	0xbea5bcc1	-0.3237057
87	0x3c2c506c	0.010517221
88	0x3ebdaeb7	0.3704736
89	0x3d06b4ed	0.032887388
90	0xbed02d3a	-0.40659505
91	0x3f62d58a	0.88607085
92	0xbf203b41	-0.62590414
93	0x3e64156c	0.22273797
94	0xbc4974ad	-0.012295884
95	0x3e12973f	0.14315508
96	0x3e4c772a	0.19967332
97	0xbd6594a3	-0.056049954
98	0x3ed13966	0.40864104
99	0xbf82d3d9	-1.0220901
100	0x3f846987	1.0344704
101	0x3f65ee41	0.8981667
102	0x3fcbd450	1.5924168
103	0x3f5cf75d	0.86314946
104	0xbe3c0680	-0.18361855
105	0xbf11e2fe	-0.5698699
106	0xbe2d2a7e	-0.1691074
107	0x3f27be47	0.65524715
108	0x3f0a7339	0.54082066
109	0x3c984624	0.018588133
110	0xbf1f1b5a	-0.6215111
111	0x3dc6ec93	0.09713092
112	0xbf131aad	-0.5746258
113	0x3ecd7959	0.40131643
114	0x3e3646f1	0.178005
115	0x3fa749b8	1.3069372
116	0x3ebb21ba	0.3654917
117	0xbf3d3989	-0.73915917
118	0x3f01e24e	0.5073594
119	0x3db5ffd6	0.088866875
120	0xbec4bfee	-0.3842768
121	0xbef60778	-0.48052573
122	0x3e18e798	0.14932096
123	0xbd7f7247	-0.062364843
124	0x3d2ad8d4	0.04171069
125	0xbfb1a2ea	-1.3877842
126	0x3e579dc5	0.21056278
127	0x3f900e0b	1.1254286
128	0x3d84a924	0.064775735
129	0x3d1b92ba	0.037981726
130	0x3d3cb186	0.046067737
131	0xbd6ad900	-0.057335854
132	0x3bcb7583	0.006209077
133	0xbdd2384f	-0.10264646
134	0x3caa29a9	0.020771818
135	0x3d8a4477	0.0675134
136	0x3cb9eff4	0.022697426
137	0x3d021311	0.031756464
138	0x3cd369a2	0.025807206
139	0xbc0cc37f	-0.008591532
140	0x3c84db53	0.016217863
141	0xbddf1c3f	-0.108940594
142	0xbceba52e	-0.028765287
143	0xbd033564	-0.03203334
144	0xbdb48d79	-0.08816046
145	0xbd42f3fb	-0.04759596
146	0xbd3fd921	-0.04683793
147	0x3d09663f	0.033544775
148	0xbd028065	-0.031860728
149	0xbd8695a6	-0.06571512
150	0xbddfa8d7	-0.109208755
151	0xbd771c49	-0.06032971
152	0x3d2a88db	0.04163442
153	0x3d17244a	0.036899842
154	0xbd3bd0a8	-0.045853287
155	0xbd6ca227	-0.057771828
156	0xbd855645	-0.06510595
157	0x3cf1fd76	0.029539805
158	0xbdddffde	-0.108398184
159	0x3cdf2384	0.027238615
160	0xbd8ff36a	-0.070288494
161	0xbc5bc516	-0.013413688
162	0xbd2f45aa	-0.042791046
163	0x3cf87a70	0.03033182
164	0x3922a81a	0.00015512147
165	0x3d061826	0.032737873
166	0xbcc2174a	-0.023692746
167	0x3b14b452	0.0022690487
168	0xbcbbc8dc	-0.022922926
169	0xbdda9b66	-0.10674171
170	0x3d20e7b4	0.03928347
171	0x3d363e62	0.044493087
172	0x3ce836aa	0.028346378
173	0xbdc9ceca	-0.09853895
174	0x3d3ee808	0.046608
175	0x3bd959f3	0.0066330372
176	0xbcc611d2	-0.02417842
177	0x3c3867a6	0.01125518
178	0x3b38fd49	0.0028227142
179	0x3d8ba7c1	0.06819106
180	0x3d5010cd	0.050797272
181	0xbcbe8e34	-0.023261167
182	0x3d14aaad	0.03629558
183	0xbd35c7e9	-0.044380102
184	0x3ca13f2b	0.019683441
185	0xbd4a439b	-0.04938088
186	0xbd732233	-0.059358787
187	0xbdc3e2e1	-0.09564758
188	0xbdc7258b	-0.09723958
189	0x3cf5e3ad	0.03001579
190	0xbd55156e	-0.05202239
191	0xbc08ea86	-0.008356696
192	0x3cd88082	0.026428465
193	0x3d1bda00	0.038049698
194	0xbd4c4c26	-0.04987731
195	0xbd3dd407	-0.046344783
196	0xbe079b80	-0.13242912
197	0x3cb78dd5	0.022406498
198	0xbaf8aa7e	-0.0018971709
199	0xbd823a52	-0.0635878
200	0xbdf914ed	-0.121621944
201	0xbd35dcd9	-0.04440007
202	0xbd56091e	-0.05225479
203	0x3d037048	0.0320895
204	0x3d4dbb54	0.05022748
205	0xbc395560	-0.011311859
206	0xbd6b4c02	-0.057445534
207	0x3cb7e54f	0.02244821
208	0xbdabc986	-0.08388047
209	0xbdabb20a	-0.08383568
210	0x3d244a56	0.040109955
211	0xbd9793ae	-0.074012145
212	0xbd9b4eb7	-0.07583373
213	0xbda249ce	-0.079242334
214	0xbdc3e8b1	-0.09565867
215	0xbdefd698	-0.117108524
216	0xbca733ae	-0.020410385
217	0x3cc05aa9	0.02348073
218	0xbdae623c	-0.085148305
219	0xbd131abe	-0.035914175
220	0x3d3132db	0.04326139
221	0xbb07b538	-0.002070738
222	0x3d67100b	0.056411784
223	0x39c41e3b	0.00037406557
224	0xb8c56d40	-9.4140414e-05
225	0x3c8493e2	0.016183797
226	0x3d06090c	0.03272347
227	0xbc8ade0b	-0.016951581
228	0xbda03e04	-0.078243285
229	0x3bbf1304	0.0058311243
230	0xbdb398d7	-0.08769386
231	0xbdc8636c	-0.09784588
232	0xbdd0a415	-0.10187546
233	0x3b77a3e2	0.003778689
234	0xbdee9728	-0.116499245
235	0xbd9329c9	-0.07185704
236	0xbd13ed94	-0.036115244
237	0x3d3e6a38	0.046488017
238	0x3ce3841e	0.02777296
239	0xbaaddf22	-0.0013265351
240	0xbd8bdb47	-0.06828933
241	0xbd2b8810	-0.041877806
242	0xbca656b8	-0.020305023
243	0xbd881d4c	-0.06646213
244	0xbde65508	-0.11246687
245	0xbcd175f3	-0.025568938
246	0xbdeef5a5	-0.11667947
247	0xbd9f416e	-0.077761516
248	0xbba6a57d	-0.0050856457
249	0xbd293c3c	-0.04131721
250	0x3d60a775	0.0548472
251	0xbd999cdb	-0.07500621
252	0xbcc8ccb7	-0.024511678
253	0xbb1dfc04	-0.0024106512
254	0x3bb9c4e1	0.0056692217
255	0x3ccea320	0.025224268

advantage_stream.0.bias f4 [64]
0	0x3d3fa2fe	0.0467863
1	0xbdd37b76	-0.10326283
2	0x3e7c8d1f	0.24663208
3	0xbcea31fa	-0.028588284
4	0x3d3417cf	0.04396802
5	0xbd595ae7	-0.053065207
6	0xbd9d0e2e	-0.0766872
7	0xbdbfcdd1	-0.09365428
8	0x3ddc2007	0.10748296
9	0xbdda4fed	-0.10659776
10	0x3f02286b	0.5084292
11	0x3dc5aaba	0.09651704
12	0xbdecfbc6	-0.115714595
13	0xbb4dd3d0	-0.0031406768
14	0x3e3d5947	0.18491088
15	0x3d28dbc4	0.04122521
16	0xbc88853c	-0.016665094
17	0x3dd58284	0.104252845
18	0xbd393750	-0.045218766
19	0x3ec958a5	0.39325443
20	0x3d7b73c2	0.061389692
21	0x3cd2d036	0.025734048
22	0xbce469d7	-0.0278825
23	0x3d190865	0.03736152
24	0xbd87cc18	-0.06630725
25	0x3ec334d4	0.38126242
26	0xbd3a7e06	-0.04553034
27	0x3da62948	0.081133425
28	0x3b251563	0.002518975
29	0x3d9a95e3	0.0754812
30	0x3ecf343f	0.40469548
31	0xbcb013ce	-0.021493819
32	0x3ec42dd7	0.38316223
33	0x3efdd500	0.4957657
34	0xbda3ecb5	-0.08004133
35	0x3c26cdc6	0.010180896
36	0x3ed496f0	0.41521406
37	0x3d36f203	0.044664394
38	0x3b005b9f	0.001958586
39	0xbd70dbdf	-0.058803435
40	0x3ea9c5f4	0.3315884
41	0x3edd885c	0.43268096
42	0xbd9fa8df	-0.077958815
43	0xbd3d7b2d	-0.046260048
44	0x3d467452	0.048450775
45	0x3d8755c0	0.066081524
46	0x3d5473d7	0.051868286
47	0x3dac84ad	0.084237434
48	0xbdc2f648	-0.09519631
49	0x3dd89511	0.10575307
50	0xbc48824a	-0.012238095
51	0xbd0c6f7a	-0.034286
52	0x3d2acca9	0.041699085
53	0x3f1448a4	0.5792334
54	0xbd58b710	-0.052908957
55	0xbb178ff1	-0.0023126567
56	0xbd9f33d6	-0.07773559
57	0x3dcccc69	0.09999926
58	0xbd4d6a39	-0.05015013
59	0xbd1021a4	-0.035188332
60	0x3ebacc4a	0.36483985
61	0x3dd4658f	0.10370933
62	0x3ee43cb1	0.44577554
63	0xbd8a4113	-0.06750693

advantage_stream.2.weight f4 [2, 64]
0	0xbf2e3c46	-0.6806072
1	0xbcc82df0	-0.024435967
2	0xc052cb4f	-3.293659
3	0x3c234c4e	0.009966923
4	0xbe9da456	-0.3078944
5	0xbfa09cff	-1.2547911
6	0xbc4fd25e	-0.012684433
7	0xbf1e6c1f	-0.6188373
8	0xbf4aebff	-0.7926635
9	0xbdaf8b22	-0.08571459
10	0xc0450b8c	-3.0788298
11	0x4014cc4d	2.3249695
12	0x3f16a0df	0.5883922
13	0x3dc59798	0.09648055
14	0xc038fcf3	-2.8904388
15	0xbcb3cf4f	-0.021949438
16	0x3f70ad93	0.94014853
17	0xbee95a9d	-0.45576945
18	0xbfeb460c	-1.8380752
19	0x3f1dd1b7	0.61648124
20	0x3f8ff4c4	1.1246572
21	0xbe065548	-0.1311847
22	0xbead8831	-0.33892968
23	0x3e20e88f	0.15713714
24	0xbd61d6e6	-0.055136584
25	0x3efa5342	0.48891646
26	0xbe806d95	-0.25083604
27	0xbf375498	-0.71613455
28	0xbdd83d30	-0.105585456
29	0xbe566b34	-0.20939332
30	0x3f1ca993	0.6119625
31	0xbf2b5e9a	-0.66941226
32	0xc0387fbb	-2.882796
33	0x3eecaad7	0.4622409
34	0xbe92fb50	-0.2870736
35	0xbf2c547c	-0.6731641
36	0x3f0b93e3	0.5452253
37	0x3eabe332	0.33571774
38	0x3d90886a	0.07057269
39	0x3db0b614	0.08628479
40	0xc05f3d8d	-3.4881318
41	0x3f301034	0.68774724
42	0xbf4cd6b4	-0.8001511
43	0xbd0a4bbf	-0.033763643
44	0x3f44d745	0.76890975
45	0x3cb91b7f	0.022596119
46	0x3f2869a7	0.6578621
47	0xbf1db754	-0.6160786
48	0xbfb9d8b9	-1.4519264
49	0xbf883a06	-1.0642707
50	0xbf5a6407	-0.8530888
51	0x3e43e3aa	0.19129816
52	0xbdd51452	-0.104042664
53	0xc05272e2	-3.288262
54	0xbdc43c9d	-0.095818736
55	0xbdefc836	-0.11708109
56	0xbf3168dc	-0.6930063
57	0xbf92c4af	-1.1466273
58	0x3d31c303	0.04339887
59	0x3ff92869	1.9465457
60	0x3f34d4f5	0.70637447
61	0xbf98120e	-1.188051
62	0x3f2e08bf	0.67982095
63	0xbf4b2d10	-0.79365635
64	0x3f20e8a6	0.62854993
65	0xba4c084a	-0.00077832176
66	0x404ecc77	3.2312295
67	0x3d064262	0.03277815
68	0x3e95e9f0	0.29280043
69	0x3fae0600	1.3595581
70	0x3dbbd916	0.09172265
71	0x3f2ffeb2	0.6874801
72	0x3f55d9a2	0.83535206
73	0x3e0d9b5e	0.13828799
74	0x4041af2e	3.0263171
75	0xc010e19d	-2.2637703
76	0xbed20232	-0.410173
77	0x3d96b6b4	0.073590666
78	0x4034b887	2.8237627
79	0x3b5998b4	0.003320259
80	0xbf86b90f	-1.0525225
81	0x3ee7d80c	0.45282018
82	0x3fde1e74	1.7353044
83	0xbf1b6aee	-0.60710037
84	0xbf882f1f	-1.063938
85	0xbc4b3733	-0.012403297
86	0x3eb3b413	0.35098323
87	0xbe54b801	-0.20773317
88	0x3db8174e	0.0898882
89	0xbf06ace9	-0.5260759
90	0x3df3759d	0.11887667
91	0x3f5f8161	0.8730679
92	0x3d8ac6f2	0.06776227
93	0x3e9e8544	0.3096105
94	0xbf11f939	-0.5702091
95	0x3f5a9728	0.85386896
96	0x4035f1e2	2.8428884
97	0xbf28e280	-0.6597061
98	0x3e82a4d0	0.25516367
99	0x3f1c8c6d	0.6115177
100	0xbefe5986	-0.49677676
101	0xbec20fcf	-0.37902686
102	0x3d5cd638	0.053915232
103	0x3d96a58d	0.07355795
104	0x405e4b34	3.47334
105	0xbf395ca4	-0.72406983
106	0x3f2a0029	0.66406494
107	0xbdb788f9	-0.08961672
108	0xbf169840	-0.58826065
109	0x3de61b82	0.112357154
110	0xbf155525	-0.58333045
111	0x3f39ac4c	0.7252853
112	0x3fad1207	1.3521127
113	0x3f86cd1b	1.0531343
114	0x3f8a778c	1.0817733
115	0xbe91d4c0	-0.28482628
116	0xbda8262c	-0.08210406
117	0x4056459e	3.347999
118	0xbc1c9dc3	-0.009559098
119	0xbda2d4f8	-0.07950777
120	0x3f4569e0	0.7711468
121	0x3fa5e29b	1.295978
122	0xbd526442	-0.051365145
123	0xc0031170	-2.0479393
124	0xbf00157d	-0.5003279
125	0x3fa6a45e	1.3018911
126	0xbf144d18	-0.57930136
127	0x3f236eff	0.6384124

advantage_stream.2.bias f4 [2]
0	0x3c34eb51	0.011042432
1	0xbe2a7c43	-0.16648965
