dqn_school_dueling.pth (torch, 148933 bytes, 11 tensors)

feature_layer.0.weight f4 [128, 20]
00000000: 7fed 593e 2c3a cbbf 66e6 48be 044c 95be
00000010: a525 02be 6a2a 2dbf 18bb 8a3e 6aee 343e
00000020: 156f d8bc dfaa 453f 0a6f 003e ac3b 32be
00000030: 30ac acbf 33e8 d5be c691 f4be 5c71 b83c
00000040: 9a53 35bf b6a4 293f 2303 523e 9e87 c33e
00000050: 7dfd c03e dc42 903d 8b22 65be b5ca 4ebe
00000060: 86ad 33be f3c8 e6be 2f70 2cbd e185 c03b
00000070: 825c 953c e3f8 31bf bbd1 a23e 4628 553e
00000080: 04d3 033e 0b01 d2be 323f 13be b73e b1be
00000090: 5d8a 02be a8a7 4b3e e5e2 833e 6243 c3bd
000000a0: b6ca 5abb a7c5 afbe 1a48 19bf ef90 cdbe
000000b0: def5 483e f5a4 f7bd 0eda cd3e bfc2 663e
000000c0: 8fa3 203e 68b1 cebf e039 58bf 149a 0abe
000000d0: 5649 d7be 66c5 eebe d238 f9be 5a8e 3b3d
000000e0: 8a8d c9bd 974f 0c3f 4717 9d3e 5321 8f3e
000000f0: 4668 d83d e1a8 143e 05bb 3d3f f9ac 01bf
00000100: 2337 8b3e baba 87bf 6bf6 0a3e 5fed 753e
00000110: dc8f f6bc 51b2 08c0 07e1 4a3e 3f9d f43b
00000120: a38f a13d 513e 103f 420c 32bf 2b0b 943e
00000130: e4f2 3fbf e72c 933d b1b4 8c3e 826f 473c
00000140: a32a 293e 7416 96bc 741b 09bf 189b d6bc
00000150: 1998 73bf 9d8c 3c3e 885d 82bd 3cde e43e
00000160: b52c 983d 687b 7c3f 7788 393e d763 943e
00000170: df5a 873e 6888 03bf 0df3 c0be 5c05 81bf
00000180: 1e03 d13e 7bfb af3e d73d e13e ffbf 8d3e
00000190: 797d e83e 2aab d7bd 6848 75be 1ee5 bb3c
000001a0: 6445 8cbc c279 9e3e a2bf 8c3d 4ece c9be
000001b0: 4ef8 98bf ec3d d6bd 8fa0 d6bd 9418 1b3f
000001c0: f5b5 29be 7151 1fbe a20d eabc c0b5 c9bd
000001d0: f001 aa3d 0424 153e 308b b7be c39f 73bf
000001e0: 04b9 073f 0244 cf3e c54c ad3e 9aa3 1fbf
000001f0: c360 8abe 836e 463e a942 9c3e 1c1c f83d
00000200: 600d 0b3d 4de3 7c3e 5573 8a3d 9764 d33e
00000210: e962 1c3f c11f 213e 0001 dabe 3674 b5be
00000220: aafa 653e 556e 083f 8c6a 55be 585c 69bd
00000230: 9845 e03d 211c e1be 76f4 b73e 9502 b5be
00000240: ad66 96be e502 e2be a1ce b13e 3c3d 233f
00000250: 24bf 073e de45 463e 41ef b1be 6b57 de3d
00000260: 68b1 a2be 3690 b63e e17e d9be 9259 d9be
00000270: abbe ffbe b8ef 443e 88f6 6a3f 27a7 233e
00000280: 9a8a 4dbe 5566 c4bd efec 0f3e 57cc 4abe
00000290: 5287 313e 5593 5cbe 9cab 233f 1a8c 54bf
000002a0: 008f 02bf 0ac9 ee3e cf2d 9a3e 06cb 24be
000002b0: 3312 9fbe 2749 673e d259 4dbe 8283 973e
000002c0: 8aa9 dfbd a0e1 573f 1bd7 44bf 5e04 cbbe
000002d0: 2378 c13e a00e b0be 8393 c03c 3501 35bd
000002e0: f470 a1bf 7c27 a9be 14da 623b b861 e63e
000002f0: e5af 6e3e a94c 0e3f 284a 453f 37bd d63e
00000300: 575d fdbe 4371 5d3e 7050 68bd c807 82bf
00000310: 4d04 fbbd e1b7 023d b334 0c3f 29f6 183d
00000320: d714 00bf d546 943e 79ed e2be 21a6 363f
00000330: af92 893e 20a2 e2bf 8159 da3e 36c2 393e
00000340: 43ed d0bf 1151 483f 08bf 25be 25cf 04bf
00000350: c273 993e 6a9f 05bf 1fa9 1c3f c5ec 993e
00000360: 13f7 00c0 20bc c03e decb bb3e 6aa7 cebf
00000370: 82f7 11be a070 edbe b4e4 963e 3c3f ed3d
00000380: ccdf 56be 4a85 eebe 097a cbbd ada1 49bd
00000390: 4766 163e e2f8 a7be 08d4 d7bb c0c7 02bf
000003a0: efd2 e5be a2c2 823e 1a30 063e 1555 87be
000003b0: 45ec 5fbe bd7a 143e cf5e 9d3b 2f46 703e
000003c0: 36e8 c03e a189 803e d15e b33d 2dab dd3d
000003d0: 5cf2 82be e929 d4bd 7664 913e d441 73bc
000003e0: 2d1f 1f3e 3f5e 093f 7702 8f3e ed51 1e3f
000003f0: e5fe 9f3e bdd5 553e 041b 74be d03a 74be
0.21282004 -1.5877128 -0.1961914 -0.29159558 -0.12709673 -0.67642844 0.27095866 0.17669073
-0.026420156 0.77213854 0.12542358 -0.17405576 -1.3490047 -0.41778716 -0.47767466 0.022514991
-0.7083069 0.66266954 0.20509009 0.38189405 0.37693396 0.070440024 -0.22376458 -0.20194514
-0.17546663 -0.45075187 -0.042099174 0.0058753346 0.018232588 -0.69520396 0.31800637 0.20816144
0.12873465 -0.4101642 -0.14379576 -0.3461816 -0.12748094 0.19888175 0.25759044 -0.095343366
-0.0033384985 -0.34330484 -0.59875643 -0.40149638 0.19625041 -0.1209201 0.40205425 0.22535227
0.15687393 -1.614789 -0.8446331 -0.13535339 -0.42048138 -0.46634978 -0.48676163 0.045790054
-0.098414496 0.54808944 0.30681822 0.27955112 0.105667636 0.14517547 0.74113494 -0.5065456
0.27190503 -1.060386 0.13570563 0.24016331 -0.030097894 -2.1358836 0.19812404 0.0074650343
0.07888725 0.5634509 -0.69549954 0.2891477 -0.74979997 0.07186299 0.27481607 0.012172582
0.16520171 -0.018321253 -0.53557515 -0.026197001 -0.9515396 0.18413015 -0.06365496 0.447008
0.07430402 0.98625803 0.18118463 0.28982422 0.26436517 -0.51380014 -0.37685433 -1.007976
0.4082269 0.34371552 0.43992493 0.27685544 0.45408228 -0.10530694 -0.23953402 0.0229364
-0.017122932 0.3095227 0.068724886 -0.3941521 -1.1950777 -0.104610294 -0.10479843 0.6058438
-0.16573317 -0.15558411 -0.028570954 -0.09849119 0.08301151 0.1456452 -0.3584838 -0.9516565
0.53016686 0.40481573 0.33847633 -0.6235901 -0.27026948 0.19378094 0.30519608 0.121147364
0.033948302 0.24696083 0.06760279 0.4128768 0.61088425 0.1573477 -0.42578888 -0.35440224
0.22458902 0.53293353 -0.20841426 -0.05697283 0.10950774 -0.43966773 0.35928696 -0.35353532
-0.2937521 -0.44142833 0.34727958 0.6376531 0.13256508 0.1936259 -0.3475285 0.108565174
-0.31775975 0.356569 -0.42479613 -0.4245115 -0.49950156 0.1923207 0.91782427 0.15981732
-0.20072404 -0.09589831 0.14055227 -0.19804512 0.17336777 -0.21540578 0.6393373 -0.8302628
-0.5099945 0.46637756 0.30113074 -0.16093072 -0.31068572 0.22586499 -0.20053795 0.2959252
-0.10921009 0.8432865 -0.76890725 -0.3965177 0.3778697 -0.34386158 0.02350784 -0.044190604
-1.2612596 -0.33037937 0.0034614848 0.44996428 0.23309286 0.55585724 0.7706628 0.41941234
-0.49485275 0.21625237 -0.056717336 -1.0158625 -0.1225668 0.03191364 0.5476791 0.03734413
-0.500318 0.2896029 -0.44321802 0.7134724 0.26869723 -1.7705727 0.4264641 0.18140492
-1.6322407 0.782487 -0.16186154 -0.5187858 0.2997113 -0.5219637 0.6119556 0.30063453
-2.0150802 0.37643528 0.36678976 -1.6144841 -0.14254573 -0.4637499 0.29471362 0.115843266
-0.20983809 -0.46586066 -0.09935386 -0.04922645 0.14687453 -0.3280707 -0.0065865554 -0.51086044
-0.44887492 0.25539118 0.13104287 -0.264321 -0.21867473 0.14499946 0.004802562 0.23464273
0.37677163 0.25105003 0.08758319 0.10823665 -0.2557553 -0.10359556 0.28396958 -0.014847238
0.15539236 0.53659433 0.27931568 0.6184376 0.31249157 0.20882316 -0.2383843 -0.2385056

feature_layer.0.bias f4 [128]
00000000: c1bc 8c3d 74e3 403f b9ee 293e 3ba3 5cbd
00000010: 9513 77bf a4b7 733e 2102 8ebe 5c87 c5be
00000020: 8077 f0bd 480f e3be 62e3 58bf 56e3 363f
00000030: 7bf0 51bf d895 17bf bc05 15bf 877e 03bf
00000040: 9f7f e5be 11b3 9ebe f861 7cbe fd23 e5be
00000050: 9752 a93e e314 083f a186 9f3e b8e1 fa3e
00000060: 7084 843e 1101 0fbe 872b 043f b895 b2be
00000070: 9906 8c3e e768 82bf 122f 0e3f bccd 62bf
00000080: 16c1 1abe 8eaf 48be c547 10be efa5 acbe
00000090: 235a 8ebe cc43 c73e 069c 1d3f 38e5 41be
000000a0: 7694 25bd 4d7c 64be 04fd 393e 50a2 ca3d
000000b0: ec4b 08bf dffa 27be d1d4 133f b2fd 76bf
000000c0: 318f 61bf a9ca 7abd 6231 043f 6b4f 543e
000000d0: a719 5fbd 130d 27bf 5cae d9be 3750 653d
000000e0: 2799 3d3f dc5c 34bf 385a e7be ff9a 083f
000000f0: 1a03 3f3d bc7b ffbd 3f76 673f 0989 03be
00000100: ac86 593d 44d5 5e3f 9220 f0be 58b4 1abd
00000110: 0289 b03e 4e15 84be f5a5 453e f9fe 89be
00000120: 5488 26bf d3fb be3e 86a8 f6bd 71a4 203e
00000130: c35f 85be afc1 4ebe 80d2 3c3f a6a7 a73e
00000140: 502f 0dbf fad0 a7be 6eb0 1c3e c75c 0bbf
00000150: ef43 23bf 9366 7fbe ff06 913e f834 3cbf
00000160: 41f5 c73c 5740 11bf ed1d 173f e516 05bf
00000170: 570f 38bf 8995 a73e 758f ee3e ad1b 253f
00000180: f278 17bf 6252 303f 941c dfbe 698e 66be
00000190: 67d6 ae3e d12d aa3e 73b9 ce3e 1a08 433d
000001a0: 60b6 123d a637 71be 535b 54bc a33e 223c
000001b0: 7d01 f2bc 2eef 943d e683 b63e 07c6 50be
000001c0: 9158 8d3e 2e49 d2be 80b3 08bf 9bf7 4d3d
000001d0: aab9 f4be a6af 7d3e 55ec 0abc 3552 d3be
000001e0: 7288 1dbf eb1d 24bf 04b1 673f 1d79 c5be
000001f0: d07b b3bc 0aa7 70be 60c3 00bf 7515 0bbf
0.068719395 0.75347066 0.16594972 -0.053866606 -0.96514255 0.23800522 -0.27736 -0.38579834
-0.11741543 -0.44347596 -0.8472196 0.7144064 -0.8200757 -0.5921302 -0.58211875 -0.5136494
-0.4482393 -0.30995992 -0.24646747 -0.4475402 0.33070824 0.5315687 0.311574 0.49000335
0.25882292 -0.1396525 0.5162892 -0.3487985 0.27348784 -1.0188264 0.55540574 -0.88595176
-0.15112719 -0.19598219 -0.14089878 -0.33720347 -0.27803144 0.38918912 0.615662 -0.18935096
-0.040424787 -0.22313042 0.18162924 0.0989424 -0.5324085 -0.16404293 0.5774661 -0.9648086
-0.8810912 -0.061228428 0.5163785 0.2073342 -0.054467823 -0.65254325 -0.42515838 0.055984702
0.74061817 -0.7045419 -0.4518602 0.53361505 0.046633817 -0.12474772 0.90414804 -0.12845244
0.05310695 0.8704417 -0.4689985 -0.037769645 0.3447953 -0.25797504 0.19301589 -0.2695234
-0.6505177 0.37301502 -0.12043862 0.1568773 -0.26049623 -0.20191072 0.737587 0.32745093
-0.5515032 -0.32776624 0.15301678 -0.5443844 -0.63775533 -0.24941473 0.2832565 -0.73518324
0.024408938 -0.567388 0.5903004 -0.5198806 -0.71898407 0.32731274 0.46593824 0.64495355
-0.5916892 0.68875706 -0.4357649 -0.22515263 0.3414795 0.3323808 0.40375862 0.047615148
0.035818458 -0.23556384 -0.0129612265 0.009902629 -0.029541725 0.072721824 0.35647506 -0.20388041
0.27606633 -0.41071457 -0.53398895 0.050284963 -0.477979 0.24774036 -0.0084791975 -0.41273656
-0.61536324 -0.6410815 0.9050448 -0.38568965 -0.021909624 -0.2350122 -0.5029812 -0.54329616

feature_layer.2.weight f4 [128, 128]
00000000: 99f8 a73e 554f 0d3f 19bb 783e 2b25 a5be
00000010: aef1 193e 3f19 ca3e 886b e43e 3612 af3e
00000020: 8345 a6bd 20f5 5f3d 138c 213e ed80 f5be
00000030: 69c8 183f 9a3a 863d 6b3e ce3d c1e9 bb3e
00000040: f9fd 703e 71d1 39b9 090e 4d3e 3531 58be
00000050: b557 21be f243 c73d 5c55 e23d 3f4e 823d
00000060: 7b84 c03e 5f7c 37be 4286 1cbf d089 8abf
00000070: 5a99 08bf 41af d1bb 5eaa a83e dc08 2f3e
00000080: b00e 2abd 703c 2ebf 6426 ebbc 998a cebe
00000090: 5cf4 f4bd 76bb 443f bebe e03e da72 e4be
000000a0: c774 20bd 997a 813e f001 b83e f243 4f3e
000000b0: 0a27 ba3e dfb9 603f ad26 233f c03c a2bf
000000c0: 6159 fa3e b3b3 0abf 7f29 2e3e 3da4 673e
000000d0: d80e 48be 816e d63d bf3d 39bd 7fb7 8c3d
000000e0: 5419 d73d 21d8 53be 1cc2 693e 5e5a 533e
000000f0: e557 c5be a4fa 303f d2f6 a73c 1644 fdbe
00000100: 523e c13e 6971 883e b810 82bc a5da 273e
00000110: 6c64 91be bd83 a3be efe1 52bb fd69 e2bd
00000120: f15f ea3e fb41 453e 779a 99bd 1662 343e
00000130: 5dfa 18bf cf34 84bd d3c8 913e 7fea afbf
00000140: 8fdc 3bbd 1bd4 38bf aadc d8be 82e6 b53d
00000150: c243 37be c268 4c3d fc19 4ebf 1fe0 ea3d
00000160: 108b c53e 8ba0 02c0 9d5f 483e eb93 fcbe
00000170: b40d 4abe 77c3 243e 67de 4f3e d524 28be
00000180: 7acb 34be e394 3f3e 3d9a 0d3f 16c0 fa3e
00000190: b7fb 08bf be6c e93e ffc2 d43d 9173 1bbf
000001a0: 9106 133f 22fc 053f 317e 373f dc95 8f3e
000001b0: e503 0e3e 27aa d6be 9d1d e83e cb5e 573f
000001c0: 8aec bbbe c8f1 993f 0f59 39be 697f 6a3e
000001d0: 2f9d be3e 5eb4 1f3e f5a3 51bf 1d9b 51be
000001e0: 78ca 283d 933a bd3d b35e 8cbe aa37 77be
000001f0: 897e dbbe d163 51be e6d2 9a3e 2197 a9be
00000200: f39b 093f 9612 a4bc dad1 b23e c363 9dbd
00000210: 2110 7dbf 645d 8ebf 10bd 53be 5e41 fd3e
00000220: abf8 0b3f 1d05 fbbe bbb5 e7bc d2cd c43e
00000230: 1d42 b03d 8596 6d3e 763c 8bbd 5fe6 143f
00000240: f717 4cbf 27d9 99be d8fb b2bd c356 d93e
00000250: 4f3c cf3c f362 203f 4c34 aabe 2c71 093e
00000260: 79eb b33e d56f 07bf b7dc a33e 5753 0d3f
00000270: 2bc1 13bd 1ee6 ed3c e88c 423f 5da8 d93e
00000280: 7eb4 22be 32b9 173f 13ef 5abe afde 873e
00000290: 0de5 c5be 9c98 003f b075 f83e ded0 cd3d
000002a0: a6e8 413e 078d 04be e412 393b 6ea4 2bbf
000002b0: cbfb bf3e 0b46 5f3f becf a03d cb9e a23e
000002c0: a796 213e 68cb 00bf e2e1 81bf a055 e1bf
000002d0: 87fa 523e 99ba a4be 13ea e0be 0bc4 33be
000002e0: 722c 9e3e 14b4 5e3f 24bb c5be 2505 873f
000002f0: ecba 133f a968 5d3e e5ab 15bf c901 0c3f
00000300: 7c5e 87be 57d3 00bf 1173 e63e c9f3 30bf
00000310: 7a8b 2ebd 0494 dd3e 9225 553e ee8f 943f
00000320: eeee 9ebe 5bca 12be 1574 52bb 1170 153f
00000330: 42c4 16be 8b5b a03d af01 243f a626 63be
00000340: d18c 9cbe c6e2 11bf 7d07 283e 1675 3a3f
00000350: 73d3 9d3e 2000 c13e 9acf 053f 8f67 163e
00000360: 366b 333f 761d ae3d d79b 95be 111b 13be
00000370: 463f 47bf 0af5 3d3d b6e9 613e c2cb 38bd
00000380: 97e9 3abf 7e66 0b3e 81ed 883f 75cb f43e
00000390: cb7a 72bd 2a38 d1be eab0 d4be a0a9 51bf
000003a0: 0133 d93c 06f8 89be 3a34 1c3f 132d 193f
000003b0: 77d0 873e 1b40 06be 39da 33b6 eeb9 5b3f
000003c0: c03a fa3c 54a6 3b3f 65c1 a93e f10e 083f
000003d0: e4a7 0bbf 9b3c 763c 4ff4 b73e 2dd5 6b3c
000003e0: a277 acbd 0ce2 dc3d 0610 b93d ca48 c93e
000003f0: 5549 26bf d8a2 6cbf e5c6 8c3e c000 79bd
0.32806852 0.55199176 0.24290122 -0.3225492 0.150336 0.39472386 0.4461329 0.3419358
-0.08118727 0.05467713 0.1577609 -0.47949925 0.596808 0.06554146 0.10070499 0.36701778
0.23534383 -0.00017720998 0.20024885 -0.21112521 -0.15756114 0.097297564 0.11051437 0.063625805
0.37601075 -0.17918538 -0.6114236 -1.0823307 -0.53358996 -0.0063990657 0.3294248 0.17093223
-0.041517913 -0.6806097 -0.02870483 -0.40340117 -0.1196067 0.7684854 0.43895525 -0.44618875
-0.039173868 0.25288847 0.35938978 0.20240763 0.3635791 0.87783617 0.6373089 -1.267479
0.48896316 -0.5418045 0.17008017 0.22621246 -0.19536912 0.10470296 -0.0452249 0.068709366
0.10502878 -0.20687915 0.22827953 0.20639941 -0.3854362 0.6913245 0.020503435 -0.49466008
0.3774286 0.26649025 -0.015877113 0.16392 -0.28396928 -0.31936446 -0.0032178124 -0.11055372
0.45776322 0.19263451 -0.07500165 0.17615542 -0.59757024 -0.06455385 0.2847353 -1.3743438
-0.045864638 -0.7219865 -0.42355853 0.088818565 -0.17896941 0.049904592 -0.805084 0.11468529
0.3858266 -2.0410488 0.19567724 -0.49331602 -0.1973179 0.16090189 0.20299684 -0.164203
-0.17655745 0.1870914 0.55313474 0.48974675 -0.53509086 0.45590776 0.10388755 -0.60723215
0.57431895 0.5233785 0.7167693 0.2804402 0.13868673 -0.4192669 0.45335093 0.8412902
-0.36703902 1.2026911 -0.1810038 0.22900166 0.37229297 0.15596148 -0.81890804 -0.20469327
0.041208714 0.09239688 -0.27416 -0.24142328 -0.42869976 -0.20448233 0.30239028 -0.33123115
0.53753585 -0.020028394 0.3492573 -0.07685044 -0.98852736 -1.112225 -0.2067759 0.49463934
0.5467631 -0.4902734 -0.028284898 0.38438278 0.0860636 0.2320195 -0.067986414 0.5816402
-0.7972407 -0.30048487 -0.08739442 0.42449006 0.025297312 0.62650985 -0.33243024 0.13422078
0.3514059 -0.5290502 0.3200433 0.5520529 -0.03607289 0.029040392 0.75996256 0.42511263
-0.15889165 0.5926696 -0.21380262 0.26537082 -0.38651314 0.50232863 0.48527288 0.10049604
0.18936405 -0.12944423 0.002824002 -0.67047775 0.3749679 0.8721625 0.07852124 0.31761774
0.15780126 -0.50310373 -1.0147059 -1.7604256 0.20603381 -0.32173613 -0.43928584 -0.17555253
0.30893284 0.8699353 -0.3861934 1.0548445 0.57707095 0.21621956 -0.58465415 0.54690224
-0.26439273 -0.5032248 0.45009664 -0.69121987 -0.042613484 0.4327699 0.20815113 1.1606424
-0.31041664 -0.14335005 -0.0032112647 0.58374125 -0.14723304 0.078299604 0.6406507 -0.22182712
-0.30576184 -0.56986654 0.16409107 0.7283491 0.30825385 0.37695408 0.522699 0.14687942
0.70085466 0.08501713 -0.2922046 -0.14365794 -0.7783092 0.046376266 0.2206181 -0.045116194
-0.7301268 0.13613316 1.069748 0.47811475 -0.059199136 -0.40863162 -0.41541225 -0.8189945
0.026513578 -0.2694704 0.6101719 0.598344 0.26526234 -0.13110392 -2.68001e-06 0.8583058
0.030545592 0.7330067 0.3315536 0.531478 -0.54553056 0.015029098 0.3592858 0.014394087
-0.08421256 0.107853025 0.09036259 0.39313346 -0.64955646 -0.9243598 0.27495494 -0.06079173

feature_layer.2.bias f4 [128]
00000000: 2b4f ca3e abc2 843e 9e08 b0bd c8e4 a33f
00000010: 4bcd 323f 1bb5 963f 0c75 f43e 30d4 e83b
00000020: 2f31 353e 91cf 5d3f 9253 963e c7f9 323f
00000030: 1197 a23f d5cf 9a3f 3963 b1bd 1d4a 81bd
00000040: 5a4d 223f 8778 933e 2df6 e4bc 10a0 733f
00000050: b13e 56bd d4c4 d13e 3e6b 283f 8e18 633f
00000060: f991 5a3f abaf 023f abbb 07be 2ee8 1e3f
00000070: b488 b13e 8ed5 fa3e 7f77 91bd bf8a 303f
00000080: 171d dd3c 80e8 a2bd 7cdb 0ebe 0e1b f93d
00000090: 8788 05bd 6fc4 063f 4b6a 3e3f 6cb3 1a3f
000000a0: 6d1d 363f 6ea6 003e e061 543f 3b58 fd3e
000000b0: 4c3b a5bd c9d2 c63e 2ce3 2a3e d19c 5a3f
000000c0: 5905 b73e 7c48 b03e ebda 303f e9a3 253f
000000d0: 159b 8b3e 90e8 a9bb 6aef 9ebd ee6e 683f
000000e0: 4d9e 463f 1797 463f 02ac 393d c1cc 9f3e
000000f0: 5940 343f 8fc5 553e 8fb4 5e3f 7f8c 0d3e
00000100: ce92 d7bd a367 963f 79c5 07be 956d a13c
00000110: 8042 543f e3a5 193f 465e be3e f991 163f
00000120: dd73 573f 1b3e de3d 3271 523f e637 fdbd
00000130: e4ec 9a3f a9de 203f 2e09 6bbe 8984 d73d
00000140: 340a 04bd fbac 003e 40f3 96bd 8e56 673f
00000150: 193f d8bd f41a 5e3f 920c dc3e b3ba 4e3f
00000160: 907a 303c 8853 513f 116e 4f3e a972 543f
00000170: 7dec c23d 2c55 4a3f 52bb 543f e762 6f3f
00000180: 78aa 953f ac79 533f a097 3e3f e28c c33e
00000190: a83a 18bd 620b 013f 93cd 0f3f ff04 fc3e
000001a0: b19f 113f 9831 093f a20e 263e a810 2d3e
000001b0: e40f 093f 2dba 8b3f f6e4 5d3e 9abe 30be
000001c0: e20e 543d 7b99 4b3f ec5e 6a3f 927d 693e
000001d0: 6343 483f 7741 433f 2c26 633f e46e 1b3f
000001e0: 2588 36bd a9ec 96bd a834 a03f 75af f53e
000001f0: a676 823f 3fff af3e a060 ae3f 0064 293f
0.39513525 0.2592977 -0.085953936 1.2804193 0.698445 1.1774019 0.4774555 0.007105373
0.17694543 0.86644846 0.29360634 0.6991238 1.2702352 1.2094675 -0.08661503 -0.06312964
0.6339928 0.28802893 -0.027949417 0.9516611 -0.05230588 0.4097048 0.6578864 0.8870934
0.85378987 0.510493 -0.13255183 0.6207303 0.3467461 0.48991054 -0.0710287 0.6896171
0.02699141 -0.07954502 -0.13950914 0.121633634 -0.032600906 0.52643484 0.7438094 0.60430026
0.7113865 0.12563488 0.82961845 0.49481377 -0.080679506 0.3883269 0.16688222 0.8539553
0.35746267 0.344303 0.6908404 0.6470323 0.27266756 -0.0051851943 -0.07760508 0.90794265
0.775853 0.77574295 0.045330055 0.31210902 0.70410687 0.20876144 0.8699426 0.13823126
-0.10526048 1.1750377 -0.13258924 0.019705573 0.8291397 0.6001875 0.371813 0.58816487
0.8416117 0.108516894 0.8220397 -0.123641774 1.2103543 0.6283975 -0.2295272 0.10523326
-0.032236293 0.12565987 -0.07370615 0.90366447 -0.1055891 0.8675988 0.4297834 0.8075363
0.010771409 0.81768084 0.20256831 0.8298746 0.09517763 0.7903621 0.8309833 0.9351029
1.1692648 0.8260753 0.7445011 0.38193423 -0.037165314 0.50407994 0.56173056 0.49222562
0.56884295 0.535913 0.1621652 0.16900885 0.5353987 1.0916191 0.21669373 -0.17260209
0.051772006 0.7953107 0.9155109 0.22801808 0.78227824 0.76271766 0.8873012 0.6071608
-0.04456343 -0.07369358 1.251607 0.47985426 1.0192459 0.34374425 1.3623238 0.6616821

value_stream.0.weight f4 [64, 128]
00000000: 1580 3b3d 75a1 9abd ad67 833d 2797 f5bc
00000010: 49b6 acbc 4ccf 5cbc f5b3 e23c 8b35 a83d
00000020: edb3 cd3c 9841 acbd fa37 1fbc 7122 463b
00000030: 3da8 7cbd e320 bf3c b099 633c 25a3 293d
00000040: 1342 afbb 8b30 8ebd e6fc 8cbd 72d1 c3bd
00000050: a1d5 4cbd 7029 673c eee3 a6bc 0f4c bbbc
00000060: 9312 e8bd b275 a9bc 5438 54bd 4fef a0bd
00000070: d3d6 d5bd 8d88 dabc 1453 17bd 9781 38bd
00000080: 70ed aabc a8da 93bd d5ce 1bbd 234a 97bd
00000090: 9260 813c f3e0 b1bc 083c cabd 0244 ef3c
000000a0: 9716 1fbd f4ce 233c 574d 113d c608 293d
000000b0: b7b4 25bd 0fa2 903b a468 583d ea98 79bd
000000c0: 4543 493d 388b a8bd bd83 b9bd c198 1d3d
000000d0: d60a a53d 5e00 973d 8fee 853d cf19 09bd
000000e0: b4a0 083d 07c2 4e3d 549b 1d3d e0c3 5e3d
000000f0: eace 91bd a6c9 fbba 8ac9 37bd f452 2c3d
00000100: 8e79 0f3d 66d5 d1bd f799 79bd 2a31 98bc
00000110: 1ba7 353d ad71 65bd 1ed5 71bd 874c 5f3d
00000120: 3197 bfbd 75dc f13b d53f f53b e343 513d
00000130: 0fa0 f9bd cdb6 78bc dfbd 35bd afaa bfbd
00000140: bdcc 51bd a7e6 a13c 7d47 f33c fd0f f63c
00000150: 9fbb 3abc aee5 b03c 9cfb 573d 1c02 683d
00000160: 55c8 a9bc c311 6abd 3828 acb9 5a5e 66bd
00000170: 671d 25bd 7bf0 b3bd 35d1 98bd 4ac1 ab3c
00000180: 091d 49bb 6017 2dbd aa8b 2f3d 157d 0fbd
00000190: e2eb 273d 1a71 67bc 3aca cb3c e892 fbbb
000001a0: 69b8 393d bd9a c3bd 5954 ab3d 1fdd a6bd
000001b0: 6f1e 133d a559 93bd 10c3 a7bd ff65 643d
000001c0: bad2 093d 150c f7bc 2f22 223b 5b21 a3bd
000001d0: e296 83bd 2a82 c73c 6c4a e0bd 30b5 65bd
000001e0: af48 b8bc 4552 42bd 611c f0bd bfc6 bbbd
000001f0: 0978 08bd d786 b3bd 5e7a 293d 24d8 853c
00000200: 6798 2cbe f36b f33d 32eb 883d 3d58 413e
00000210: 0276 063f 293b 4e3d 137f b43e 8f20 8fbf
00000220: 6b4d 3b3e 1255 563e 71d3 473e ed15 c13e
00000230: ce0f 893d 5c5f 263e ac81 2dbd 1e55 c93d
00000240: 8d4b 8abe 58ff 0f3f e5d6 34be 8b16 c13d
00000250: 0d4b 3fbf b96f 133c 7d6e 9c3e 1fc8 c33e
00000260: 42fb 4d3e 8ef7 e83d 80d0 e5be b478 3f3f
00000270: aca4 343f 5ce4 b63e e58c c3be 4a24 f4be
00000280: 6344 c4bc 2fee 3abf 1b3d f4be 1524 60bd
00000290: 6ddf e93d f5b4 513f cc4e 073f ad1f 7c3e
000002a0: 459b d63e 5638 a03e c711 c33e de9d b33e
000002b0: e610 dfbc fc9a aa3e 2a4e e83e 2ba2 063f
000002c0: 62cb 693e b1af 2e3e db0c c1bd bcda b33e
000002d0: b960 ba3e 6c12 f5be 2446 5abf 746d c13e
000002e0: c331 e43e 7036 483f 2fd5 0dbf 6b60 053e
000002f0: 3596 34bf 0de1 c43e 5cd7 0b3f 7e4b 75bd
00000300: c603 a6be 4ed8 643a a3f3 4ebe e5f2 00be
00000310: 768d f13e 9331 ed3e b2e4 e83e 2e19 fa3e
00000320: bfb2 513f e4b5 003e 62d7 313f 384a acbe
00000330: f550 4a3e f717 103f 99bf 2c3e 22e5 1a3f
00000340: 2b4b 62bf 93b7 5e3e d159 ad3d e805 3c3e
00000350: 54a5 983d f0b5 a53e 1af9 cdbd b9ba 1d3f
00000360: 7444 bebf 2a78 f23e d2ce 8a3d be37 bd3e
00000370: 2f91 34be f9ed 5f3e aa64 1f3f 9517 0d3f
00000380: bcf8 693e 0895 1c3e 7b04 983e 1faf 183e
00000390: a1e7 743f 00c1 f03e 4ecc a8bb 57cb 023e
000003a0: 7581 983e aa6c c63e 5b0a 5a3f ef0e e93e
000003b0: 5894 c63e e7c1 173f 1fc0 493d 3882 07bf
000003c0: ccc9 6a3f 5da4 913e cb1f ed3e 4d4e b03c
000003d0: 8e3e 803f d06c 1b3f ef20 cabd 6dc5 1e3f
000003e0: 1f21 bdbe e785 02bf 7a86 023e ff3f 633f
000003f0: e65d c1ba c7a9 1bbe 8c15 883e 4fef 55bf
0.045776445 -0.07550327 0.06416259 -0.029979302 -0.021083014 -0.013477158 0.0276737 0.082133375
0.02511021 -0.084109485 -0.009717936 0.003023293 -0.061683882 0.023331111 0.013891622 0.041415352
-0.005348453 -0.069428526 -0.06884174 -0.09561433 -0.05000842 0.014109001 -0.020372357 -0.022863416
-0.11331668 -0.020686004 -0.05181153 -0.078581445 -0.10441365 -0.02667644 -0.036944464 -0.04504546
-0.020865172 -0.0721944 -0.038039047 -0.07387187 0.015793119 -0.02171371 -0.09874731 0.029207233
-0.038839903 0.009998072 0.035474148 0.041268133 -0.040455546 0.00441385 0.052834168 -0.060936846
0.04913642 -0.08229679 -0.0905833 0.038475756 0.080587074 0.07373117 0.06539642 -0.03347188
0.033356383 0.050478008 0.03847821 0.05438602 -0.07119544 -0.0019209876 -0.044869937 0.042071298
0.035028033 -0.10245781 -0.060937848 -0.01857813 0.044348817 -0.056016613 -0.059041135 0.05451634
-0.09355009 0.007381017 0.007484416 0.051090132 -0.12188732 -0.015180302 -0.04437053 -0.09358727
-0.051220644 0.019763304 0.029697174 0.03003692 -0.011397271 0.021593895 0.052730188 0.056642637
-0.020725409 -0.057145845 -0.00032836362 -0.056242324 -0.040311243 -0.087861024 -0.07461778 0.02096619
-0.0030687472 -0.04225862 0.042857803 -0.035031397 0.04099644 -0.014126087 0.024876703 -0.0076774247
0.045341883 -0.09550998 0.083656974 -0.08147644 0.035917696 -0.07194833 -0.08191502 0.055761334
0.03364823 -0.030157128 0.0024739613 -0.079653464 -0.06425263 0.02435406 -0.10951695 -0.056080997
-0.022495596 -0.04744174 -0.11724163 -0.09168767 -0.0333176 -0.08765953 0.041376464 0.016338415
-0.16855012 0.11885824 0.06685485 0.18881316 0.52523816 0.05034939 0.352532 -1.1181811
0.18291251 0.20930889 0.19514252 0.3771204 0.06692468 0.16247314 -0.042359993 0.09830688
-0.27010766 0.56249 -0.17660101 0.09428128 -0.74723893 0.008998805 0.30553046 0.38238618
0.20115378 0.11375342 -0.44885635 0.74793553 0.7056377 0.357211 -0.38193431 -0.47683936
-0.02395839 -0.7301969 -0.4770287 -0.05472191 0.11419568 0.81916744 0.5285461 0.24621458
0.41915336 0.3129298 0.380995 0.3508138 -0.027229737 0.3332137 0.45372134 0.525912
0.2283149 0.17059208 -0.0942628 0.3512782 0.3640192 -0.47865617 -0.85263276 0.3777882
0.44569215 0.78208065 -0.5540342 0.13025062 -0.705417 0.3845295 0.5462549 -0.059886448
-0.32424754 0.00087297417 -0.20210128 -0.12592657 0.4717824 0.46326885 0.4548698 0.48847336
0.8191337 0.12569386 0.69469273 -0.33650374 0.19757445 0.5628657 0.16869964 0.6050588
-0.8839595 0.21749716 0.08464397 0.18361628 0.07453409 0.3236537 -0.10057278 0.6161304
-1.486464 0.47357303 0.06777729 0.3695659 -0.17633508 0.21868123 0.62262976 0.5511411
0.22848791 0.15291226 0.29690918 0.14910553 0.9566594 0.47022247 -0.005151308 0.1277288
0.29786268 0.3875478 0.8517205 0.45519206 0.38785052 0.59280246 0.049255487 -0.52933073
0.9171417 0.28445712 0.4631332 0.021521712 1.001909 0.6071291 -0.09869563 0.6202
-0.36939332 -0.5098557 0.12746611 0.88769525 -0.0014752715 -0.15201484 0.2657894 -0.8356828

value_stream.0.bias f4 [64]
00000000: 9202 9ebd 543a c73f 3476 443d 32c5 e5bd
00000010: 9327 af3e 0f4a 87bd bca4 113f a3bc bb3f
00000020: f9a2 00bd 3ed2 8cbd 5621 d43f 1ce4 d53f
00000030: 16d6 ca3f 0c00 c63f 993a b73f 5db8 d03f
00000040: e705 da3f bf2b 27bd 1730 223d d034 7a3d
00000050: d4e0 c43f d5d5 73bd 7c4d d63f 9757 c63f
00000060: 6745 c43f 0fbd 7dbd 5a7b c93f 189a 8cbd
00000070: 38bf c23f 580b d63f be40 a43a b8b4 d03f
00000080: 0f52 c13e 29a4 16bc 945a c43f 3f35 c83f
00000090: c528 da3f d3e3 32bd 2499 cc3f 6566 dfbd
000000a0: 2779 95bd aea2 8bbd 0722 d53f ffb4 70bd
000000b0: a467 c83f a6ab d53f fd3c d13f ab36 8cbd
000000c0: 1525 cc3f 5863 cfbd 32d6 c43f ab91 d73f
000000d0: ea61 cb3f 6413 bebd 12bc d03f a85e c93f
000000e0: 8222 7abb 6833 a0bd 963c 513c cd90 a0bd
000000f0: c883 c73f e570 d53f b20b adbc 9ea6 d63f
-0.07715334 1.5564675 0.04796429 -0.11219253 0.3420988 -0.066059224 0.5689199 1.4666942
-0.031405423 -0.06876038 1.6572673 1.6710238 1.5846584 1.5468764 1.4314758 1.6306263
1.7033051 -0.040813204 0.039596643 0.061085522 1.5381112 -0.059530098 1.6742396 1.549548
1.533368 -0.06194788 1.5740769 -0.068653286 1.5214605 1.6722212 0.0012531502 1.6305151
0.37757918 -0.009194412 1.5340142 1.564125 1.7043692 -0.0436743 1.5984235 -0.10908202
-0.072984986 -0.06818138 1.6651009 -0.05876636 1.5656629 1.6693008 1.6346737 -0.068463646
1.5948817 -0.1012637 1.5377867 1.6841329 1.5889256 -0.09281042 1.6307395 1.5732012
-0.003816754 -0.07822305 0.0127707925 -0.078401186 1.5587091 1.6675078 -0.02112374 1.6769598

value_stream.2.weight f4 [1, 64]
00000000: c29c 06bd e01a 8c3e a454 a6bd ae31 babd
00000010: d65c 0740 4229 99bd 2dd5 fc3f 78fc 883e
00000020: aec7 0ebc 10be b83b 5b9e b43e 8fc8 a63e
00000030: c213 8c3e 66cb 933e fccc 513e 8a5e b83e
00000040: be69 c33e 1b51 913c f981 9dbd e0ed d1bc
00000050: 1e0a ba3e baa3 483c 3720 b83e 191d b93e
00000060: 6395 9e3e 86cf 81bc da44 b33e 6739 dfbd
00000070: b7ec 953e 31ab b93e 9d2e 5cbd 4b41 b33e
00000080: 338a 9d3f 9262 84bc ee9e 9d3e ab84 913e
00000090: e493 bc3e b676 30bf 7dc1 923e 725d 413b
000000a0: 8629 e0bd ba65 afbd 812f b13e 4853 8ebd
000000b0: fbbc 8c3e 4d12 a23e 326d 993e 1414 c23d
000000c0: 9915 b73e c20e 5abd 0ea3 8d3e b5e4 bf3e
000000d0: 2fc1 9f3e 4f50 a3bd 3c73 a33e 829a a03e
000000e0: 6c00 c4bc b5a1 5ebd 2bf0 75bc 6658 55bd
000000f0: e0dd 9e3e 1d40 b83e fb29 8fbd 9e40 c03e
-0.03286434 0.27364254 -0.08121613 -0.09091507 2.1150413 -0.074785724 1.9752556 0.26755118
-0.0087146 0.0056378916 0.35277066 0.3257489 0.27358824 0.28866118 0.20488352 0.36009628
0.38166612 0.01773887 -0.07690806 -0.025626123 0.36335844 0.012246067 0.35962078 0.36155012
0.30973348 -0.015846025 0.35013467 -0.108996205 0.29282162 0.3626342 -0.05375539 0.35010752
1.23078 -0.016160283 0.30785316 0.2842153 0.36831582 -0.6893114 0.28663245 0.002950516
-0.1094542 -0.08564325 0.34606555 -0.069494784 0.2748793 0.31654587 0.29966122 0.09476486
0.35758665 -0.05323673 0.27663463 0.37479177 0.31202075 -0.07974302 0.31923854 0.3136788
-0.023925982 -0.054353435 -0.015010874 -0.052086256 0.31028652 0.35986415 -0.06990429 0.375493

advantage_stream.0.weight f4 [64, 128]
00000000: 7328 dabe 2b43 e7be fd38 70bd 1674 5d3e
00000010: 4e06 2bbf e52a 5f3e b8ab 0e3f 0135 a23f
00000020: 99c3 353f 2ced 5e3d 0d6c 433f cd40 1c3d
00000030: 1d5e 2c3e d531 763e 44c9 8cbd 401d 703f
00000040: 02d4 623f 6b52 3abf 1638 8cbe 19d5 f03d
00000050: ee68 ee3e cd88 1ebf 1d00 17bf d15d f63e
00000060: bdb7 013f d83f cfbf a375 7e3d 61c4 9fbd
00000070: 749a b33e 4f36 59be 405c d9bf 79ba 1e3e
00000080: c2b1 983f 4bcc d93d 9858 26be 269f 88bf
00000090: 5ded 52bf 0193 33bd 6818 ec3d 973c 00bb
000000a0: a00d b73c b836 3f3f a43e 13be 6f2d 223f
000000b0: e427 a4bd 9c21 0d3f 35b9 e03d 9724 8dbd
000000c0: e0d0 96bf f3ed 263f 695e 21bf 652a e3bd
000000d0: f723 843f bd5f 8abe 19f2 863e 515b c6be
000000e0: d8ab 1ebd 1bcc be3e ce42 e13f 6e82 82bf
000000f0: d5db dd3e 17d9 d33d 6558 0c3e 835f b63f
00000100: fa02 29bd 8ceb 923e 8094 fd3e aa03 923f
00000110: 6a21 ad3e e91b c83d 49f9 04bf 1847 d63e
00000120: a349 bb3e 1b98 ad3f eaec acbe dd5e 83bf
00000130: 7896 113e 29b9 063f 12a1 0abf b5c9 673f
00000140: 3a16 0040 e35d 223f 93f5 a33c 902e f7bd
00000150: bcd0 60bd 0ed9 193e d06b b0be 1a45 b83a
00000160: 04a1 923e c3b9 693c 172e 0ebf f0f0 293f
00000170: ef31 86bf 60cf 5b3e b8d6 b0bd df7b 763e
00000180: f31e 373e 194e c0bd 3a46 e33e cdb8 0fbf
00000190: 3b95 a03f d417 753f 7ac8 ae3f 865c 7f3f
000001a0: d5b6 08be 5807 d9be d4a0 e1be 4a5b 2b3f
000001b0: f220 f83e e6cb 563d 19e5 bcbe 93ec c63d
000001c0: ab59 94be a7e2 9c3e 9eb8 053e cafd 8a3f
000001d0: ee59 253f e0c7 11bf 046d 583e 47ef e2bc
000001e0: eebf c4be 7807 f6be 58b0 023e c264 793d
000001f0: 17c9 853e a937 02bf 3225 3f3e 9f99 d93e
00000200: 24a9 843d ba92 1b3d 86b1 3c3d 00d9 6abd
00000210: 8375 cb3b 4f38 d2bd a929 aa3c 7744 8a3d
00000220: f4ef b93c 1113 023d a269 d33c 7fc3 0cbc
00000230: 53db 843c 3f1c dfbd 2ea5 ebbc 6435 03bd
00000240: 798d b4bd fbf3 42bd 21d9 3fbd 3f66 093d
00000250: 6580 02bd a695 86bd d7a8 dfbd 491c 77bd
00000260: db88 2a3d 4a24 173d a8d0 3bbd 27a2 6cbd
00000270: 4556 85bd 76fd f13c deff ddbd 8423 df3c
00000280: 6af3 8fbd 16c5 5bbc aa45 2fbd 707a f83c
00000290: 1aa8 2239 2618 063d 4a17 c2bc 52b4 143b
000002a0: dcc8 bbbc 669b dabd b4e7 203d 623e 363d
000002b0: aa36 e83c cace c9bd 08e8 3e3d f359 d93b
000002c0: d211 c6bc a667 383c 49fd 383b c1a7 8b3d
000002d0: cd10 503d 348e bebc adaa 143d e9c7 35bd
000002e0: 2b3f a13c 9b43 4abd 3322 73bd e1e2 c3bd
000002f0: 8b25 c7bd ade3 f53c 6e15 55bd 86ea 08bc
00000300: 8280 d83c 00da 1b3d 264c 4cbd 07d4 3dbd
00000310: 809b 07be d58d b73c 7eaa f8ba 523a 82bd
00000320: ed14 f9bd d9dc 35bd 1e09 56bd 4870 033d
00000330: 54bb 4d3d 6055 39bc 024c 6bbd 4fe5 b73c
00000340: 86c9 abbd 0ab2 abbd 564a 243d ae93 97bd
00000350: b74e 9bbd ce49 a2bd b1e8 c3bd 98d6 efbd
00000360: ae33 a7bc a95a c03c 3c62 aebd be1a 13bd
00000370: db32 313d 38b5 07bb 0b10 673d 3b1e c439
00000380: 406d c5b8 e293 843c 0c09 063d 0bde 8abc
00000390: 043e a0bd 0413 bf3b d798 b3bd 6c63 c8bd
000003a0: 15a4 d0bd e2a3 773b 2897 eebd c929 93bd
000003b0: 94ed 13bd 386a 3e3d 1e84 e33c 22df adba
000003c0: 47db 8bbd 1088 2bbd b856 a6bc 4c1d 88bd
000003d0: 0855 e6bd f375 d1bc a5f5 eebd 6e41 9fbd
000003e0: 7da5 a6bb 3c3c 29bd 75a7 603d db9c 99bd
000003f0: b7cc c8bc 04fc 1dbb e1c4 b93b 20a3 ce3c
-0.42608985 -0.45168433 -0.0586481 0.21626315 -0.66806495 0.21793707 0.5573077 1.2672426
0.71001583 0.054425403 0.7633675 0.038147736 0.16832776 0.24042447 -0.06874326 0.9379463
0.8860475 -0.7278201 -0.2738654 0.11759395 0.4656443 -0.6192749 -0.5898455 0.4811845
0.5067099 -1.6191359 0.062123906 -0.07801128 0.35078776 -0.21212123 -1.6981277 0.15500821
1.1929247 0.10634669 -0.16244733 -1.0673568 -0.8239344 -0.043841366 0.115280926 -0.0019567364
0.022345364 0.7469287 -0.14379364 0.63350576 -0.08015421 0.5512941 0.109728254 -0.068917446
-1.1782494 0.6520683 -0.63034683 -0.110920705 1.0323476 -0.27026168 0.2635658 -0.38741544
-0.0387381 0.37265095 1.7598512 -1.0196054 0.4333178 0.10344141 0.13705595 1.4247898
-0.041262604 0.28695333 0.4952736 1.1407368 0.33814555 0.097709484 -0.5194288 0.41851115
0.36579618 1.3562044 -0.337745 -1.0263325 0.14217556 0.5262628 -0.54152024 0.90542156
2.0013566 0.6342451 0.02001456 -0.12069428 -0.054886565 0.15024206 -0.34457254 0.001405868
0.2863847 0.01426548 -0.5553908 0.66383266 -1.0483989 0.21465826 -0.08634704 0.2407069
0.178829 -0.09389896 0.44389516 -0.5614136 1.2545542 0.95739484 1.365493 0.99750555
-0.13350995 -0.42388415 -0.44068015 0.6693617 0.48462635 0.052440546 -0.36893538 0.09713092
-0.2897466 0.30641672 0.13058707 1.08587 0.64590347 -0.5694561 0.21135336 -0.027701987
-0.3842768 -0.48052573 0.12762582 0.060887106 0.26129982 -0.5086618 0.18666533 0.42500016
0.064775735 0.037981726 0.046067737 -0.057335854 0.006209077 -0.10264646 0.020771818 0.0675134
0.022697426 0.031756464 0.025807206 -0.008591532 0.016217863 -0.108940594 -0.028765287 -0.03203334
-0.08816046 -0.04759596 -0.04683793 0.033544775 -0.031860728 -0.06571512 -0.109208755 -0.06032971
0.04163442 0.036899842 -0.045853287 -0.057771828 -0.06510595 0.029539805 -0.108398184 0.027238615
-0.070288494 -0.013413688 -0.042791046 0.03033182 0.00015512147 0.032737873 -0.023692746 0.0022690487
-0.022922926 -0.10674171 0.03928347 0.044493087 0.028346378 -0.09853895 0.046608 0.0066330372
-0.02417842 0.01125518 0.0028227142 0.06819106 0.050797272 -0.023261167 0.03629558 -0.044380102
0.019683441 -0.04938088 -0.059358787 -0.09564758 -0.09723958 0.03001579 -0.05202239 -0.008356696
0.026428465 0.038049698 -0.04987731 -0.046344783 -0.13242912 0.022406498 -0.0018971709 -0.0635878
-0.121621944 -0.04440007 -0.05225479 0.0320895 0.05022748 -0.011311859 -0.057445534 0.02244821
-0.08388047 -0.08383568 0.040109955 -0.074012145 -0.07583373 -0.079242334 -0.09565867 -0.117108524
-0.020410385 0.02348073 -0.085148305 -0.035914175 0.04326139 -0.002070738 0.056411784 0.00037406557
-9.4140414e-05 0.016183797 0.03272347 -0.016951581 -0.078243285 0.0058311243 -0.08769386 -0.09784588
-0.10187546 0.003778689 -0.116499245 -0.07185704 -0.036115244 0.046488017 0.02777296 -0.0013265351
-0.06828933 -0.041877806 -0.020305023 -0.06646213 -0.11246687 -0.025568938 -0.11667947 -0.077761516
-0.0050856457 -0.04131721 0.0548472 -0.07500621 -0.024511678 -0.0024106512 0.0056692217 0.025224268

advantage_stream.0.bias f4 [64]
00000000: f804 bebc 767b d3bd c2c9 3b3d b01f ddbc
00000010: cf17 343d e75a 59bd 2e0e 9dbd 93d8 2cbe
00000020: 0720 dc3d ed4f dabd 6b28 023f 3422 153d
00000030: 9365 dcbd 9b8d e43a 4759 3d3e c4db 283d
00000040: c419 76bc 8482 d53d aa13 26bd 8c26 f03e
00000050: 1f0e 9b3b 36d0 d23c 551c c8bd 4bfd 533a
00000060: 18cc 87bd e6a8 e83e a8ab 91bd 4829 a63d
00000070: 6315 253b 178b 3c3d 4681 f63e ce13 b0bc
00000080: 5dc3 923e ad6a 103f 30f3 d9bd 4d20 75bd
00000090: 8979 f83e aafa 6d3b 340e f23b dfdb 70bd
000000a0: 9b13 8e3d 2c58 013f fa69 18be 2d7b 3dbd
000000b0: d041 473d fef7 953d d773 543d fc22 813c
000000c0: ae79 d9bd 8f68 1f3d 4a82 48bc eb0b f5bc
000000d0: a9cc 2a3d 9942 433e 10b7 58bd f18f 17bb
000000e0: 95ba 16be 69cc cc3d 4a84 37bd 30ec c2bd
000000f0: 8458 e03e 8f65 d43d 9fb2 033f 4285 3cbd
-0.023195729 -0.10326283 0.045846708 -0.026992649 0.04396802 -0.053065207 -0.0766872 -0.16879492
0.10748296 -0.10659776 0.5084292 0.03640957 -0.10761561 0.0017437221 0.18491088 0.04122521
-0.015020791 0.104252845 -0.040546097 0.4690441 0.004731908 0.025734048 -0.09771029 0.0008086755
-0.06630725 0.4544136 -0.07112819 0.081133425 0.002518975 0.046031084 0.48145503 -0.021493819
0.28664675 0.56412774 -0.106420875 -0.059845258 0.48530224 0.0036312738 0.007386947 -0.058803435
0.06937333 0.50525165 -0.14884177 -0.046260048 0.048646748 0.073226914 0.051868286 0.015763752
-0.10618912 0.038918074 -0.012238095 -0.02991291 0.041699085 0.19068374 -0.052908957 -0.0023126567
-0.14719613 0.09999926 -0.044803895 -0.095177054 0.43817532 0.10370933 0.5144443 -0.046025522

advantage_stream.2.weight f4 [2, 64]
00000000: f5c8 32bf f02d c8bc e56d bdbf 1286 1c3c
00000010: 56a4 9dbe ff9c a0bf 5ed2 4fbc e7dc 22bf
00000020: ffeb 4abf 228b afbd 8c0b 45c0 6f99 953f
00000030: 4076 b73d 86c9 cf3d f3fc 38c0 4fcf b3bc
00000040: 1e92 fdbc 9d5a e9be 7011 9abd f2f0 323f
00000050: 4f38 fc3c 4855 06be 5adf 32bd 6e0e 4bbc
00000060: e6d6 61bd 2d6b 113f 8ecc c0bd 9854 37bf
00000070: 303d d8bd f945 dc3c 4af5 303f 9a5e 2bbf
00000080: 3186 0ac0 f239 0b3f 3403 8cbc 98b2 31bf
00000090: 81f8 1f3f 11c0 423d 09b6 973d 14b6 b03d
000000a0: 5e56 e8bf aec1 453f f639 50bf bf4b 0abd
000000b0: 3db3 e13d 8a0c 9f3c a769 283f 258b 21bf
000000c0: 5022 abbd 4d72 cabd 0764 5abf 785a dfbc
000000d0: 5214 d5bd b00d 1ac0 9d3c c4bd 36c8 efbd
000000e0: d8e8 36bf afc4 92bf fe0b 453d 6bef f3bc
000000f0: 10fd 493f 0e12 98bf f086 423f c515 aebd
00000100: 5575 253f 4a08 4cba 4270 b53f edf3 073d
00000110: f0e9 953e 0006 ae3f 16d9 bb3d 836f 343f
00000120: a2d9 553f 5e9b 0d3e 2eaf 4140 a5c3 8dbf
00000130: 5488 b53d c684 8c3d 87b8 3440 b498 593b
00000140: 86bb a6bd 0cd8 e73e a7a7 e1bc 268a 30bf
00000150: 7a23 f53c 3337 4bbc 6a3e 643d a57e 1cbd
00000160: 4e17 b83d 7aef 1abf efeb 1abd 6181 5f3f
00000170: f2c6 8a3d 812d 963d 9b44 26bf 2897 5a3f
00000180: 58f8 0740 50c3 3dbf 6fc2 72bc f1ea 213f
00000190: 8591 13bf 9e12 babd f47a 4e3d 8da5 963d
000001a0: e771 e63f 1e0e 4fbf 6b63 2d3f f988 b7bd
000001b0: 1045 903d 3b9f ec3d 2555 15bf 4c80 3d3f
000001c0: f90e 85bc 6fa2 b33d 8c77 8a3f 11b5 87bd
000001d0: 2c26 a8bd 48e0 1d40 c39d 1cbc f8d4 a2bd
000001e0: dce9 4a3f 9be2 a53f 3dad 65bd cdbb 92bd
000001f0: 0f3b 15bf 5ea4 a63f e8ca 28bf cbd8 8fbd
-0.69837886 -0.024435967 -1.4799162 0.009553449 -0.3078944 -1.2547911 -0.012684433 -0.6361832
-0.7926635 -0.08571459 -3.0788298 1.1687449 0.08958101 0.101458594 -2.8904388 -0.021949438
-0.030953463 -0.45576945 -0.07522857 0.69898903 0.030788569 -0.1311847 -0.043670036 -0.012393577
-0.055136584 0.5680416 -0.09414016 -0.71613455 -0.105585456 0.026888834 0.6912428 -0.66941226
-2.1644404 0.5438529 -0.017091371 -0.6941314 0.6248856 0.04754645 0.07407767 0.08628479
-1.8151357 0.77248657 -0.8133844 -0.033763643 0.11020515 0.019415159 0.6578621 -0.6310294
-0.08356154 -0.098850824 -0.8530888 -0.027264819 -0.104042664 -2.4070854 -0.095818736 -0.11708109
-0.7144904 -1.1466273 0.04810714 -0.02977725 0.7890177 -1.188051 0.7598715 -0.08500246
0.6463216 -0.00077832176 1.4174883 0.03319161 0.29280043 1.3595581 0.09172265 0.70482653
0.83535206 0.13828799 3.0263171 -1.1075331 0.08863893 0.06861262 2.8237627 0.003320259
-0.08141236 0.45282018 -0.027545763 -0.689608 0.029924143 -0.012403297 0.055723585 -0.038206715
0.0898882 -0.6052166 -0.03782266 0.8730679 0.06776227 0.07332898 -0.64948434 0.85386896
2.1245327 -0.7412615 -0.014816864 0.6324912 -0.5764392 -0.09085582 0.050410226 0.07355795
1.800351 -0.80880916 0.67729825 -0.08961672 0.070444226 0.11553808 -0.58333045 0.7402389
-0.016242491 0.08771216 1.0817733 -0.066263326 -0.08210406 2.466814 -0.009559098 -0.07950777
0.7926309 1.295978 -0.056073416 -0.071647264 -0.5829324 1.3018911 -0.6593461 -0.07023772

advantage_stream.2.bias f4 [2]
00000000: 4cd0 b03d bf94 77be
0.086334795 -0.24177836
