dqn_agent_defect.pth (torch, 25645 bytes, 6 tensors)

net.0.weight f4 [64, 20]
00000000: bfd1 63bd 9a96 5d3e b13b 953e b923 d13d
00000010: 4752 b73e 3bc5 133d 2c52 233d 0673 6d3e
00000020: 84b5 893e 4dc3 d93e 4ba2 9a3d 9fbb 2ebe
00000030: 9979 393d 31be 223e 87be 693e c2c5 f4bd
00000040: 16e1 3a3e 8190 863c 4138 6d3e e1fe af3d
00000050: 3e5d 883d e5f5 373d 2318 e1bd 2a87 c73d
00000060: 443f 633e 59b0 953e 5141 a23e 5816 883e
00000070: b544 ce3e 3231 403e bc39 b4bd 6080 eabd
00000080: 381f dcbd f218 3ebe f803 fd3d 1d05 643e
00000090: 84f4 c63d 369a c33c 7641 b43e 61b6 0f3e
000000a0: 7f2b 4ebd bc3b 1bbd eada 133e 57a0 82bc
000000b0: 9643 253d eb08 c43d 0a2c f73d 0678 d83e
000000c0: 25fe 243e 2bdb 453e 5376 2e3e ae45 193e
000000d0: 05b2 ebbd 4237 debd 100b 91bc 4da3 793e
000000e0: 88fa 903d b67c a13e e2e1 8b3e 70d5 5a3e
000000f0: 34a6 31be 7cf5 583d ec43 9a3e 64ad b0bd
00000100: 50ad d23d 68ec c43e b566 583d c7ce a53e
00000110: 79ec 513e 9a88 b43e ed43 073c 44c0 f9bc
00000120: f82f c3bd 049f 91bc 43c7 70bd 06b9 353e
00000130: a877 a53e 7d20 ad3d 2d30 823d 7dc6 1a3c
00000140: cbd0 56be 2427 113c 9a23 1ebe dac5 423e
00000150: 473e 803e e179 bf3c a580 873e a2c8 cb3e
00000160: f79c f23d 12a4 d53e 3b65 173d fd3a 11be
00000170: 90fe 753e 1dbb 76bd 195c 923e eb6b 363d
00000180: 3c17 8c3c c965 743e ffb2 123e c737 963b
00000190: 8dfa ee3b 9eed 10be c0ef 9b3d 6041 ffbc
000001a0: c355 6fbd 5459 c03e 652f 913e 319f 9f3e
000001b0: 31cf 6e3d 974a 1c3e 5e08 0d3e be79 4e3e
000001c0: e9f6 6e3e f591 593e ac68 9e3e 2270 953e
000001d0: 168f 583b d97e 18bd 9336 5e3e 2069 703e
000001e0: 8ecd b0bd 7999 16be 9b54 843e dbc7 7a3e
000001f0: c4d5 bb3e e41c 2dbb 46bd 1c3e dc1e 413e
00000200: bb88 da3e 2889 9a3e 47ec 78be e4cc 303e
00000210: 375b 93bd 89be cb3d 8192 b2bd afa5 5e3e
00000220: 01be 943e 65e6 9c3d 167d 1f3e 301a 7e3e
00000230: bc48 b1be 985a 013e 8a5c bd3c 33fc 203e
00000240: e6ed 703e bbc5 e43d 5224 a83e 292a 963c
00000250: 34de 923e 2ce5 b63e 60d0 89be 478a 513d
00000260: 5b00 32be 833f ac3d 3274 833e 53f9 333e
00000270: b580 f03d 744c dc3d 0ce2 813e c9e5 a33d
00000280: 82f6 4bbe fc89 82bc 3726 01bd e94f c83d
00000290: a0b9 c53d 5141 3dbc b221 e73d 0b2e 873e
000002a0: 1cb6 ca3e c94c f43d 9be1 b0be c68b 27bd
000002b0: ceca 22be 53ec 96bd c50d 2b3e 36c7 62be
000002c0: 46b2 013e 8ed7 053d 71ba f23d 03d4 c4bd
000002d0: 9721 ebbd 9973 e7bd 98ed 183e a3ad d43d
000002e0: f4b1 343e 7b4f 7d3e 9b73 503e ba97 6f3e
000002f0: 5ec4 b93d 373e 863d 0597 a5be e04a 18bc
00000300: 1ed3 7d3d 5955 23be 8454 993c 92fe 08be
00000310: 5312 d7bd aba3 513e ecb0 db3d 0320 4f3e
00000320: 0922 9abe 0b2e e7bd e44c 1b3e 10d8 793d
00000330: aa7b 83bd 888b 9e3e d475 203e 77a0 a13d
00000340: 0927 853e c627 e63e 7008 77bd c899 7d3d
00000350: 7ea4 cbbd f33a 1fbe 670a 0c3e 9bcf 5dbd
00000360: cc10 82bd 867b 09bd 90b7 5e3e 2dd1 403e
00000370: 50b1 493d ad32 283e bb78 823e 54b2 553e
00000380: b719 6e3e 41e9 a13d 8710 883e 44b7 883e
00000390: a2b0 f73e a94d 133e 97f9 e03b a28f 4ebc
000003a0: b4a9 13be 42cf 70bd 3c69 5abd f3ca 823e
000003b0: 7755 3d3e 5161 73bd 54ed b33c edd0 c33e
000003c0: 432a aabd 28ed 57be 8f58 0ebc dad2 8f3e
000003d0: 3509 913e 2f61 c53e ba17 8f3d 428a ed3e
000003e0: 71bc b93e 739c bd3e aa11 98bd 8706 a3bc
000003f0: 5624 06be ed9a f43d ce64 2ebc 50ab 673c
-0.05561995 0.21639481 0.29147103 0.10211892 0.3580496 0.036076766 0.039873287 0.23188409
0.26896298 0.42531815 0.07550486 -0.1706376 0.04528198 0.15892865 0.22826587 -0.11951782
0.18249926 0.016426327 0.2316599 0.08593536 0.066584095 0.044912238 -0.10990932 0.097425774
0.22192103 0.29236105 0.31690457 0.26579547 0.40286794 0.18768767 -0.088000745 -0.11450267
-0.10748142 -0.18564203 0.123542726 0.22267576 0.097146064 0.023877244 0.35206193 0.14034416
-0.05033445 -0.037898764 0.14438978 -0.015945597 0.040347658 0.095720135 0.12068947 0.4227907
0.16112573 0.19321887 0.17037325 0.14967987 -0.11508564 -0.10850383 -0.01770547 0.243787
0.07079035 0.3154046 0.27320772 0.21370482 -0.17348558 0.052968487 0.30129945 -0.08626822
0.10286963 0.38461614 0.052832324 0.3238432 0.20500363 0.3526047 0.008255941 -0.030487187
-0.09530634 -0.01777602 -0.05878378 0.17746362 0.32317853 0.08453462 0.06356845 0.009446737
-0.20978086 0.0088594295 -0.15443268 0.19020787 0.25047514 0.023373546 0.26465335 0.39801508
0.11846345 0.41726738 0.036961775 -0.14182658 0.24022889 -0.06023704 0.2858589 0.044536512
0.017100923 0.23866953 0.14326094 0.004584286 0.0072930516 -0.14153144 0.07614088 -0.031159103
-0.058431398 0.37568152 0.28356472 0.3117614 0.058303062 0.15262829 0.13772723 0.20163628
0.23336376 0.21247084 0.30939233 0.29187113 0.003304427 -0.037230346 0.21700506 0.23477602
-0.086329564 -0.14706983 0.258458 0.24490301 0.36686528 -0.0026414925 0.15306577 0.18859428
0.42682442 0.30182767 -0.24308883 0.1726566 -0.07195132 0.09948451 -0.0871935 0.21742891
0.2905121 0.07661132 0.1557506 0.24814677 -0.34625804 0.12632215 0.023115415 0.15721206
0.23528251 0.111705266 0.3284021 0.01833065 0.28685153 0.3572172 -0.2691679 0.051157262
-0.17382948 0.084105514 0.25674587 0.17575578 0.11743299 0.1075677 0.25367773 0.080028124
-0.19918254 -0.015934937 -0.031530585 0.09780867 0.09654546 -0.011551217 0.11285724 0.26402315
0.39592063 0.11928708 -0.34547123 -0.040904783 -0.15897676 -0.07369294 0.16704471 -0.22146305
0.12665662 0.032676272 0.11851967 -0.096107505 -0.11481016 -0.113013454 0.14934385 0.10384681
0.17646009 0.2473735 0.203566 0.23397723 0.09070657 0.06554835 -0.3234178 -0.009295195
0.061968915 -0.15950526 0.018717058 -0.13378361 -0.10501542 0.2047259 0.107271045 0.20227055
-0.30104092 -0.11288079 0.1516605 0.06099707 -0.064200714 0.3096583 0.15669948 0.07891934
0.26006344 0.4495222 -0.06031078 0.061914235 -0.09943484 -0.15549831 0.13675843 -0.054153066
-0.0635086 -0.033565067 0.21749711 0.18829794 0.049241364 0.16425581 0.25482735 0.20868808
0.23251997 0.07905818 0.2657511 0.2670232 0.48376948 0.14385094 0.006865691 -0.012607487
-0.14420205 -0.058791406 -0.053323016 0.25545463 0.18489634 -0.05941898 0.021963753 0.38245335
-0.08308842 -0.21086562 -0.008688106 0.28090554 0.28327337 0.38550708 0.06986947 0.46394545
0.36276582 0.37033424 -0.07425244 -0.019900573 -0.13099799 0.11943612 -0.010644151 0.014139965

net.0.bias f4 [64]
00000000: ca9d 6f3e bf35 cb3e 1595 0f3f 2396 093f
00000010: 4435 f73e 7f9d 9f3e a0cb 343e e6e8 f93e
00000020: 3356 ab3e eac0 623e d4f7 5e3e 8e15 643e
00000030: 83b3 bb3e dfe3 533e c6b9 9d3e 9b7d 973e
00000040: ae71 143f 25b4 7c3e 312c 453e 840e 6f3e
00000050: 73d4 0a3f 7b7e b23e c41a ec3e 59de 053f
00000060: 5bfe 8c3e 8118 b23e 1f1a cf3e aec3 0d3f
00000070: a9f0 e33e 969a b83e 4a0b 033f ffea 263e
00000080: 269a 983e 50b9 913e 47f5 e93e 438d ba3e
00000090: eac3 033f c900 123f c45e 513e edc4 723e
000000a0: 82ee cc3e 33b5 0c3f d0b6 093f 82a6 793e
000000b0: d4bc 6d3e be6d 423e c521 b83e ae69 993e
000000c0: 5cbe ff3e 8261 053f 5691 e03e eb97 023f
000000d0: ecb8 bb3e 7c53 bd3e c5d7 eb3e 21e3 ed3e
000000e0: f943 013f 9ea8 cc3e 4622 b53e bf46 353e
000000f0: 77fa b23e d1cd 473e d955 923e 77f6 5c3e
0.23400036 0.39689443 0.56086856 0.53744715 0.48282826 0.31174847 0.17655802 0.488105
0.33464202 0.22143903 0.21774226 0.22273847 0.36660394 0.20692395 0.30805796 0.29588017
0.5798596 0.24678095 0.19255139 0.23345381 0.5423042 0.34862122 0.4611417 0.522924
0.27537808 0.3478432 0.40449616 0.5537671 0.44519547 0.3605544 0.511891 0.16300581
0.29805106 0.28461695 0.45694944 0.364359 0.51470816 0.5703245 0.20446306 0.23707934
0.40025717 0.5496399 0.53794575 0.24379924 0.23216563 0.18987176 0.35963264 0.2996344
0.4994992 0.5210191 0.43860883 0.5101306 0.36664522 0.36977756 0.46063057 0.46462348
0.50494343 0.39972395 0.3537771 0.17702769 0.34956715 0.19512106 0.28581122 0.21578394

net.2.weight f4 [64, 64]
00000000: 1577 323e c025 5d3e 6f61 6b3e 5ae8 5e3e
00000010: 1510 8d3e 58cf 8b3e 54a4 063e 68ed 2a3e
00000020: 6c75 323e 2ab8 753e 3989 113e a4e7 723e
00000030: f94b 9c3e 1ddd e53d ed53 8a3e 6eaf 063e
00000040: 976a 6a3e c343 f43d 6b44 433e 4a66 8a3e
00000050: a005 903e 812f 393e 8675 7a3e cf30 f23d
00000060: ee33 853e 6c69 ed3d e7e7 133e c332 833d
00000070: c5dc 8f3d a6c2 933e b39e 0d3e e67f 633e
00000080: bce9 533d 0c50 853e 77b8 033e e053 6e3e
00000090: b24c 8c3e 63af 283e e0c7 833e 5ec0 c13d
000000a0: 7f5d c43e 65ba 863e 733d 5e3e 0475 ac3e
000000b0: 430e 0b3e c0f7 e43d eea5 d53d a61b 943e
000000c0: 2e84 fb3d ef3f e43d 1191 633e 2a46 9e3d
000000d0: 530f 8b3e 52da 9c3e 9b9a 813e 3979 d23d
000000e0: 3f17 213e 4222 0a3e c81f c13d 1777 d93d
000000f0: d143 c93d 4764 ab3d 9f2c eb3d 2755 843e
00000100: 2322 723e 1de2 763e 3cd2 ad3d bfcd a33e
00000110: 6646 743e 3d25 493e ad47 823e d8be b73d
00000120: 74f8 963e a95c 413e f57e 883e 71cf ee3d
00000130: fe32 693e be2b 8c3d b05d 2f3e 11ec c93d
00000140: 7892 a43e 8539 8e3e 17ed c03d 51d4 8a3e
00000150: b2c9 1f3e ac8a a33e 72d7 873e 588a 763e
00000160: fb0d 763d acd6 183e 016a ad3e f207 393e
00000170: c227 633e a25a 613e 4d90 9f3e 6ad5 2f3e
00000180: 191d 5f3e 039a 9d3e 45cc 063e f059 943d
00000190: 9f30 ef3d b97f 1d3e d181 5a3d f50d e13d
000001a0: b956 d93e eba0 213e a302 8f3e 1e83 413e
000001b0: 8304 393e 6da2 883e fcbf 363e 0b5d 853e
000001c0: 73e5 913e eeac 363e 5283 4a3e f1f9 493e
000001d0: 0caa a33e 9695 a73e fbbb 4a3e 27a3 643e
000001e0: f005 413e 8031 773e 4054 783e 536a 933e
000001f0: 7118 923e 9ad4 8e3d a287 633e c551 853e
00000200: 557d 833d e304 8bbd 985b 953d 9a79 d0bd
00000210: f22c bd3d 8d3e a8bd 07d1 11bd 4f16 cfb9
00000220: dcbe 23bc 9b78 95bd 71ae 96bc caad 683d
00000230: f076 643d f80c e0bd 697c 0dbc 34e1 783d
00000240: edae c9bd 1e03 ae3d a18b c03d 099d cebd
00000250: 3e2e b9bd ad9f f8bd 9bc1 03be e24c 8c3d
00000260: 2b8f 203d b80f 07be ea68 23bd f7dc e6bd
00000270: bb01 ae3d a453 7ebd 7eb3 163d 904c a7bd
00000280: 8258 d8bc 7f07 973c f896 16bd eab0 173c
00000290: aa8e 8bbd aab5 88bd 3695 abbc 1156 a3bd
000002a0: b29c 883d 68ae 04bd 2d88 8d3d 2856 7a3d
000002b0: 67bb 31bd 9785 b1bd ec5c 79bd 8937 26bd
000002c0: 7a68 52bc 491f ccbd 27e1 cc3d 8d12 bf3c
000002d0: 1404 50ba 4d4f f5bd 1f0c 39bd c73f 6dbb
000002e0: 4448 f8bd 95e3 37bc 5926 eabd 1b8c 3ebd
000002f0: 9d47 ce3d 52c7 be3d 8e7e 0c3b abec e43d
00000300: 1d7c 3f3e 21b1 323e fc6f 343e 2fff 343d
00000310: 290c 103d 7794 8c3d 4dec f03d bd8f 263e
00000320: 0828 b33d d93e 443c 30e0 c53c 244e 0c3e
00000330: a4c7 1b3e 83dd 343e 7662 5f3e 3558 1b3e
00000340: 6377 5f3d 29b6 113e cdec b73d b92c 3b3e
00000350: b729 853e e5d2 133e d197 503e 9331 7b3e
00000360: aae9 673e ee94 6d3d e41f ab3d dd4e 0f3e
00000370: f596 143d 54b1 283d 794d df3c ae6a 363a
00000380: 2946 1b3e 706b 3e3e 7c7b 7a3d 93c6 ca3c
00000390: 7421 243e 44af 393e 2ae8 5b3e 8eb2 673e
000003a0: 5a81 973e 1346 463e 9d54 543e b08a 133e
000003b0: be2e 4c3e 1b46 653d 9315 fb3d 5011 003c
000003c0: ab80 713e 8885 193d a406 263b 3fc0 fd3d
000003d0: 67e7 793e 5deb b63d e76e b03d aacb 313e
000003e0: b279 133e ef94 673e 8b2e 5a3e 4fef 853d
000003f0: 3f7b ae3d 2fc9 353c 1a1d b53d 157c 993e
0.17428239 0.21596432 0.22986387 0.21768323 0.27551332 0.27306628 0.13148624 0.16692126
0.17427605 0.23996034 0.14212503 0.23721176 0.30526713 0.11223815 0.27017155 0.13152859
0.22892223 0.11926987 0.19069068 0.27031165 0.28129292 0.18084528 0.24458894 0.11825716
0.26016182 0.11592373 0.14443932 0.064061664 0.0702453 0.28859442 0.1383007 0.22216758
0.05173658 0.26037633 0.12863337 0.23274183 0.27402264 0.16473155 0.2573843 0.09460519
0.38352582 0.26314083 0.21703129 0.33683026 0.13579659 0.11180067 0.10432039 0.28927344
0.12281071 0.11145007 0.22223307 0.077282265 0.2716013 0.30635315 0.25313267 0.10277028
0.15731524 0.13489631 0.0942989 0.10618418 0.09827388 0.08368736 0.1148312 0.25846216
0.23645835 0.24109693 0.08487365 0.3199291 0.2385498 0.19643112 0.2544531 0.089719474
0.2948643 0.18883003 0.2665936 0.1166066 0.22773358 0.06844281 0.17125583 0.09859479
0.32142997 0.2777826 0.09420221 0.2711511 0.15604284 0.31941736 0.2653156 0.24076211
0.060071927 0.14925641 0.33869937 0.18069437 0.22183135 0.2200723 0.3116478 0.17171255
0.21788444 0.30781564 0.1316386 0.07243717 0.116791956 0.15380754 0.05334646 0.1098899
0.42448977 0.15784042 0.279317 0.18897673 0.18068127 0.2668642 0.17846674 0.2604755
0.28495368 0.17839405 0.19776657 0.19724251 0.31965673 0.32731313 0.19798271 0.22327863
0.18849921 0.24139977 0.24250889 0.28792056 0.28534272 0.06974144 0.22219709 0.26038948
0.064203896 -0.067880414 0.07292861 -0.10179444 0.09237088 -0.082150556 -0.035599735 -0.00039498738
-0.009994235 -0.07298394 -0.018393727 0.056806363 0.05577749 -0.109399736 -0.008635619 0.060761645
-0.098478176 0.08496688 0.09401632 -0.10088546 -0.09042023 -0.12139831 -0.12866823 0.06850602
0.039199036 -0.1318959 -0.039894976 -0.112726144 0.08496424 -0.062091485 0.03679227 -0.081689
-0.026409391 0.018436192 -0.03676507 0.009258488 -0.068143204 -0.06675275 -0.020945173 -0.079754
0.06670512 -0.03239289 0.06910739 0.06111732 -0.04339161 -0.08668058 -0.060879633 -0.040580306
-0.012842292 -0.09966905 0.10003882 0.023324275 -0.0007935178 -0.11978016 -0.045177575 -0.0036201344
-0.121231586 -0.011223693 -0.114330955 -0.046520334 0.10072253 0.09315361 0.0021437737 0.11177953
0.18699689 0.17450382 0.17620844 0.044188675 0.035167847 0.06864255 0.11763821 0.1626577
0.0874787 0.011977875 0.024154752 0.13701683 0.15212876 0.17662625 0.21814904 0.15170367
0.054557215 0.14229645 0.08980713 0.18278779 0.26008388 0.14435919 0.20370413 0.2453063
0.2264773 0.05800336 0.08355692 0.13994928 0.036276776 0.04118474 0.027258622 0.00069586455
0.15163483 0.18595672 0.06115292 0.02475289 0.16028386 0.18133265 0.21475282 0.22626707
0.29590875 0.19362669 0.20735402 0.14408374 0.19939706 0.05597506 0.12259974 0.007816628
0.23584239 0.03748086 0.0025333548 0.12390184 0.24404679 0.08931611 0.08614903 0.17362848
0.14401892 0.22615407 0.21306817 0.06539785 0.08519601 0.011095329 0.08843441 0.2997748

net.2.bias f4 [64]
00000000: 5b15 b33e f1a3 d93e 0c1b 203d fa32 ae3e
00000010: 209f 6c3d e880 593e 7a75 b23e c64c a13e
00000020: 276e d53e 6fa0 703c ba05 cb3e b79a da3e
00000030: 5d05 b93e 8171 62bc 9c1e 953e 0926 db3e
00000040: ae74 12be 5f1d 453e 6d28 de3c 201f 753e
00000050: 648d b13e 7dbb d03e 2721 963d 2be3 a63e
00000060: 710a 923e 788c 28bd 1860 aa3e b2ac dd3e
00000070: 7a73 8ebd 44fd c33e cdb3 373d 12c7 aebd
00000080: adab d9bd 3bc7 bc3e 5889 ce3e deda d43e
00000090: 4d6d 30bb e02d b63d 7b0d 5dbd dc36 d93d
000000a0: cce3 b13e f2e9 8c3e 2968 c53e cdb1 d63e
000000b0: 9d30 d63c cfc2 d53e 16d9 a13e debe b73d
000000c0: 9389 cd3e 267f 8f3e 97cf 13be 3832 9d3e
000000d0: 08e5 11be 9a49 5cbd 4784 2d3e 87cd a23e
000000e0: 5376 06bd eec3 e03e d0b3 ad3e a729 8b3c
000000f0: 67db 853e d1a6 883d b926 ab3c ee51 9abd
0.3497723 0.4250789 0.039088294 0.34023267 0.05776894 0.2124058 0.34855253 0.31503886
0.41685602 0.014686688 0.39652807 0.42696163 0.36136904 -0.013821007 0.29124916 0.42802456
-0.14302322 0.19249485 0.027118886 0.23937654 0.34678185 0.40768042 0.07330542 0.3259519
0.2852359 -0.041149586 0.3327644 0.4329582 -0.06955619 0.38279164 0.044849206 -0.085340634
-0.10628448 0.3687075 0.4033916 0.41573232 -0.0026920617 0.08895469 -0.053967934 0.10606167
0.34744108 0.27522236 0.3855603 0.41932526 0.026146227 0.4175019 0.31610936 0.08971952
0.40144023 0.28026694 -0.14434658 0.30702376 -0.14247525 -0.05378113 0.16944991 0.3179743
-0.032827687 0.43899482 0.3392625 0.016987635 0.26143953 0.06672443 0.020892488 -0.07535158

net.4.weight f4 [2, 64]
00000000: c53a 7f3e 8ed4 573e dcc2 113d c29f eb3d
00000010: 084a cebd 51b1 a63e e6d8 9f3e 38d5 813e
00000020: 4487 263e 8594 b9bd bce7 0a3e d25c 893e
00000030: ba68 453e c4cf 95bd cf2e 773e 46e0 9f3e
00000040: f1b2 a2bd 0bf1 903e f9a8 d5bd 1d91 853e
00000050: 5506 7a3e 24f0 473e 53fe 113e 3c4c ee3c
00000060: 814f 8f3e 6818 41bc edf4 ac3e 20ea 9f3e
00000070: cf7c 9ebd 5055 243e 554f abbb 84f1 593c
00000080: 61ed b5bd af0a ef3d 8a8e 9b3e 5da7 513e
00000090: 9d91 cebc 654e edbc 4df0 7abd 0411 30bc
000000a0: 4b08 933e adb3 7d3e 9897 8a3e 29d9 513e
000000b0: 0854 20bd 0d0b 683e ba61 903e e11f 43bd
000000c0: 2a6b 3d3e 3d75 a73e ce10 f93b 1367 913e
000000d0: 126c b7bd b890 943c d777 b13e eef8 963e
000000e0: 73f8 643d d4f1 893e 8602 7d3e 8308 55bb
000000f0: 501b d83d 5511 663d 610a 52bd fb50 d3bd
00000100: 5ec6 7d3e 1c18 8b3e f9ea 8bbd 9057 433e
00000110: d476 86bd 5b20 493e e98a 8f3e 0547 603e
00000120: 6b72 5c3e a547 61bd bc9d a93e 300d 643e
00000130: aaf0 973e bc75 a93c fec7 8b3e 448d 853e
00000140: a508 3ebd 8d27 d83d 7c4d 6b3d d021 9d3e
00000150: b57c a13e c878 2c3e 79ba a9bd 4dad 003e
00000160: 6e5b 593e 4af3 bfbd 04a0 903e ea19 963e
00000170: 1535 c43c 90f1 b03e d8c7 dfbc d2f6 43bd
00000180: ad11 eabd 4c8a a83e 0b8a 8e3e 5618 913e
00000190: 9bde 97bd 51d9 26bc ea4c c43d 3ab5 d1bd
000001a0: 176f 653e 8ff7 413e d0a1 493e b4e4 843e
000001b0: d220 25bd fe07 a13e 50ef 613e 757b 46bd
000001c0: 7a97 863e 58b1 a93e 0baf 2ebd 41e5 683e
000001d0: 3864 c2bd f690 bdbd c349 153e ae03 a83e
000001e0: e4ef bfbc 27e5 4f3e f783 843e fcaa 2ebd
000001f0: fad0 9d3e 6878 8fbd 0313 febb 46e2 01bd
0.24924763 0.21077177 0.035586223 0.11505081 -0.10072714 0.32557157 0.31220168 0.25357985
0.16262537 -0.09061531 0.13564962 0.2682863 0.19278231 -0.07315019 0.2413895 0.31225795
-0.079442866 0.283089 -0.104326196 0.26087275 0.24416478 0.195252 0.14257173 0.029089086
0.27990344 -0.011785604 0.33780614 0.3123331 -0.07738649 0.16048169 -0.005227963 0.013302211
-0.08883167 0.116719596 0.30382186 0.20474 -0.025215918 -0.028968045 -0.061264325 -0.010746244
0.28717265 0.24775572 0.27068782 0.20492996 -0.03914264 0.22660466 0.2819956 -0.047637824
0.18497911 0.32706633 0.00760088 0.28398952 -0.0895616 0.018135414 0.34661743 0.29486793
0.055901002 0.26942313 0.24707994 -0.0032506294 0.105520844 0.056168873 -0.05127943 -0.1031818
0.24782702 0.27166831 -0.06831927 0.19076371 -0.065656334 0.19641249 0.28035668 0.21902092
0.21528022 -0.054999966 0.33128154 0.22270656 0.296758 0.020686023 0.2730102 0.2608434
-0.046394963 0.10554419 0.05744694 0.3068986 0.31540456 0.1684295 -0.0828752 0.12566109
0.21226284 -0.093725756 0.28247082 0.29316646 0.023951093 0.34559298 -0.027316973 -0.047842808
-0.11429153 0.32918012 0.27839693 0.2833888 -0.074155055 -0.010183648 0.09584983 -0.10239644
0.22405659 0.18942092 0.19690633 0.25955737 -0.040314503 0.3145141 0.22063947 -0.04845758
0.26287442 0.33143115 -0.042647403 0.22743703 -0.094917715 -0.09256165 0.14578919 0.32815307
-0.023429818 0.20302258 0.2588193 -0.042643532 0.308235 -0.070053875 -0.007753731 -0.03170993

net.4.bias f4 [2]
00000000: 8d5d 3dbd f964 e33e
-0.046231795 0.44412974
