dqn_agent_coop.pth (torch, 25645 bytes, 6 tensors)

net.0.weight f4 [64, 20]
-0.69102526 -0.1681454 0.26988146 0.61753607 0.57652617 1.0255891 0.91222626 1.0942179
1.3211676 1.4984558 -0.030151155 0.3592571 0.37173653 0.31527063 0.86193824 0.8976185
0.98410857 1.0733664 1.0851508 1.1754278 -0.97563285 -0.2586046 0.0002953129 0.2663547
0.71878564 0.64512306 0.9811638 0.9894302 1.43796 1.632752 -0.18648882 0.1325081
0.3869263 0.4039021 0.6834351 0.5426159 0.99068725 1.0250834 1.2233951 1.3181473
-1.0361389 -0.4019395 0.10052599 0.30367434 0.43445045 0.6325643 1.0469669 0.9062378
1.0448146 1.5177737 -0.012091092 0.22717753 0.4175071 0.5320612 0.78816456 0.5569751
0.8864515 1.0759025 0.96255803 1.1401188 -1.0225892 -0.5272402 -0.15340489 0.2570071
0.764949 1.0862994 0.84844255 0.93580395 1.3846127 1.6707141 -0.21732013 0.35371193
0.5964126 0.57081634 0.9255032 0.66902834 1.0655657 0.7822132 1.0743951 0.9864143
-0.98504496 -0.24684048 -0.041548785 0.25100577 0.4444653 1.0396953 1.2018443 1.0839633
1.1908895 1.349528 -0.00014213054 0.21795364 0.58632064 0.54046094 0.94248575 0.8597734
1.0263649 1.1604036 0.96221316 0.93817633 -0.9573229 -0.16003838 0.11205692 0.20359753
0.61194617 0.84011996 0.9318324 0.90448135 1.24687 1.3071717 -0.3779505 0.31591922
0.35710382 0.37002337 0.83675146 0.6772527 0.8811023 0.96449935 1.0692396 0.9354898
-0.83378327 -0.58018196 0.29618618 0.2125769 0.6606527 1.0603431 1.131343 1.2123224
1.1494255 1.7098855 -0.21362418 0.0772172 0.4799611 0.5449961 0.9665316 0.7648423
0.9862215 0.8071196 1.3807971 1.2317207 -1.0691905 -0.36952552 0.21861638 0.3436603
0.4556642 0.7455027 1.1761298 0.93988544 1.0812225 1.4160897 0.010163266 -0.06290595
0.60755044 0.6545037 0.9686409 0.46797547 0.8671228 0.89855087 1.3339581 0.98911244
-0.8242855 -0.4114665 0.19557266 0.4042006 0.66037995 1.0432278 1.0337619 1.1721778
1.3996387 1.7396849 -0.3021832 0.3534074 0.6435984 0.58394766 0.9779897 0.73557085
1.0960634 1.0982751 1.1697385 1.2391458 -0.9526205 -0.6527224 -0.13462386 0.50930053
0.4186421 1.0575159 1.0478569 1.0936903 1.3798165 1.4812888 -0.053117134 0.062029935
0.18614848 0.2553055 0.8462073 0.7595131 0.982151 0.80590475 1.002252 1.22775
-0.7181063 -0.13747743 -0.12056798 0.5181988 0.7102684 0.7268708 1.0784179 1.0189553
1.0941999 1.7402236 0.034767948 0.07647896 0.6777381 0.66462946 0.936794 0.5313485
0.7850348 0.80386025 1.1625402 1.0751725 -0.89372224 -0.5260882 0.023868069 0.3802092
0.6072042 0.93315357 1.0917118 1.2351847 0.9962922 1.4975263 -0.34064955 0.35294232
0.6098731 0.5466206 0.9253214 0.59699714 0.857992 1.1693097 1.0960983 0.9218
-0.89526683 -0.4967794 -0.17572428 0.3827579 0.7476726 0.6226749 0.7954052 1.2232665
1.3980453 1.5720314 -0.11716325 0.05701219 0.3203344 0.4746032 0.7645763 0.8566132
00000000: 08e7 30bf 4f2e 2cbe e72d 8a3e d816 1e3f
00000010: 3897 133f 8146 833f a987 693f 550f 8c3f
00000020: 051c a93f 66cd bf3f 8eff f6bc 8cf0 b73e
00000030: 4054 be3e 276b a13e fca7 5c3f 53ca 653f
00000040: 8aee 7b3f 1264 893f 39e6 8a3f 6b74 963f
00000050: 13c3 79bf d267 84be 3ad4 9a39 a55f 883e
00000060: 5602 383f c926 253f 8d2d 7b3f 4c4b 7d3f
00000070: 130f b83f 04fe d03f edf6 3ebe 34b0 073e
00000080: 341b c63e 42cc ce3e 9af5 2e3f e0e8 0a3f
00000090: ae9d 7d3f ef35 833f 3698 9c3f 0db9 a83f
000000a0: 33a0 84bf 04cb cdbe 92e0 cd3d 347b 9b3e
000000b0: 4a70 de3e bcef 213f 0303 863f 33ff 673f
000000c0: 7cbc 853f 6946 c23f b719 46bc 3aa1 683e
000000d0: 7ec3 d53e 2a35 083f 27c5 493f ec95 0e3f
000000e0: 7cee 623f 2cb7 893f 346a 763f 6aef 913f
000000f0: 34e4 82bf 37f9 06bf 2c16 1dbe 6f96 833e
00000100: b3d3 433f dc0b 8b3f 8833 593f d990 6f3f
00000110: fd3a b13f f6d9 d53f 2b89 5ebe bb19 b53e
00000120: 7fae 183f 0521 123f c7ed 6c3f 7145 2b3f
00000130: 7564 883f 203f 483f c785 893f a685 7c3f
00000140: e82b 7cbf c0c3 7cbe 0f2f 2abd d483 803e
00000150: f590 e33e bc14 853f 09d6 993f 4fbf 8a3f
00000160: 116f 983f 55bd ac3f e008 15b9 3d2f 5f3e
00000170: 1c19 163f a65b 0a3f bf46 713f 1c1a 5c3f
00000180: ed5f 833f 1b88 943f 9a53 763f 532c 703f
00000190: 1d13 75bf 1ae1 23be 197e e53d df7b 503e
000001a0: 81a8 1c3f 1a12 573f 918c 6e3f 178c 673f
000001b0: 7099 9f3f 6751 a73f ba82 c1be 2ac0 a13e
000001c0: 50d6 b63e b473 bd3e 5835 563f 6f60 2d3f
000001d0: ec8f 613f 6ee9 763f d8dc 883f 427c 6f3f
000001e0: d272 55bf ce86 14bf b7a5 973e c2ad 593e
000001f0: 8920 293f 53b9 873f d9cf 903f 612d 9b3f
00000200: 6020 933f 87dd da3f 4cc0 5abe 0d24 9e3d
00000210: 76bd f53e dd84 0b3f 9d6e 773f b4cc 433f
00000220: 0379 7c3f 649f 4e3f f6bd b03f 06a9 9d3f
00000230: 3cdb 88bf 7332 bdbe f9dc 5f3e 3ef4 af3e
00000240: d14c e93e 44d9 3e3f 6c8b 963f 559c 703f
00000250: 8065 8a3f 6d42 b53f d483 263c d6d4 80bd
00000260: 6d88 1b3f 8e8d 273f daf8 773f 7b9a ef3e
00000270: c3fb 5d3f 6e07 663f 24bf aa3f 7936 7d3f
00000280: 6004 53bf bdab d2be 3344 483e 62f3 ce3e
00000290: a90e 293f 7d88 853f 4f52 843f ec09 963f
000002a0: 5c27 b33f ffad de3f c2b7 9abe d1f1 b43e
000002b0: ddc2 243f 987d 153f 885d 7a3f 5f4e 3c3f
000002c0: ce4b 8c3f 4794 8c3f feb9 953f 549c 9e3f
000002d0: f0de 73bf d118 27bf d6da 09be 8561 023f
000002e0: 4258 d63e ae5c 873f 2d20 863f 0bfe 8b3f
000002f0: d49d b03f df9a bd3f 5a91 59bd 1a13 7e3d
00000300: b59d 3e3e 67b7 823e 0ba1 583f 736f 423f
00000310: 3f6e 7b3f c64f 4e3f cb49 803f e926 9d3f
00000320: d1d5 37bf e2c6 0cbe 58ec f6bd ada8 043f
00000330: 26d4 353f 3414 3a3f 9909 8a3f 216d 823f
00000340: be0e 8c3f a6bf de3f d668 0e3d 00a1 9c3d
00000350: 3e80 2d3f 2825 2a3f bbd1 6f3f 7506 083f
00000360: 0af8 483f c9c9 4d3f 1ece 943f 419f 893f
00000370: fbca 64bf b7ad 06bf f886 c33c c8aa c23e
00000380: bc71 1b3f 27e3 6e3f 36bd 8b3f 881a 9e3f
00000390: 010d 7f3f f1ae bf3f 9e69 aebe dbb4 b43e
000003a0: a520 1c3f 54ef 0b3f dde1 6c3f ced4 183f
000003b0: 5da5 5b3f f1ab 953f f34c 8c3f 16fb 6b3f
000003c0: 3530 65bf df59 febe 11f1 33be d8f8 c33e
000003d0: 7967 3f3f 9f67 1f3f ad9f 4b3f ff93 9c3f
000003e0: 26f3 b23f 5338 c93f 49f3 efbd 9d85 693d
000003f0: df02 a43e 31ff f23e 46bb 433f 014b 5b3f

net.0.bias f4 [64]
1.6023091 1.3258423 1.3264698 1.4149495 1.5220249 1.7563819 1.4184016 1.3247756
1.4887618 1.4069197 1.5196309 1.3091542 1.541299 1.6532505 1.4310291 1.6971221
1.6623884 1.4377294 1.3160506 1.711948 1.6662141 1.5684842 1.3310189 1.6368468
1.3464584 1.3438053 1.4140894 1.473632 1.4806904 1.3100455 1.3667254 1.7643284
1.4095645 1.5050288 1.5289028 -0.28678176 1.3723818 1.4017224 1.5058467 1.6801312
1.6031817 1.7821119 1.7227557 1.6275434 1.6588749 1.765721 1.3746357 1.4424018
1.6906002 1.6715091 1.5765096 1.5310919 1.3842071 1.6403689 1.4119705 1.3334258
1.2761893 1.6626931 1.4861165 1.5836816 1.6440154 1.659109 1.5303341 1.6219708
00000000: 7718 cd3f 33b5 a93f c3c9 a93f 111d b53f
00000010: b6d1 c23f 1fd1 e03f 2f8e b53f 3f92 a93f
00000020: bf8f be3f f215 b43f 4483 c23f 5d92 a73f
00000030: 4949 c53f b69d d33f f62b b73f 4c3b d93f
00000040: 25c9 d43f 8407 b83f 5974 a83f 1d21 db3f
00000050: 8146 d53f 17c4 c83f d45e aa3f 3284 d13f
00000060: c058 ac3f d001 ac3f e200 b53f f99f bc3f
00000070: 4387 bd3f 92af a73f dcf0 ae3f 83d5 e13f
00000080: 9c6c b43f c9a4 c03f 16b3 c33f 0fd5 92be
00000090: 35aa af3f a46b b33f 96bf c03f 8a0e d73f
000000a0: 0f35 cd3f 3e1c e43f 4283 dc3f 5853 d03f
000000b0: 0356 d43f 2503 e23f 10f4 af3f 9fa0 b83f
000000c0: 9665 d83f 03f4 d53f 11cb c93f d2fa c33f
000000d0: b32d b13f 9cf7 d13f 73bb b43f b2ad aa3f
000000e0: 2c5a a33f 21d3 d43f 1139 be3f 14b6 ca3f
000000f0: 196f d23f af5d d43f fde1 c33f bd9c cf3f

net.2.weight f4 [64, 64]
0.9502306 1.0825247 0.9502426 0.8481134 0.97262967 1.0580747 0.94085824 0.95889044
0.9678726 0.92632234 1.0137446 0.99400014 1.0834469 0.8478342 1.0686109 0.8264812
0.8432583 0.97661304 0.92559993 1.0499657 0.9247501 0.93090844 0.8978343 0.9053869
0.9722645 0.9519098 1.0645691 0.86335695 1.0452908 0.8986213 1.0472112 0.8346402
0.9677476 0.9937825 1.0477171 -0.07261372 0.84905314 1.0024707 0.97046626 1.0365546
0.9436987 1.0099925 0.96150607 0.8426837 0.86390877 0.90069455 0.8920228 0.8619628
1.005502 0.9792376 0.9840702 0.99735016 1.0468357 1.0220177 1.01856 0.9942524
0.9203951 0.90133744 0.94236356 0.86774576 1.0252972 1.0643699 0.880906 1.0584631
0.06550386 -0.08080833 -0.04416912 -0.14838289 0.05392352 -0.0893694 -0.10585101 0.007557843
-0.14824164 -0.04222375 0.0048518074 -0.07133624 -0.07237354 -0.09882337 -0.012626999 -0.034641147
0.015570561 -0.07662194 0.02606752 0.07387405 0.02107349 -0.036687188 -0.14998348 0.039533887
0.027180972 0.0512731 -0.015728101 -0.14704952 -0.081797935 -0.15284519 -0.06547458 0.055973876
0.019479858 -0.051211067 -0.07565183 -0.15284504 -0.12218816 -0.15041174 -0.04096594 -0.03907056
0.015012144 -0.095648624 -0.10559375 0.0655741 -0.09917391 -0.025570238 -0.07867594 0.035575114
-0.1132307 0.012646008 -0.072614536 -0.15763462 -0.1496075 -0.106041856 -0.15361862 0.09681785
-0.10622006 -0.06815253 -0.08998901 0.08117237 0.03146378 -0.110273205 -0.051508095 -0.029996607
0.87018466 1.003198 0.88468057 1.0713948 0.87744427 0.95241034 0.9231247 0.97976536
0.8946006 0.9453003 0.85630465 0.99480456 1.0165993 0.8868677 1.0552366 0.95107085
0.89231014 0.9430503 1.0368272 0.87840515 0.91199553 0.84512293 0.95840913 1.0232054
0.97387356 1.0431597 0.9988101 0.98009205 0.86639357 0.92588115 0.9033965 0.9234899
0.86294943 0.89017 0.94397426 0.14633581 1.0406256 1.0696826 1.0281521 0.8787822
0.8945985 0.9909098 0.99999493 0.91615874 0.9192713 0.9182052 0.8462318 1.060396
0.9365013 0.93848705 0.85536337 0.98207116 0.9023985 0.9751217 0.89135015 0.98185515
1.0867908 1.0083159 0.9350436 1.0934587 0.9813715 0.9934432 0.87949324 0.98269856
0.8715235 0.9499423 0.863503 0.90255964 0.87001574 0.96349734 1.0899936 1.0304391
1.0315351 1.0808802 1.0088543 0.9168937 0.9491004 0.8544968 1.0178049 1.0732571
0.9930951 1.0524113 0.85533744 1.013024 0.8561171 1.03153 0.9336511 0.91710377
1.0742404 1.0079153 1.0375311 0.8114722 0.9614638 0.91912943 0.9025736 1.0283443
1.0651076 0.8687445 0.83080024 -0.023591217 1.07012 1.0707899 0.8748709 0.82813644
0.9403 0.9946259 0.90509117 0.9497825 0.8687639 0.96861255 0.9123159 0.9856724
0.99523956 0.8800132 0.89018506 0.9986215 0.931351 1.1005034 1.0213141 0.98658633
1.0108055 0.892069 1.081866 1.0623617 0.8794738 0.94113916 0.92986715 0.90325165
00000000: 5042 733f 2b90 8a3f 1943 733f f61d 593f
00000010: 42fe 783f fe6e 873f 16dc 703f d879 753f
00000020: 80c6 773f 7623 6d3f 62c2 813f cb76 7e3f
00000030: 63ae 8a3f aa0b 593f 3ec8 883f 4694 533f
00000040: c7df 573f 5003 7a3f 1ef4 6c3f 4765 863f
00000050: 6cbc 6c3f 0450 6e3f 78d8 653f 70c7 673f
00000060: 54e6 783f 5cb0 733f cd43 883f f604 5d3f
00000070: 17cc 853f 0c0c 663f 040b 863f fbaa 553f
00000080: 4fbe 773f 8868 7e3f 981b 863f 81b6 94bd
00000090: 8c5b 593f f650 803f 7a70 783f d2ad 843f
000000a0: 3d96 713f 6f47 813f 4325 763f 1eba 573f
000000b0: 2029 5d3f eb93 663f 9b5b 643f 98a9 5c3f
000000c0: 4ab4 803f 51af 7a3f 06ec 7b3f 5752 7f3f
000000d0: b6fe 853f 7ad1 823f 2d60 823f 5387 7e3f
000000e0: 039f 6b3f 0dbe 663f bd3e 713f 9624 5e3f
000000f0: f03c 833f 463d 883f 0e83 613f b87b 873f
00000100: e326 863d d67e a5bd aeea 34bd aff1 17be
00000110: e9de 5c3d 4e07 b7bd 6ac8 d8bd c8a7 f73b
00000120: a8cc 17be d0f2 2cbd e9fb 9e3b bc18 92bd
00000130: 9438 94bd e863 cabd 79e1 4ebc e0e3 0dbd
00000140: ab1b 7f3c f7eb 9cbd 8d8b d53c 474b 973d
00000150: 50a2 ac3c 4e45 16bd 4595 19be 49ee 213d
00000160: a1aa de3c be03 523d 38d8 80bc 2694 16be
00000170: ad85 a7bd 7383 1cbe 8917 86bd dd44 653d
00000180: 3994 9f3c b2c2 51bd 59ef 9abd 6983 1cbe
00000190: c93d fabd 8905 1abe e7cb 27bd 7408 20bd
000001a0: 7ff5 753c 6de3 c3bd 8941 d8bd b74b 863d
000001b0: b11b cbbd ad78 d1bc da20 a1bd 36b7 113d
000001c0: 7fe5 e7bd 3431 4f3c eeb6 94bd f86a 21be
000001d0: b532 19be 792c d9bd 334e 1dbe 7048 c63d
000001e0: e789 d9bd 8e93 8bbd 284c b8bd b33d a63d
000001f0: 2ae0 003d ebd6 e1bd 27fa 52bd 72bb f5bc
00000200: 6cc4 5e3f cb68 803f 6d7a 623f 7723 893f
00000210: 30a0 603f 2ad1 733f e651 6c3f e7d1 7a3f
00000220: 8b04 653f 33ff 713f c836 5b3f 83ab 7e3f
00000230: ed1f 823f c309 633f fe11 873f 6179 733f
00000240: 706e 643f bf6b 713f c1b6 843f 29df 603f
00000250: 8a78 693f fa59 583f 4d5a 753f 65f8 823f
00000260: c74f 793f 4286 853f 05b2 7f3f 50e7 7a3f
00000270: f8cb 5d3f 8c06 6d3f fe44 673f d669 6c3f
00000280: 41ea 5c3f 2ee2 633f 4ca8 713f 0ed9 153e
00000290: 3833 853f 5ceb 883f 7d9a 833f dff7 603f
000002a0: 6804 653f 44ac 7d3f abff 7f3f 6189 6a3f
000002b0: 5d55 6b3f 7f0f 6b3f a6a2 583f 0ebb 873f
000002c0: 8dbe 6f3f b040 703f 18f9 5a3f 0469 7b3f
000002d0: 9703 673f 93a1 793f 862f 643f dc5a 7b3f
000002e0: f61b 8b3f 7f10 813f 045f 6f3f 74f6 8b3f
000002f0: 2a3b 7b3f 4b52 7e3f 7826 613f 2292 7b3f
00000300: 2a1c 5f3f 6b2f 733f 880e 5d3f 260e 673f
00000310: 5ab9 5e3f c3a7 763f e984 8b3f 6ee5 833f
00000320: 5809 843f 485a 8a3f 2322 813f 8cb9 6a3f
00000330: 3ef8 723f 4dc0 5a3f 6e47 823f 7d60 893f
00000340: 7b3b 7e3f 6ab5 863f 65f7 5a3f c5aa 813f
00000350: 7e2a 5b3f 2d09 843f c203 6f3f 50c7 6a3f
00000360: b680 893f 5e03 813f d2cd 843f a4bc 4f3f
00000370: 7e22 763f 114c 6b3f 100f 673f c9a0 833f
00000380: 7255 883f 0a66 5e3f 53af 543f 5e42 c1bc
00000390: b1f9 883f a50f 893f 8af7 5f3f c000 543f
000003a0: 80b7 703f ce9f 7e3f 0eb4 673f f224 733f
000003b0: 5067 5e3f fef6 773f 898d 693f 0755 7c3f
000003c0: 05c8 7e3f 8c48 613f 2be3 633f a9a5 7f3f
000003d0: 056d 6e3f 4cdd 8c3f 6cba 823f ec90 7c3f
000003e0: 1362 813f a25e 643f 967a 8a3f 78fb 873f
000003f0: 3225 613f 7fee 703f c60b 6e3f 803b 673f

net.2.bias f4 [64]
1.0887059 -0.05280378 1.263054 1.1839151 0.0158531 -0.051683817 -0.07584602 1.1791611
1.380496 1.2347652 1.1216161 1.158108 1.2946776 1.1768771 1.1994066 1.1528407
1.3322713 1.1658521 1.1054488 -0.14258844 1.1738062 1.1954848 -0.047470637 1.1804142
-0.066432826 1.3065523 0.027954178 1.2444457 1.347064 -0.00025322172 1.3192596 1.1357648
1.1608055 1.1940866 1.150535 0.028979357 1.2117388 1.2114108 1.0837878 -0.087748945
-0.0583828 1.2709897 1.1473314 1.1382895 -0.08858807 -0.0117932735 1.0637927 1.3933586
-0.07339092 -0.071258314 -0.104459986 1.177212 1.2584586 -0.12896958 0.0075467178 1.231863
1.1572454 -0.049350955 1.253361 -0.060544416 0.029030718 -0.014128201 1.0745102 0.035053145
00000000: b75a 8b3f c748 58bd c1ab a13f 888a 973f
00000010: 5cde 813c 69b2 53bd 2855 9bbd c0ee 963f
00000020: 18b4 b03f c90c 9e3f 1e91 8f3f e23c 943f
00000030: ffb7 a53f e9a3 963f 2886 993f 4990 933f
00000040: de87 aa3f a43a 953f 597f 8d3f b402 12be
00000050: 483f 963f a505 993f 9270 42bd d017 973f
00000060: ef0d 88bd 1b3d a73f 2900 e53c ff49 9f3f
00000070: 986c ac3f d8c2 84b9 80dd a83f be60 913f
00000080: 4695 943f d4d7 983f bb44 933f 1e66 ed3c
00000090: 421a 9b3f 820f 9b3f 8fb9 8a3f b8b5 b3bd
000000a0: ce22 6fbd caaf a23f c1db 923f 78b3 913f
000000b0: a96d b5bd 9338 41bc 5c2a 883f 9359 b23f
000000c0: fb4d 96bd e1ef 91bd 1eef d5bd e2ae 963f
000000d0: 2c15 a13f 9a10 04be 754a f73b b0ad 9d3f
000000e0: 9e20 943f 3a24 4abd 226e a03f 6cfd 77bd
000000f0: d4d1 ed3c f879 67bc 8d89 893f e393 0f3d

net.4.weight f4 [2, 64]
1.1566044 -0.03813413 1.0610197 1.0331502 0.013640377 0.11530683 0.036995232 0.9921503
1.0200235 1.0703764 1.0514978 0.99363637 0.9937646 1.0086186 1.1267625 1.0572228
0.9844508 1.1869738 1.0126057 -0.08047476 1.1122762 0.9725031 -0.060465284 1.0600548
0.025673075 0.9961221 -0.044519894 0.9885652 1.0192646 -0.0005795378 1.0457975 1.1717076
1.0499218 0.9485749 1.1549019 0.0406596 0.99068725 0.96664906 1.0861328 -0.046892464
0.058293212 1.0251523 1.0553955 1.0610683 -0.0053868424 0.07207108 1.1341975 0.97438025
-0.013827235 -0.026011512 -0.0334464 1.1702185 1.1385145 0.08942084 -0.050642386 1.148298
1.1339844 -0.04198522 1.055772 0.042837407 -0.043846074 0.003779951 1.1343569 -0.026982054
1.1286948 -0.017326891 1.1020428 1.0451393 -0.060653504 -0.08156083 0.03306122 1.0504862
1.1007425 1.1217822 1.067666 1.0117375 1.1072477 1.1277412 1.0581735 1.0637155
1.0908158 1.0708392 1.057281 0.016273377 0.9818029 0.97914696 -0.008180291 1.1096991
-0.080427654 1.0523192 0.024341652 1.1286901 1.0813965 0.025513824 1.0664197 1.0129286
1.0695589 1.0598977 0.9769822 -0.029184738 0.9198558 1.0951034 1.019228 -0.025750875
-0.057549953 1.0501183 1.0071526 1.102113 0.043653887 0.0012301549 0.9760343 1.1371615
-0.085287005 0.018651007 -0.057040036 1.0378349 1.0341661 0.008377007 -0.017524336 1.047721
0.9782612 0.0231244 1.0239464 -0.03962329 0.037271105 0.053531315 1.0000548 0.012179965
00000000: 9d0b 943f 8932 1cbd 7ecf 873f 443e 843f
00000010: e37b 5f3c fd25 ec3d 5088 173d 90fd 7d3f
00000020: 2190 823f 1802 893f 7b97 863f f45e 7e3f
00000030: 5b67 7e3f 6a1a 813f c139 903f 1453 873f
00000040: f804 7c3f c2ee 973f 109d 813f f3cf a4bd
00000050: 115f 8e3f f7f5 783f 72aa 77bd e0af 873f
00000060: 5750 d23c dc01 7f3f 7e5a 36bd 9c12 7d3f
00000070: 4377 823f 20ec 17ba b1dc 853f 84fa 953f
00000080: d663 863f ced5 723f d3d3 933f ae8a 263d
00000090: ae9d 7d3f 5076 773f 6606 8b3f 5012 40bd
000000a0: ddc4 6e3d 3138 833f 3317 873f 16d1 873f
000000b0: 1c84 b0bb 019a 933d 622d 913f fc70 793f
000000c0: a18b 62bc 1816 d5bc 18ff 08bd b8c9 953f
000000d0: d8ba 913f 4622 b73d 646e 4fbd 6efb 923f
000000e0: 6726 913f b2f8 2bbd 8923 873f 4776 2f3d
000000f0: f197 33bd 0eb9 773b 9b32 913f 7809 ddbc
00000100: 1279 903f 20f1 8dbc bd0f 8d3f 20c7 853f
00000110: cf6f 78bd 5d09 a7bd 346b 073d 5576 863f
00000120: 21e5 8c3f 8f96 8f3f 48a9 883f 9d80 813f
00000130: 4bba 8d3f d359 903f 3b72 873f d427 883f
00000140: da9f 8b3f 4211 893f fc54 873f bf4f 853c
00000150: 6f57 7b3f 60a9 7a3f a106 06bc 9f0a 8e3f
00000160: 41b7 a4bd 65b2 863f 2568 c73c eb78 903f
00000170: 336b 8a3f 5e02 d13c 7180 883f a5a7 813f
00000180: 4ee7 883f baaa 873f 811b 7a3f d514 efbc
00000190: ab7b 6b3f 592c 8c3f 1076 823f 80f3 d2bc
000001a0: 80b9 6bbd 476a 863f 60ea 803f 0a12 8d3f
000001b0: 6bce 323d 263d a13a 62dd 793f 828e 913f
000001c0: f4aa aebd ffc9 983c d0a2 69bd c6d7 843f
000001d0: 8e5f 843f b73f 093c 328f 8fbc b91b 863f
000001e0: 536f 7a3f 626f bd3c ad10 833f 084c 22bd
000001f0: 96a9 183d a743 5b3d cc01 803f 7a8e 473c

net.4.bias f4 [2]
-0.07049801 1.4034516
00000000: 4361 90bd 4da4 b33f
