dqn_agent_cl1.pth (torch, 25645 bytes, 6 tensors)

net.0.weight f4 [64, 20]
000000 3f f2 27 bf a7 4c c4 3e 0f 16 9d 3f 89 e5 c9 3f
       -0.65604013 0.3833973 1.2272357 1.5773174
000010 a9 93 fb 3f 9e df fd 3f df f7 16 40 df 27 24 40
       1.9654437 1.9833868 2.3588789 2.5649335
000020 38 8d 2f 40 32 57 55 40 22 ed 85 bd c4 28 62 3f
       2.7429943 3.333447 -0.0653937 0.88343453
000030 81 76 b7 3f 6f 4e bc 3f 32 fd ed 3f 5e 22 d1 3f
       1.433304 1.4711436 1.8592894 1.6338613
000040 76 86 f7 3f 6e 85 05 40 e8 15 19 40 5b ac 1a 40
       1.9337909 2.086269 2.391962 2.4167697
000050 8b 27 b7 be cf 8c da 3e f4 5e a6 3f 89 70 db 3f
       -0.35772356 0.42685553 1.2997727 1.7143718
000060 5a b7 06 40 46 0e 13 40 ef 16 17 40 c0 ae 2b 40
       2.104941 2.2977462 2.3607748 2.682541
000070 6b a0 3e 40 7e 31 4a 40 ff 3b 58 3d 4c 49 36 3f
       2.9785411 3.1592708 0.05279159 0.7120559
000080 20 8b b9 3f 8e 8b 8d 3f b4 81 f2 3f ff 89 dc 3f
       1.4495583 1.1058214 1.8945832 1.7229613
000090 5e da f8 3f e5 87 07 40 33 2a 23 40 2e 1f 2e 40
       1.944164 2.1176693 2.5494506 2.720653
0000a0 b5 39 3d bf 28 c5 81 3e 92 61 97 3f c3 a6 b2 3f
       -0.7391618 0.2534573 1.1826651 1.3957142
0000b0 b7 cb ee 3f 11 80 02 40 3a 1a 12 40 b7 b4 1d 40
       1.8655919 2.0390666 2.2828507 2.464155
0000c0 d2 a6 44 40 5a 7e 49 40 33 94 72 bc da 35 53 3f
       3.072682 3.148337 -0.014805841 0.82504046
0000d0 4a 4a a0 3f 15 07 8d 3f 39 9b f8 3f 71 98 e2 3f
       1.2522671 1.1017786 1.942237 1.7702771
0000e0 f3 c5 08 40 94 56 13 40 e3 a6 20 40 2b ce 19 40
       2.1370819 2.3021593 2.510186 2.4032085
0000f0 30 a4 0a bf 89 4f a0 3e 6d 83 a0 3f f4 b8 d0 3f
       -0.5415678 0.3131068 1.2540108 1.6306443
000100 e0 e8 01 40 75 5d 10 40 0e 70 0d 40 0f cf 25 40
       2.0298386 2.2557042 2.2099643 2.5907629
000110 ad 42 3a 40 ab 3f 50 40 4b 87 1e 3c 81 22 56 3f
       2.9103196 3.253886 0.009675811 0.836464
000120 81 25 a0 3f 37 c0 9d 3f b7 a5 0e 40 c2 de df 3f
       1.2511445 1.2324284 2.2288644 1.7489855
000130 d6 e6 0e 40 57 e5 0f 40 1f 92 30 40 dd 7d 1b 40
       2.232839 2.2483728 2.7589185 2.429557
000140 ff 40 2c bf 42 95 fe 3e 41 3b 74 3f 9e 63 e6 3f
       -0.67286676 0.4972325 0.95402914 1.7999151
000150 56 bf f1 3f 75 11 0e 40 50 7c 11 40 32 35 2f 40
       1.8886516 2.2198155 2.2732124 2.7376218
000160 67 a8 29 40 42 83 4f 40 e7 17 06 3e 37 88 3b 3f
       2.6509035 3.2423863 0.13095056 0.7325472
000170 a6 8c a9 3f b8 b7 8e 3f 87 db 03 40 8a c0 f8 3f
       1.3246047 1.1149817 2.060274 1.9433758
000180 ca f2 0f 40 da 62 1e 40 55 b0 14 40 a0 44 1b 40
       2.2491937 2.4747834 2.3232625 2.4260635
000190 89 1e 08 bf 1d 42 e9 3e 80 37 83 3f 79 12 d7 3f
       -0.5317159 0.45558253 1.0251312 1.6802512
0001a0 02 64 02 40 23 39 ff 3f ce aa 0c 40 79 32 2a 40
       2.037354 1.9939312 2.197925 2.6593306
0001b0 ab 4c 37 40 59 3c 5f 40 80 f6 c9 3c 09 af 6d 3f
       2.8640544 3.4880583 0.024653673 0.9284521
0001c0 06 82 8e 3f 3c 30 8b 3f fa 05 03 40 54 28 e8 3f
       1.113343 1.0874095 2.0472398 1.8137307
0001d0 3d 83 01 40 b7 84 19 40 1f 7a 22 40 09 ed 21 40
       2.0236351 2.3987253 2.5387037 2.5300925
0001e0 79 7c eb be 6c ec 1b 3f ef 3b af 3f 5f 8f dc 3f
       -0.45993403 0.60907626 1.3690165 1.7231253
0001f0 de 33 ee 3f b6 15 0e 40 e1 47 12 40 d0 73 2a 40
       1.8609579 2.2200751 2.2856371 2.6633186
000200 27 b7 2b 40 83 3f 54 40 2c e1 7b 3e 39 63 35 3f
       2.6830537 3.3163764 0.24597615 0.70854527
000210 71 c9 a7 3f fc d3 93 3f 10 0f ef 3f 70 07 f9 3f
       1.310835 1.1549067 1.8676472 1.9455395
000220 e9 21 13 40 70 44 1a 40 ca ad 26 40 a8 bc 23 40
       2.2989447 2.410427 2.6043572 2.5583897
000230 55 d3 9f be 9f 29 d9 3e 11 b4 a4 3f 27 09 bc 3f
       -0.3121592 0.42414567 1.2867452 1.4690293
000240 ef 09 e7 3f 42 4b 08 40 2a 73 0d 40 b2 6d 20 40
       1.8049906 2.1295934 2.210154 2.5066953
000250 50 f9 3a 40 f1 69 4e 40 79 4a 84 3e 05 e5 34 3f
       2.9214668 3.2252162 0.25838068 0.70661956
000260 b8 a2 96 3f 76 af b7 3f 76 6b 09 40 b7 30 ec 3f
       1.1768408 1.4350421 2.147184 1.8452367
000270 4a a1 07 40 8f 09 0b 40 b3 e2 29 40 ef a8 24 40
       2.1192193 2.1724584 2.6544616 2.572811
000280 4f e5 9f be d6 a2 e2 3e 44 77 86 3f 5f 4e cc 3f
       -0.31229636 0.4426486 1.0505147 1.5961417
000290 07 3e 02 40 d3 a8 f0 3f 77 85 17 40 5f 09 2c 40
       2.0350358 1.8801521 2.367521 2.688072
0002a0 39 d8 3a 40 49 b4 57 40 99 1e 9e 3d e9 af 36 3f
       2.9194472 3.3703787 0.0772068 0.7136217
0002b0 a3 34 b8 3f 09 f9 bb 3f e8 6b 0c 40 4e ed d1 3f
       1.4391063 1.4685374 2.194086 1.6400545
0002c0 ff ba 15 40 ed d5 05 40 1b 35 25 40 50 57 30 40
       2.3395383 2.091182 2.5813663 2.7553291
0002d0 3e ea 0f bf a1 b1 9e 3e 31 99 8c 3f e9 54 e3 3f
       -0.562168 0.30994895 1.098425 1.7760288
0002e0 cb 90 dd 3f 10 ea 01 40 b3 0c 15 40 e7 02 34 40
       1.7309812 2.029911 2.3289 2.8126771
0002f0 3c 65 39 40 7b d6 58 40 8e 88 54 bc 6a 77 61 3f
       2.8968039 3.3880908 -0.01297201 0.88072836
000300 c4 9c b0 3f 80 ce bd 3f 45 d6 ef 3f fc 0f ce 3f
       1.3797841 1.4828644 1.8737265 1.6098628
000310 64 de fd 3f 7b 39 13 40 d0 de 1b 40 18 47 28 40
       1.9833493 2.3003833 2.4354744 2.6293392
000320 e9 44 12 bf 1e 25 02 3f 8e cf 8b 3f 0c 06 e9 3f
       -0.571364 0.50837886 1.0922716 1.820497
000330 64 b9 f5 3f 57 42 16 40 d8 48 1c 40 17 21 32 40
       1.9197202 2.347799 2.441946 2.7832696
000340 a9 29 2f 40 f6 34 57 40 de 04 a1 3e b9 97 39 3f
       2.7369177 3.3626075 0.31449026 0.72497135
000350 a5 44 b8 3f 5e 90 ae 3f 2a 89 05 40 7a 5e ea 3f
       1.4395949 1.3637807 2.0864968 1.8310082
000360 3e f5 09 40 86 74 0d 40 f8 86 17 40 45 83 24 40
       2.1555934 2.210237 2.3676128 2.570512
000370 f3 a3 c1 be c7 5d d1 3e 3c 02 84 3f cc b1 d0 3f
       -0.37820396 0.4089186 1.0313182 1.6304259
000380 38 c6 02 40 35 12 11 40 fb d6 14 40 c1 b4 31 40
       2.0433483 2.2667363 2.3256214 2.7766573
000390 ad 7c 37 40 a2 73 60 40 77 c1 4e 3e 03 80 41 3f
       2.8669846 3.5070577 0.20190988 0.75585955
0003a0 48 ac 94 3f 46 07 b9 3f 8c e3 ff 3f 33 ed e2 3f
       1.1615076 1.4455345 1.9991317 1.7728637
0003b0 bd 89 16 40 4b 6e 1a 40 d8 f2 23 40 4e 24 30 40
       2.3521569 2.4129817 2.561697 2.7522159
0003c0 6f 06 d2 be 37 ea 16 3f d9 bb a9 3f 14 32 ca 3f
       -0.41020533 0.58951133 1.3260452 1.5796533
0003d0 45 ef dc 3f 0c 2d 10 40 f1 da 1f 40 6d 74 35 40
       1.7260519 2.2527494 2.4977381 2.835231
0003e0 e9 11 43 40 f1 92 55 40 42 3e bf 3e 80 1e 71 3f
       3.0479681 3.3370936 0.37352186 0.94187164
0003f0 a4 09 98 3f 84 15 a0 3f 96 ef eb 3f c4 32 00 40
       1.1877942 1.2506566 1.8432491 2.0030985

net.0.bias f4 [64]
000000 0d 03 56 40 9d 20 5d 40 ed c9 57 40 7f a5 5b 40
       3.3439362 3.4551156 3.3716996 3.431976
000010 a4 b7 5f 40 3f 9b 4c 40 f1 14 5d 40 d8 ba 54 40
       3.4955835 3.1969755 3.4544032 3.323904
000020 96 fa 5c 40 5c a0 5c 40 60 b3 51 40 68 a4 57 40
       3.4527946 3.4472876 3.2765732 3.3694096
000030 ca ef 50 40 6d 33 65 40 0e 40 4f 40 da af 61 40
       3.2646356 3.5812638 3.2382846 3.5263581
000040 2d 4f 4c 40 73 b6 64 40 5b 89 5c 40 51 8e 4c 40
       3.1923325 3.5736358 3.4458835 3.1961863
000050 7e f9 64 40 f1 15 52 40 79 78 62 40 a7 72 4d 40
       3.5777278 3.2825892 3.538603 3.2101228
000060 da a0 54 40 b8 ed 54 40 b0 06 4f 40 ad 0b 61 40
       3.3223176 3.3270092 3.2347832 3.5163376
000070 38 6d 53 40 c6 9d 63 40 a4 f8 61 40 ee 9b 48 40
       3.3035412 3.5565047 3.5308008 3.1345172
000080 3b 05 58 40 ac e6 58 40 55 36 4c 40 78 83 62 40
       3.3753192 3.389079 3.1908162 3.5392742
000090 45 78 4e 40 c8 68 49 40 33 c4 60 40 01 d5 56 40
       3.2260907 3.1470203 3.511975 3.3567507
0000a0 b8 99 4c 40 83 06 5a 40 25 8d 4e 40 4a c1 64 40
       3.1968822 3.4066474 3.2273648 3.5742974
0000b0 36 c2 4b 40 60 92 5a 40 12 d7 60 40 6f 22 64 40
       3.1837287 3.415184 3.5131269 3.5646017
0000c0 6e 1d 4b 40 5e 9d 62 40 14 c5 4e 40 3d 65 64 40
       3.1736712 3.540855 3.2307787 3.568679
0000d0 35 ca 5e 40 0b 56 5f 40 ef f6 51 40 22 af 56 40
       3.4810917 3.4896266 3.2806966 3.3544393
0000e0 27 72 5f 40 46 92 5b 40 6c 8e 5d 40 d7 be 59 40
       3.4913423 3.4308028 3.4618177 3.402273
0000f0 eb db 61 40 b0 a5 63 40 0e e1 5b 40 d9 12 4c 40
       3.5290477 3.5569878 3.4356112 3.1886504

net.2.weight f4 [64, 64]
000000 3f 63 49 3b 3d 47 cb 3a f5 06 a3 3c 99 df 64 bd
       0.0030729321 0.0015508902 0.019900778 -0.0558773
000010 37 32 ea bd 16 54 58 bd 0d 75 a0 bd 41 7f 82 3d
       -0.11435359 -0.052814566 -0.07834826 0.06371928
000020 d3 21 02 bb bd f9 a0 bc da 5d 5e 3d 9c f2 b9 bd
       -0.0019856587 -0.019650334 0.054288723 -0.09079477
000030 51 f5 a6 bd 59 16 68 3d 61 62 00 bd 1d 51 bb 3d
       -0.08152259 0.056661937 -0.03134382 0.091463305
000040 f9 27 d3 3b a8 11 06 be 1a 2b a9 bd b1 a5 13 bc
       0.006443974 -0.13092673 -0.08260174 -0.009011672
000050 1b 8d 85 bd 8b 0a a6 3d 20 00 c0 bd 9a eb 15 3b
       -0.06521054 0.0810748 -0.09375024 0.0022876025
000060 bb ac ac 3d fb 5a 2f 3d 1d 91 a4 3c a5 07 20 3d
       0.08431383 0.042811375 0.020088727 0.03906979
000070 71 49 e0 bd 0d a2 d4 bd ce c5 d0 bb f4 0d a0 3c
       -0.10951508 -0.10382471 -0.0063712364 0.019537903
000080 bc 1c 1a bd 44 8e 10 3d ee 61 00 be 45 83 0a be
       -0.03762506 0.035291925 -0.12537357 -0.13526638
000090 6c 60 2a 3d 54 36 a9 bd e0 e4 c5 3d 9c f6 b2 3d
       0.04159586 -0.082623154 0.09662795 0.08738443
0000a0 47 ad bc 3d 18 0e b1 bd 7c 9f 40 bd 1c e5 cf 3d
       0.092127375 -0.08645266 -0.047027096 0.10151121
0000b0 26 30 87 3d a3 84 19 bc a7 ec 0b 3d f3 5c 52 bb
       0.066009805 -0.009370002 0.034161236 -0.003209886
0000c0 b9 7f 22 3d 94 4f d4 3d 43 4f ae 3d cc f9 ff bc
       0.039672587 0.10366741 0.08511212 -0.031247042
0000d0 35 1d 92 bd 3c 5b 1d 3d f7 d7 b6 bb e8 ad 84 3d
       -0.07134477 0.038417086 -0.0055799442 0.064784825
0000e0 29 80 ee bd e0 24 33 3c dd c6 7f 3c 5c 83 92 3d
       -0.11645538 0.010934085 0.015611378 0.07153961
0000f0 82 df b1 bd df f6 92 bc 70 0c af 3d d7 d9 35 3c
       -0.08685209 -0.017939983 0.08547294 0.0110993
000100 6f eb ed bb 2b d5 3e bd ac 4c a5 3d 88 ff 7c bc
       -0.007260732 -0.04659001 0.080712646 -0.015441783
000110 ff 59 72 bd 7e 8a ef bd 4e a6 4d bc b1 a9 97 3d
       -0.05916786 -0.11696337 -0.012551857 0.07405413
000120 47 30 f3 bd 51 67 a2 bd a1 44 c1 3c a2 18 e8 bd
       -0.118744425 -0.07929862 0.023592295 -0.11332823
000130 c5 55 8d 3c 43 e6 e3 bd 96 6b 27 3d 1e 36 ce bd
       0.017252812 -0.11127903 0.040874086 -0.10068916
000140 88 c7 4d 3d 37 ca c8 bd 81 b7 a3 bd ab 9e a4 3d
       0.050239116 -0.098041944 -0.07993985 0.08038076
000150 e1 8d 1c bd a0 f3 0f bd cb 87 35 3d 68 74 27 3d
       -0.038221244 -0.03514445 0.044318955 0.040882498
000160 95 c4 c2 bd d6 8c 61 3d 3c b7 fa bb e5 38 80 bd
       -0.09510151 0.055065952 -0.007651238 -0.06260852
000170 3b ad 59 3d 17 77 ad bd 1d be 1f bc 19 d7 41 3c
       0.05314372 -0.0846998 -0.009749916 0.011831068
000180 c2 16 02 bd 6d 8d ca 3d f4 b5 3a 3d 70 2d ce 3d
       -0.031759985 0.09890256 0.04558368 0.1006726
000190 00 95 5c bc b8 cd 1c bd 9a f2 20 bd 72 a5 ab bd
       -0.013463259 -0.038282126 -0.039293863 -0.083811656
0001a0 5d eb 7e bd 34 87 d0 bd fa 7e 59 bd b2 dc ec bd
       -0.06223618 -0.10182038 -0.05309961 -0.11565532
0001b0 26 55 d3 3d 43 54 d9 3d 80 3d 44 3d 3b a2 67 bd
       0.10318975 0.10611775 0.047910213 -0.0565512
0001c0 5c e6 28 3d 38 19 7b bd 4a 41 f5 bc b3 9d 48 3d
       0.041235313 -0.061303347 -0.029938359 0.04897852
0001d0 44 f3 f7 bc 33 2e b9 bd 3a 90 83 bd 96 2c b5 3c
       -0.030267365 -0.09042015 -0.064239934 0.022115987
0001e0 9b d6 8d 3c f6 f3 4c bd 61 d8 56 bd 05 20 d1 3d
       0.017314246 -0.050037347 -0.05245245 0.10211185
0001f0 86 d2 a8 3d d3 98 fe bd 15 5b e7 bd f8 82 b9 3d
       0.08243279 -0.12431493 -0.112966694 0.090581834
000200 5e 22 11 40 83 06 0c 40 6f 68 10 40 2e cf 09 40
       2.2677226 2.1878974 2.2563741 2.1532702
000210 1e 6a 0c 40 5c 71 0f 40 6d 42 0f 40 b8 b4 0a 40
       2.1939769 2.241294 2.2384293 2.1672802
000220 0c ba 13 40 82 17 11 40 a4 96 12 40 58 74 0e 40
       2.3082304 2.2670598 2.2904444 2.225851
000230 86 d1 0a 40 2c cd 14 40 34 15 10 40 fd 1c 14 40
       2.1690383 2.3250227 2.2512941 2.3142693
000240 ea 2d 0d 40 0c 09 09 40 2a ba 04 40 c5 04 15 40
       2.2059274 2.1411772 2.0738626 2.328416
000250 12 9f 0a 40 21 2e 05 40 21 0c 11 40 0d 6f 0a 40
       2.165959 2.0809405 2.2663653 2.163028
000260 a8 a2 0d 40 09 5c 06 40 b5 2c 0e 40 bb f2 0a 40
       2.2130527 2.0993674 2.2214787 2.171065
000270 fe 1b 11 40 13 1f 14 40 e4 f3 13 40 83 c9 0e 40
       2.2673335 2.3143966 2.311761 2.2310493
000280 a0 c8 0b 40 65 7a 0e 40 a3 48 0f 40 2c ed 15 40
       2.1841202 2.2262204 2.2388084 2.3426008
000290 e4 73 0a 40 a0 ef 0c 40 d1 9f 06 40 f1 01 0b 40
       2.1633234 2.2021255 2.1035044 2.1719935
0002a0 eb c7 0a 40 0b 70 0c 40 c0 b9 09 40 76 ea 0e 40
       2.168452 2.1943386 2.1519623 2.2330604
0002b0 a6 1c 07 40 d6 08 0f 40 fd 7a 0b 40 0e ed 07 40
       2.1111236 2.2349143 2.1793816 2.1238437
0002c0 44 4d 14 40 b0 c0 08 40 4a 22 0c 40 65 ab 08 40
       2.317216 2.1367607 2.1895928 2.135461
0002d0 d5 a4 15 40 77 50 10 40 bf 28 13 40 b6 07 0b 40
       2.3381855 2.2549112 2.299362 2.1723456
0002e0 bb 5a 0c 40 ff 84 10 40 47 e1 0b 40 6b f3 05 40
       2.1930377 2.2581174 2.1856248 2.092982
0002f0 a0 30 0d 40 7b ca 12 40 55 7a 15 40 27 57 0a 40
       2.2060928 2.2936084 2.3355916 2.1615694
000300 31 2a 08 40 ab 0a 14 40 6c ac 0b 40 db 22 0f 40
       2.1275752 2.3131511 2.1823988 2.2365024
000310 5f 3a 0e 40 ea 3c 0a 40 c6 76 0e 40 36 aa 0c 40
       2.2223127 2.159968 2.2259994 2.1978889
000320 c4 be 07 40 c7 49 11 40 a0 5b 0e 40 09 1b 13 40
       2.1210184 2.270128 2.2243423 2.298525
000330 33 bb 0b 40 be 8b 0f 40 03 33 10 40 e2 2a 08 40
       2.1833007 2.2429042 2.2531135 2.1276174
000340 ab 26 0f 40 13 98 07 40 61 72 0b 40 33 3a 12 40
       2.236735 2.1186569 2.1788561 2.2848022
000350 79 35 12 40 f2 e2 02 40 05 16 11 40 4f 78 12 40
       2.2845137 2.0451016 2.266969 2.288593
000360 5c f3 06 40 5a 6d 11 40 ec 6f 04 40 b1 c2 06 40
       2.1086035 2.2722993 2.0693312 2.105633
000370 03 6e 09 40 58 ad 15 40 b9 c2 13 40 4d 27 07 40
       2.1473396 2.338705 2.30876 2.1117737
000380 f4 79 13 40 a7 11 12 40 59 33 11 40 cb 43 14 40
       2.3043184 2.2823274 2.268759 2.3166378
000390 97 19 0f 40 a6 41 13 40 40 f1 08 40 db 32 15 40
       2.2359369 2.3008819 2.1397247 2.331229
0003a0 b6 0b 0f 40 88 25 08 40 03 bb 0d 40 df af 11 40
       2.2350898 2.1272907 2.2145393 2.2763593
0003b0 d3 ea 14 40 b7 46 13 40 02 f1 0b 40 9a 17 10 40
       2.3268325 2.301191 2.186585 2.2514405
0003c0 57 12 0b 40 26 51 12 40 5f c8 10 40 67 59 10 40
       2.1729944 2.286203 2.2622297 2.2554567
0003d0 53 69 0f 40 71 b0 0e 40 5a b5 15 40 d4 53 0d 40
       2.2408035 2.2295191 2.3391938 2.2082415
0003e0 fa 38 04 40 f8 15 0b 40 39 0d 12 40 11 40 07 40
       2.0659776 2.1732159 2.282057 2.1132853
0003f0 38 9d 07 40 f9 c4 09 40 04 88 08 40 b9 10 0c 40
       2.1189709 2.1526473 2.1333017 2.1885207

net.2.bias f4 [64]
000000 e1 2f 29 3d 93 19 36 3c 77 d6 3e 40 49 60 41 40
       0.041305427 0.011114496 2.98184 3.0215018
000010 e9 f4 0a be 4f e0 46 40 a7 84 f8 3c c6 07 4d 40
       -0.13569988 3.1074407 0.030336691 3.2035995
000020 08 66 d2 bc b5 bf 5c 3d bd d7 4a 40 9a 92 08 bd
       -0.025683418 0.053893764 3.1694176 -0.033342935
000030 b5 7d 41 40 ac 01 10 39 e2 a7 77 bd fe 58 47 40
       3.0232975 0.00013733533 -0.06046284 3.1148067
000040 85 05 d8 3c 4b 6b 41 40 ae a6 43 40 f2 9d c7 3d
       0.02636982 3.0221736 3.0570483 0.097469226
000050 52 31 4a 40 0f 30 43 40 68 02 96 bd 14 5b 40 40
       3.1592603 3.0498083 -0.07324678 3.005559
000060 66 5a 4b 40 5a 6d 47 40 f6 31 bf bd 44 3a 3e 40
       3.1773925 3.1160493 -0.09335701 2.9723063
000070 d6 cb 40 40 3b f1 40 40 10 48 40 40 b0 b6 dc bd
       3.0124412 3.0147235 3.0043983 -0.107770324
000080 f7 5d 44 40 b1 44 f4 bd 30 b7 27 3d c3 0e 41 40
       3.0682352 -0.11927164 0.040946186 3.016526
000090 c7 9c a2 3d a1 a2 4a 40 9b e6 4a 40 1c 83 41 40
       0.07940059 3.166176 3.170325 3.0236273
0000a0 04 29 4b 40 a8 ad 43 40 e4 72 ab bd 6e d9 46 bd
       3.1743784 3.0574741 -0.08371523 -0.0485472
0000b0 bb 25 c3 3d bd eb 82 3d 87 bc 00 bc 14 0f ad 3d
       0.09528681 0.0639262 -0.007857448 0.084501415
0000c0 61 31 91 bc 9a 87 e0 bd 97 9d 3e 40 7c c7 21 3d
       -0.017723741 -0.10963364 2.9783685 0.039496884
0000d0 94 b0 4e 40 d7 bc a8 3c 46 ff 46 40 75 9e 4b 40
       3.2295275 0.020597858 3.1093307 3.1815464
0000e0 d6 33 ac 3d f5 06 43 40 1f 5e 42 40 9d c1 4c 40
       0.084083244 3.0472996 3.0369947 3.1993172
0000f0 67 dc 49 40 1e 11 3f 40 05 f8 49 40 5e b8 a4 3c
       3.1540773 2.9854198 3.155763 0.020107444

net.4.weight f4 [2, 64]
000000 d0 0d d2 3c 04 fa 23 bd 95 f4 00 40 dc c5 08 40
       0.025641352 -0.040033355 2.014928 2.1370764
000010 27 78 6e bc 7f 52 03 40 28 16 90 3c 03 8c 00 40
       -0.014555014 2.0519102 0.01758869 2.0085456
000020 79 7e c1 bd 8c 85 a9 3d 9c e6 ff 3f c5 a5 c0 bd
       -0.09447951 0.08277425 1.9992251 -0.09406618
000030 31 ef 02 40 53 3d 09 3e 51 1c a9 bd c1 81 f6 3f
       2.045849 0.134023 -0.08257354 1.9258348
000040 51 7d f2 bd 4e cd f3 3f fe 0f f9 3f b4 b3 fa 3c
       -0.118403085 1.9047029 1.9458005 0.030603267
000050 1e 99 02 40 bc b7 09 40 44 85 b4 3d 53 02 08 40
       2.0405955 2.1518393 0.08814481 2.1251419
000060 1b b3 02 40 0c 95 06 40 be 95 fd 3d d8 52 04 40
       2.0421817 2.102847 0.12382077 2.0675564
000070 ad 9d 09 40 c0 45 04 40 7a e5 04 40 d4 8f 29 3d
       2.1502488 2.0667572 2.0765061 0.04139693
000080 15 06 07 40 d8 12 5a 3d 77 9b c1 3d 77 49 f9 3f
       2.1097462 0.053240627 0.09453481 1.9475545
000090 65 14 d7 bc 8d 46 f4 3f 51 80 04 40 56 f9 09 40
       -0.026254842 1.908403 2.0703318 2.1558433
0000a0 bf 6e 06 40 59 2c 06 40 ca b4 7a 3a ca 5c 89 bd
       2.1005094 2.0964568 0.0009563683 -0.06707151
0000b0 01 23 74 bc 37 8e bf bc 3f 0f cd 3d 4a f4 52 3d
       -0.014900924 -0.023383243 0.100126736 0.051502503
0000c0 0c 8f da 3d 74 14 ca bd 8f 79 02 40 39 e2 f0 bc
       0.10671815 -0.098671824 2.0386693 -0.029404746
0000d0 cf a5 02 40 81 54 88 3d be 3d f5 3f 3c a8 08 40
       2.0413702 0.06656743 1.9159467 2.1352682
0000e0 85 dd 1b 3e 9d 6f f8 3f 75 ef 07 40 91 fc fa 3f
       0.15221222 1.9409062 2.1239903 1.9608327
0000f0 9a 9c 04 40 73 7b 05 40 09 c5 f6 3f 6b bd 1e bd
       2.0720582 2.0856597 1.927888 -0.03875486
000100 b7 be e5 bd bf ed bb bd 73 fe 0c 40 83 3f 01 40
       -0.112180166 -0.09176206 2.2030303 2.0195014
000110 c5 66 f9 bb 0a 6f 09 40 aa b4 20 bd 24 e1 06 40
       -0.007611128 2.1474023 -0.039234795 2.1074915
000120 85 43 55 bd a1 13 88 bd 9a 5c 07 40 bd 6f 13 3d
       -0.052066345 -0.06644369 2.115027 0.035995234
000130 0e 25 0e 40 37 14 a6 bd 53 66 d9 bc ad 46 0c 40
       2.2210116 -0.081093244 -0.02653805 2.1918137
000140 9d 91 96 bd c3 d5 0c 40 e1 39 08 40 3a 35 87 bd
       -0.07351992 2.200547 2.1285326 -0.06601949
000150 7e 6f 08 40 06 2d 02 40 70 02 6d bd a2 12 0e 40
       2.131805 2.033998 -0.057863653 2.2198873
000160 65 22 0d 40 6a f9 03 40 86 ae 95 bd ab 79 0a 40
       2.2052243 2.062098 -0.07308678 2.163676
000170 98 66 07 40 62 74 05 40 cc 1d 0b 40 fd 64 2f bd
       2.1156368 2.0852284 2.1736937 -0.04282092
000180 51 d9 00 40 a9 24 bd bd e9 bf 77 bd 07 8f 0a 40
       2.013264 -0.09235508 -0.060485754 2.1649797
000190 49 a2 9f bd 3b d9 0a 40 06 b3 05 40 ba e9 01 40
       -0.07794625 2.1695087 2.0890517 2.0298905
0001a0 89 dd 06 40 2a c6 05 40 5e fa c1 bd 1b 8a 9e 3c
       2.1072714 2.09022 -0.09471582 0.019352963
0001b0 59 c0 88 bd ab 22 34 bd 92 89 8e bd 89 22 95 bd
       -0.066773124 -0.043978374 -0.06959833 -0.07281978
0001c0 81 58 86 bd 2c 50 51 bd 3f c0 0d 40 9c 6c 07 bd
       -0.065598495 -0.05110185 2.2148588 -0.033062562
0001d0 8d 1a 06 40 3d f5 79 bd 90 95 09 40 e5 18 03 40
       2.0953705 -0.061024893 2.1497536 2.0483944
0001e0 a7 9c b7 bd fc c4 0a 40 56 cc 08 40 f4 bb 07 40
       -0.08965426 2.168273 2.1374717 2.1208467
0001f0 42 15 08 40 8e 03 06 40 c1 2b 08 40 ca 3c eb bc
       2.1262975 2.093967 2.1276705 -0.02871551

net.4.bias f4 [2]
000000 83 10 88 3f f8 b7 3e 40
       1.0630039 2.9799786
